Web_Development/chatbot/data.pth (torch, 5930 bytes, 6 tensors)

l1.weight f4 [8, 63]
0	0xbd2090b4	-0.0392005
1	0x3f0c5f99	0.5483337
2	0xbd1e1753	-0.038596462
3	0x3e6c7ab5	0.23093684
4	0xbe077172	-0.1322687
5	0x3d41d0f3	0.04731841
6	0x3eda36b3	0.42619857
7	0x3ebe0ca7	0.37119028
8	0xbee453dc	-0.4459523
9	0x3e5315e8	0.20613825
10	0x3ea9b6fe	0.33147424
11	0x3eefe81e	0.4685678
12	0x3ea20bb2	0.31649548
13	0xbd6b9142	-0.057511576
14	0x3ef3e473	0.4763523
15	0xbe82833c	-0.2549075
16	0xbebd4250	-0.36964655
17	0xbe44f728	-0.19234908
18	0xbee8376d	-0.45354787
19	0xbe9e02cb	-0.30861506
20	0xbdd6cbcf	-0.10488092
21	0xbea6f005	-0.32604995
22	0xbe95e664	-0.29277337
23	0xbec54a99	-0.38533476
24	0x3d4a144b	0.04933576
25	0xbe4c5a9a	-0.19956437
26	0x3f48dc5a	0.7846123
27	0x3f0a01a8	0.5390878
28	0x3f44e720	0.7691517
29	0xbe96cb2b	-0.2945188
30	0xbebb1c4e	-0.36545032
31	0xbda29fb2	-0.07940616
32	0x3e74cb62	0.2390571
33	0xbed5a2d9	-0.41725805
34	0xbeec4720	-0.46148014
35	0xbc25aa9c	-0.010111477
36	0x3ed2c863	0.41168508
37	0x3ef4aa54	0.477862
38	0x3e9f2bd5	0.3108813
39	0xbb7b8f9c	-0.0038385158
40	0x3e3806c0	0.17971325
41	0x3f5984fe	0.84968555
42	0xbe167e1e	-0.14696547
43	0xbe843bb3	-0.25826797
44	0x3f098166	0.5371307
45	0x3e3964e1	0.18104888
46	0xbee4cc9c	-0.44687355
47	0xbe0af164	-0.13568646
48	0x3d83a0fd	0.064271905
49	0xbe0410d1	-0.1289704
50	0x3e90c11e	0.28272337
51	0x3e2dea76	0.16983971
52	0xbf02cce9	-0.5109392
53	0x3e5619ee	0.20908329
54	0x3e90f5cf	0.28312537
55	0xbe990f80	-0.29894638
56	0x3f102a9f	0.56315035
57	0x3f257dd7	0.6464514
58	0xbef3356c	-0.47501695
59	0x3e779100	0.24176407
60	0x3e5f1792	0.21786335
61	0xbe81fdb9	-0.25388888
62	0x3dcbb2ef	0.09946238
63	0xbe05114e	-0.12994882
64	0x3ecb5a39	0.39717272
65	0x3d7c1e4b	0.061552327
66	0x3eeed809	0.46649197
67	0xbe54929e	-0.20759055
68	0x3e03dcc6	0.12877187
69	0x3f34352d	0.7039364
70	0x3f53f640	0.8279762
71	0xbdaed15d	-0.085360266
72	0x3e5b1c3b	0.21397488
73	0x3ec2f275	0.38075605
74	0x3ee0e250	0.43922663
75	0x3ec19a37	0.3781297
76	0xbe2d82f2	-0.16944483
77	0x3e3a204b	0.18176381
78	0x3b8c2d9f	0.0042778994
79	0xbd7bc47a	-0.06146667
80	0x3c36fecd	0.011169148
81	0x3c027cf2	0.00796436
82	0xbec4de15	-0.38450685
83	0xbe966bb4	-0.29379046
84	0xbeab80d9	-0.3349674
85	0xbede1ff6	-0.4338376
86	0xbea05bd3	-0.31320056
87	0x3e981542	0.29703718
88	0xbe448ff5	-0.1919554
89	0x3f4ae299	0.7925201
90	0x3e86d1c2	0.26331908
91	0x3f4b58f0	0.7943258
92	0xbc97238b	-0.018449565
93	0xbd2c753d	-0.042103995
94	0xbc314255	-0.010819037
95	0x3eb01bc4	0.34396183
96	0xbe3e76ef	-0.18600057
97	0xbedd480f	-0.4321904
98	0xbe2285a6	-0.15871295
99	0x3ca4a485	0.02009798
100	0x3ee648d2	0.44977432
101	0x3ea197af	0.31561038
102	0x3e2add70	0.16686034
103	0x3e79556c	0.24348992
104	0x3f19ad74	0.60030293
105	0xbe8ce2ca	-0.27516776
106	0x3e051a42	0.12998298
107	0x3e21a17a	0.15784255
108	0x3e75fe5f	0.24022816
109	0xbf04e151	-0.51906306
110	0xbe300b22	-0.17191747
111	0xbb6053a8	-0.003422955
112	0xbe45604a	-0.19275013
113	0x3f5565a9	0.83358246
114	0x3f112b0c	0.5670631
115	0xbefc62b1	-0.49294046
116	0x3e300fc9	0.17193522
117	0x3f545d90	0.82955265
118	0xbf06aa35	-0.52603465
119	0x3efda3e5	0.49539104
120	0x3ef075ad	0.4696478
121	0xbe40cf3b	-0.18829052
122	0x3e9cc9e3	0.30622777
123	0x3e99262f	0.29911944
124	0xbecfb70a	-0.40569335
125	0x3dd9480c	0.10609445
126	0x3ea206d4	0.31645834
127	0x3e98b8ed	0.29828587
128	0x3e5caaec	0.21549577
129	0x3ed17555	0.4090983
130	0xbe947d9d	-0.29002085
131	0xbee41eef	-0.4455485
132	0x3ec9a276	0.3938176
133	0x3df20f99	0.11819381
134	0xbdbd7fe8	-0.09252912
135	0x3e4670e8	0.19379008
136	0x3e84ed3f	0.25962254
137	0xbdf2a50b	-0.11847886
138	0x3e7d73c2	0.2475119
139	0xbe63f96b	-0.22263114
140	0x3e525d8e	0.20543501
141	0x3f2123ca	0.62945235
142	0x3f1c170c	0.60972667
143	0xbe320af9	-0.17386998
144	0xbdf186d4	-0.117932945
145	0xbed5c616	-0.4175269
146	0x3ea02662	0.31279284
147	0xbf0702b8	-0.52738523
148	0xbf02d68b	-0.51108617
149	0x3da48de5	0.08034877
150	0x3ec8c2bb	0.39211068
151	0x3d133671	0.03594059
152	0x3f838a26	1.0276535
153	0x3db814e2	0.08988358
154	0x3ec78e68	0.38975835
155	0x3da17be7	0.078849606
156	0x3f11d17e	0.56960285
157	0x3b0e09f4	0.0021673413
158	0x3ec348b3	0.38141403
159	0x3f18ca94	0.5968411
160	0x3f05a0fe	0.5219878
161	0x3edec860	0.4351225
162	0xbc017ae2	-0.007902833
163	0xbd80de40	-0.06292391
164	0x3e751b28	0.2393614
165	0x3e958f05	0.29210678
166	0xbe39dfa9	-0.18151726
167	0x3f7725ec	0.9654224
168	0x3eb8fd7d	0.36130896
169	0x3da5ae7c	0.08089921
170	0xbe859e8b	-0.2609752
171	0x3f11a0f6	0.5688623
172	0x3efb7e89	0.49119976
173	0x3e9b0fa6	0.30285376
174	0xbe28eca9	-0.16496529
175	0x3eeda17e	0.4641227
176	0xbee537d1	-0.44769147
177	0xbe403043	-0.1876841
178	0x3ebfea0d	0.37483254
179	0x3e8681e2	0.26270968
180	0xbf07681f	-0.5289325
181	0x3f2f2fed	0.68432504
182	0x3e55c5a0	0.20876169
183	0xbf3234a0	-0.6961155
184	0x3f27ec5f	0.6559505
185	0xbe81bf21	-0.25341132
186	0x3e5100f0	0.20410514
187	0x3f12042d	0.5703762
188	0xbde25092	-0.11050524
189	0x3eef73c2	0.46768004
190	0x3ea2382b	0.31683478
191	0x3e5eab07	0.21744929
192	0xbe958d24	-0.29209244
193	0xbe9ac696	-0.30229634
194	0xbedebedb	-0.43504986
195	0x3f0bb22e	0.54568756
196	0xbec68017	-0.387696
197	0x3f0d0a37	0.5509371
198	0xbe2c145c	-0.16804641
199	0xbe5be4bf	-0.21473978
200	0xbe47dd1e	-0.19517943
201	0xbe1d1309	-0.15339293
202	0xbecc67cc	-0.3992294
203	0xbde2b245	-0.110691585
204	0x3d576b84	0.05259277
205	0x3c4aa84f	0.012369229
206	0xbeac1c7f	-0.3361549
207	0x3f1e9400	0.6194458
208	0xbf3e37a9	-0.7430368
209	0x3eb52a2c	0.35383737
210	0xbf3e3551	-0.74300104
211	0xbf2bc61b	-0.6709916
212	0xbed85800	-0.4225464
213	0x3d745e7a	0.059660412
214	0x3c2073fb	0.009793277
215	0xbf3e3887	-0.74305004
216	0xbd24cd94	-0.040235117
217	0x3f50249a	0.8130585
218	0x3eef5b47	0.46749327
219	0xbdcc4fe0	-0.099761724
220	0x3ebbb843	0.36664018
221	0xbeb9ed3c	-0.36313808
222	0x3e0e4d28	0.1389662
223	0x3e71b6e1	0.23604919
224	0x3ea50b39	0.32235125
225	0xbb3fd75f	-0.0029272658
226	0xbe6997d2	-0.22811821
227	0xbe8141f0	-0.2524562
228	0xbbfe1fa0	-0.007755235
229	0xbdaa8ed4	-0.083280236
230	0xbf3e3463	-0.74298686
231	0x3e672734	0.22573549
232	0x3eb1318b	0.3460811
233	0xbda5915a	-0.08084364
234	0xbe65546f	-0.2239549
235	0x3f5d753c	0.8650701
236	0x3efec90c	0.49762762
237	0xbea6eeff	-0.32604215
238	0x3e9854de	0.2975225
239	0xbe9268ce	-0.28595585
240	0xbdfd96c8	-0.12382275
241	0x3e8ae143	0.27124986
242	0xbd98369c	-0.07432291
243	0xbeab3dfe	-0.33445734
244	0x3e4de305	0.20106132
245	0x3f06f7c8	0.52721834
246	0xbe758571	-0.23976685
247	0x3e6a2cd9	0.2286867
248	0xbc7a79ba	-0.015287811
249	0xbe8fbf0c	-0.28075445
250	0x3e8eb57c	0.27872837
251	0x3deba6a9	0.11506397
252	0x3ea201f5	0.31642118
253	0xbd7df0ec	-0.06199734
254	0x3e72c657	0.23708473
255	0x3eea4177	0.4575307

l1.bias f4 [8]
0	0x3ee81f33	0.45336303
1	0x3f535c9b	0.8256318
2	0x3f19e30a	0.6011206
3	0x3f3e3808	0.74304247
4	0x3effcbea	0.49960262
5	0x3f470896	0.77747476
6	0x3f21ef92	0.6325618
7	0x3f4465d6	0.7671789

l2.weight f4 [8, 8]
0	0x3ebbcae9	0.36678246
1	0xbe17901a	-0.14801064
2	0x3f87b22b	1.0601248
3	0x3f9fbfab	1.2480367
4	0x3fa67fae	1.3007715
5	0xbf4a8cc1	-0.79121023
6	0x3f564644	0.83700967
7	0xbf22fd5d	-0.6366785
8	0xbf831d5f	-1.0243338
9	0xbf095f05	-0.53660613
10	0x3ea5bd5e	0.32371038
11	0x3f3595b1	0.70931536
12	0x3f07d16b	0.5305392
13	0x3f18ceab	0.5969035
14	0x3ec3c84e	0.38238758
15	0x3fb7c3f6	1.4356678
16	0x3f14233d	0.5786627
17	0x3f48cc1f	0.78436464
18	0xbecf12fb	-0.40444168
19	0x3f6518c9	0.89490944
20	0xbf80960c	-1.0045791
21	0x3f9d3cdc	1.2284198
22	0x3da94fe6	0.082671925
23	0xbd5a0eaa	-0.05323664
24	0x3f95b221	1.1694986
25	0x3f932b46	1.1497581
26	0x3e58f5ea	0.21187559
27	0xbf9fd3f3	-1.2486557
28	0x3f337a61	0.7010861
29	0x3f1d755b	0.61507195
30	0x3f0aeb52	0.5426532
31	0xbf3d3b1e	-0.7391833
32	0x3f38f063	0.722418
33	0x3d82cd9a	0.06386872
34	0x3f2a032d	0.66411096
35	0x3fa0760f	1.2536029
36	0xbe576607	-0.21035014
37	0xbedf71c6	-0.4364149
38	0x3f8e9635	1.113959
39	0x3cbe7c2f	0.023252575
40	0x3f024363	0.50884074
41	0x3f9c5344	1.2212911
42	0x3f79ccf1	0.9757834
43	0x3f7f55e1	0.99740416
44	0xbf986fb5	-1.190909
45	0xbc8f6fad	-0.017509306
46	0xbfad38d4	-1.3532968
47	0x3f014e6c	0.5051029
48	0x3f0ed2b1	0.5579024
49	0x3f28bd5f	0.6591396
50	0xbf547842	-0.82996
51	0x3f08b78b	0.53405064
52	0xbf2104e9	-0.6289812
53	0x3f322494	0.69587064
54	0x3f8c5b44	1.0965352
55	0x3e483902	0.19552997
56	0x3f7bf4a5	0.9842017
57	0x3effbd6c	0.49949205
58	0x3f441e8c	0.7660911
59	0xbef4b5e4	-0.47795022
60	0x3f46474c	0.7745254
61	0xbf9b41a8	-1.2129412
62	0x3dbf2821	0.09333826
63	0x3fd1eabc	1.639976

l2.bias f4 [8]
0	0x3e38868c	0.18020076
1	0x3f5c1a70	0.8597784
2	0x3f605f58	0.87645483
3	0x3f0da173	0.55324477
4	0xbea6dbf6	-0.32589692
5	0x3f1f3b4e	0.62199867
6	0xbec694a2	-0.38785273
7	0xbe1cb8f4	-0.15304929

l3.weight f4 [10, 8]
0	0xbe840b74	-0.25789988
1	0x3eade43a	0.33963186
2	0xbf95f4ee	-1.1715372
3	0xbf848fa8	-1.035634
4	0xbe9f09b0	-0.31062078
5	0x3f3021a2	0.6880132
6	0xbfab97fe	-1.3405759
7	0x3ebf239b	0.37331852
8	0x3edaed66	0.42759246
9	0x3efccf52	0.49376923
10	0xbfa0e5a4	-1.2570081
11	0xbf9901e6	-1.1953704
12	0x3e1683bf	0.14698695
13	0xbf87bf62	-1.060528
14	0xbfca6f1a	-1.5815156
15	0x3ef89d31	0.48557428
16	0xbf93a1cb	-1.153375
17	0xbf88e98f	-1.0696276
18	0x3f122f38	0.571033
19	0x3ed24cc7	0.410742
20	0xbfa9cea5	-1.3266188
21	0x3f109a45	0.56485397
22	0xbe029cb0	-0.12755084
23	0xbf99e378	-1.2022543
24	0xbdc58bb6	-0.09645788
25	0xbfa2bd74	-1.2714067
26	0xbeaeed98	-0.34165645
27	0x3f000155	0.5000203
28	0xbf00b263	-0.50272197
29	0x3f5435c9	0.8289457
30	0xbfd0fbde	-1.6326864
31	0x3e84e7fd	0.25958243
32	0xbd8610cc	-0.065461725
33	0xbed690be	-0.41907305
34	0xbe9012b4	-0.2813927
35	0xbf380bb4	-0.7189286
36	0x3ed87ad6	0.42281216
37	0x3e1c2500	0.1524849
38	0x3eb8df47	0.36107847
39	0xbc8892b1	-0.01667151
40	0xbf310cfa	-0.69160426
41	0x3f0779fa	0.52920496
42	0x3f2c86fb	0.67393464
43	0xbf9c414f	-1.2207431
44	0xbf096fd1	-0.53686243
45	0x3f431d55	0.7621663
46	0xbf0a8aee	-0.5411824
47	0xbfee1a8f	-1.8601855
48	0xbf735040	-0.95044327
49	0x3f87d36a	1.0611393
50	0x3e3cedf4	0.18450147
51	0x3e600e91	0.21880557
52	0xbfc37d3e	-1.5272596
53	0xbf7d9fdf	-0.9907207
54	0xbee57bbf	-0.44820973
55	0x3e29aabc	0.16569036
56	0xbef7a7ec	-0.48370302
57	0xbf5c421c	-0.86038375
58	0x3eb1240a	0.34597808
59	0x3ee310b7	0.4434869
60	0x3e27e333	0.16395263
61	0xbfb9ecc6	-1.4525383
62	0x3f03b10d	0.51442033
63	0xbf85c03c	-1.044929
64	0x3e8d069e	0.2754411
65	0xbf66d98d	-0.90175706
66	0xbf835490	-1.0260181
67	0x3f1f6aa7	0.62272114
68	0xbe05f028	-0.13079894
69	0xbf96040d	-1.1719986
70	0xbea85423	-0.3287669
71	0x3eed35dc	0.46330154
72	0x3f6fc3c4	0.9365809
73	0x3dfc0225	0.123050965
74	0xbea8d79a	-0.3297699
75	0xbed40293	-0.41408214
76	0x3ed2b6a3	0.41154966
77	0xbf7d61a6	-0.98977125
78	0xbeb80286	-0.35939425
79	0xbfc6bffd	-1.552734

l3.bias f4 [10]
0	0xbee8375b	-0.45354733
1	0xbed73820	-0.42035007
2	0x3c8bea67	0.017079545
3	0xbdba37af	-0.09092652
4	0xbf049df9	-0.5180355
5	0x3ea36e21	0.3191996
6	0x3ed6afa8	0.4193089
7	0xbe670ac9	-0.22562708
8	0x3d558073	0.05212445
9	0x3deb0eb6	0.11477415
