Deep_Learning/BargainAI/models/buyer_model.pth (torch, 98777 bytes, 24 tensors)

fc1.weight f4 [64, 7]
0	0x3ec3b678	0.3822515
1	0x3e954490	0.29153872
2	0xbe6adf30	-0.22936702
3	0x3ed0cc08	0.40780663
4	0xbd7f950b	-0.062397998
5	0xbe6e59e0	-0.23276472
6	0x3ec7045c	0.38870513
7	0xbe3632c5	-0.17792805
8	0x3e7e7698	0.24849927
9	0x3ee02426	0.4377758
10	0x3c7235df	0.014783352
11	0xbe11e443	-0.14247231
12	0xbe22b96f	-0.1589105
13	0xbdb2d3d7	-0.087318115
14	0xbd86580b	-0.065597616
15	0x3ea86319	0.32888106
16	0x3e6280bd	0.22119422
17	0x3ed5bf4e	0.41747516
18	0x3e86b1c6	0.26307505
19	0x3e8c0007	0.2734377
20	0x3ed903ad	0.42385617
21	0x3ed7d0de	0.4215154
22	0x3e8e6c48	0.27816987
23	0x3e0715c1	0.13191892
24	0x3d25a6dd	0.040442336
25	0x3ec2aa38	0.38020492
26	0xbe0b6c96	-0.13615641
27	0x3d17e147	0.037080076
28	0x3dbb14fc	0.09134862
29	0xbebcc1ca	-0.368666
30	0x3d931424	0.07181576
31	0x3e00656a	0.12538686
32	0x3e199002	0.14996341
33	0x3e8d3aa1	0.27583793
34	0xbd0d5840	-0.03450799
35	0x3e5177a9	0.20455803
36	0xbea2a10b	-0.3176349
37	0xbdefbb5d	-0.117056586
38	0x3e4af863	0.19821315
39	0x3e365ac3	0.1780806
40	0x3dfaf8b9	0.12254471
41	0x3dd9d90d	0.10637102
42	0xbe8d40c6	-0.2758848
43	0x3e1d9be0	0.15391493
44	0x3de8e5f0	0.11371982
45	0x3e30d6f9	0.17269506
46	0xbe7dc50c	-0.24782199
47	0x3ea310f5	0.31848875
48	0x3d7c4254	0.061586693
49	0x3b07fe80	0.002075106
50	0xbeab368b	-0.3344005
51	0xbe0cb8ed	-0.13742419
52	0xbd603cb0	-0.054745376
53	0xbe7846c1	-0.2424574
54	0xbdaf8820	-0.08570886
55	0xbebf1f44	-0.3732854
56	0xbe584bf7	-0.21122728
57	0xbe7e0917	-0.24808155
58	0x3eca86e6	0.39556044
59	0xbe0d5ae8	-0.13804209
60	0x3ee39f35	0.44457403
61	0x3ed9ca98	0.4253738
62	0x3eb1a430	0.34695578
63	0xbe169631	-0.14705731
64	0xbea91474	-0.33023417
65	0xbe912880	-0.28351212
66	0x3d85cca8	0.06533176
67	0xbeb62081	-0.35571674
68	0xbe7db3e1	-0.2477565
69	0xbe805a38	-0.2506883
70	0x3eaa4b60	0.33260632
71	0x3e509ddf	0.20372723
72	0xbe66cf8f	-0.22540115
73	0x3e669208	0.22516644
74	0xbe0fb015	-0.14032014
75	0x3e9a1309	0.30092648
76	0x3ddf6682	0.10908224
77	0xbe36e016	-0.1785892
78	0xbc652b20	-0.013987333
79	0xbe607672	-0.21920183
80	0xbe920ba6	-0.28524512
81	0xbe805a2d	-0.250688
82	0xbeb0e24c	-0.3454765
83	0xbe177411	-0.1479037
84	0x3e9ae3f3	0.30252036
85	0xbe52b6e6	-0.20577583
86	0x3e7af943	0.24509148
87	0xbe9affa0	-0.3027315
88	0xbed001db	-0.40626416
89	0x3eaebe34	0.34129488
90	0x3e0796cd	0.1324112
91	0xbe3f0d07	-0.18657313
92	0x3deb74c6	0.11496882
93	0xbe82b9ca	-0.2553237
94	0x3ec9ebc8	0.394377
95	0x3db10e1f	0.086452715
96	0x3ebb9966	0.3664047
97	0x3d9f39ec	0.077747196
98	0xbebfa6ab	-0.37431845
99	0xbca68c60	-0.020330608
100	0xbe5cb8a0	-0.21554804
101	0xbe9c62a2	-0.30544
102	0xbd151e48	-0.03640583
103	0xbe2089ee	-0.15677616
104	0x3ebff47f	0.37491223
105	0x3cb0bcb0	0.021574348
106	0x3d8d9fad	0.06915221
107	0x3ea32c1f	0.318696
108	0x3e9f6035	0.31128088
109	0x3eb5ffa7	0.3554661
110	0x3cca46d6	0.02469198
111	0xbe5cf278	-0.2157687
112	0xbe472779	-0.19448651
113	0x3d2a0090	0.041504443
114	0x3dfc2cf4	0.12313262
115	0xbe873f5d	-0.2641553
116	0xbd0a3510	-0.03374201
117	0xbeb5ecba	-0.3553217
118	0x3da411a8	0.0801118
119	0xbd3aff23	-0.045653474
120	0x3e1a5645	0.15071972
121	0x3e263226	0.16230068
122	0x3d1358bf	0.035973307
123	0xbe1a8c52	-0.1509259
124	0xbe11998d	-0.14218731
125	0x3ea1b35b	0.3158215
126	0x3dd02c60	0.10164714
127	0xbe86134d	-0.261866
128	0xbe9eede1	-0.31040862
129	0xbe4f0b11	-0.20219065
130	0xbe32e655	-0.17470677
131	0x3dfaf21c	0.1225321
132	0xbe75c46a	-0.24000707
133	0xbdab4bf4	-0.08364096
134	0x3df5fad8	0.12010735
135	0x3e8f0875	0.2793614
136	0xbdfeda74	-0.124440104
137	0x3d39a368	0.045321852
138	0xbe9f9bf6	-0.31173676
139	0xbe83b2cc	-0.2572235
140	0xbe8d1085	-0.27551666
141	0xbe6d04ae	-0.23146316
142	0xbe1b0c81	-0.15141489
143	0xbe94c576	-0.290569
144	0x3e0e6db2	0.13909033
145	0xbe3b6845	-0.18301494
146	0xbde2e7cc	-0.11079368
147	0xbe8d648e	-0.2761578
148	0x3dcafc0c	0.099113554
149	0xbeae7d27	-0.3407986
150	0x3e25da4a	0.16196552
151	0x3eafdb43	0.3434697
152	0xbe754f96	-0.23956141
153	0xbe4b0015	-0.1982425
154	0x3ea335ab	0.31876883
155	0x3d90f73d	0.07078407
156	0xbe51a24f	-0.20472072
157	0xbe567008	-0.20941174
158	0x3ecaaa0b	0.39582857
159	0x3ed5657f	0.41678998
160	0x3ebba158	0.36646533
161	0x3ebc0cbc	0.36728466
162	0x3d5dd373	0.05415673
163	0x3d5284c9	0.051396165
164	0x3d0f3760	0.03496492
165	0xbe3e63d0	-0.18592763
166	0xbe75da73	-0.24009113
167	0xbcfe7aca	-0.03106441
168	0x3ea2d7ac	0.3180517
169	0x3ecf3ecc	0.40477598
170	0x3cd92191	0.026505264
171	0x3e2f18d3	0.17099313
172	0x3e5fe7f2	0.21865824
173	0x3d5c6167	0.053803828
174	0xbe5d956d	-0.21639033
175	0xbe9a4119	-0.3012779
176	0xbeb78b9b	-0.35848698
177	0x3d1e8609	0.038702045
178	0x3e1abeec	0.15111893
179	0xbe2f0919	-0.17093314
180	0x3e20954c	0.15681952
181	0x3e929dd0	0.28636026
182	0x3e8f1466	0.2794525
183	0xbc73bba0	-0.014876276
184	0x3c9d30fe	0.0191884
185	0x3de2b666	0.11069946
186	0xbe1e5035	-0.15460284
187	0x3e0fe7f9	0.14053334
188	0xbd9fbace	-0.07799302
189	0x3e306295	0.17225106
190	0x3e97305a	0.29529077
191	0x3e9a04a1	0.30081657
192	0xbdc29f1e	-0.095030054
193	0x3ed4a9d4	0.4153582
194	0x3e10c8ed	0.14139147
195	0x3e4be08e	0.1990988
196	0x3d31f17e	0.043443196
197	0x3dcab4ef	0.098977916
198	0x3cbd1389	0.023080604
199	0x3e9fb5b4	0.31193316
200	0xbdc59703	-0.09647944
201	0xbe7e8f85	-0.24859436
202	0x3dfbd07f	0.12295627
203	0xbe83f0a3	-0.2576953
204	0x3e821f4a	0.25414497
205	0xbd50a0bb	-0.050934535
206	0xbe22e042	-0.1590586
207	0x3ede1062	0.43371874
208	0x3d957b43	0.07298901
209	0xbe3f8120	-0.18701601
210	0x3e87e0bf	0.26538655
211	0xbcac3bd0	-0.021024615
212	0x3d634208	0.055482894
213	0x3cae1ce0	0.021254003
214	0x3c202120	0.009773523
215	0x3e168932	0.14700773
216	0xbeb15d4a	-0.34641486
217	0xbe9575a6	-0.2919132
218	0x3d965f26	0.07342367
219	0x3ebf4d1f	0.37363526
220	0x3df033d8	0.117286384
221	0xbe915da0	-0.28391743
222	0x3ec32fd0	0.38122416
223	0x3ec07eac	0.37596643
224	0x3eebdfb8	0.4606912
225	0xbe02dbd2	-0.12779167
226	0x3e835972	0.2565418
227	0x3d4be019	0.049774263
228	0xbd03afff	-0.032150265
229	0x3e79f63a	0.24410334
230	0x3ebc1e06	0.36741656
231	0x3d8485cc	0.06470832
232	0x3ee2e02c	0.44311655
233	0xbdd1ac2e	-0.10237919
234	0xbe9f410e	-0.3110432
235	0x3e61fe72	0.2206972
236	0x3e7b054c	0.2451374
237	0xbd9d3bea	-0.07677443
238	0xbe84bc9a	-0.25925142
239	0xbe170f87	-0.14752017
240	0x3e489e7e	0.1959171
241	0xbec0a235	-0.37623754
242	0xbcb27d40	-0.02178824
243	0xbe988d29	-0.29795197
244	0x3de8cdd0	0.113673806
245	0xbe9480b4	-0.29004443
246	0xbe8a41f4	-0.27003443
247	0x3eafb723	0.3431941
248	0xbd4b8388	-0.049685985
249	0x3e0cf6aa	0.1376597
250	0xbd1bc1f8	-0.03802678
251	0xbc045a60	-0.008078188
252	0x3e1dedff	0.1542282
253	0x3ed6bad3	0.4193941
254	0xbe307d88	-0.17235386
255	0x3e6b2c26	0.2296606

fc1.bias f4 [64]
0	0x3eaf2cde	0.34213918
1	0x3e9140df	0.28369805
2	0xbe85a716	-0.2610404
3	0x3e9fe611	0.31230214
4	0xbea06e11	-0.31333974
5	0x3d5f8ca8	0.0545775
6	0x3dc5937f	0.09647273
7	0x3e9074a9	0.28214005
8	0x3dfa81ac	0.12231764
9	0xbd96e488	-0.073678076
10	0xbd792c43	-0.060833227
11	0x3ea83f27	0.3286068
12	0x3e0d5895	0.13803323
13	0xbe8a5ee1	-0.27025512
14	0xbeb96fb9	-0.3621805
15	0x3d8596a1	0.06522871
16	0xbeb3d201	-0.35121158
17	0xbdaf8770	-0.085707545
18	0xbea6400e	-0.32470745
19	0x3d75a760	0.059974074
20	0xbbb06080	-0.0053825974
21	0xbdb3c1f0	-0.08777225
22	0x3e2f07e4	0.17092854
23	0x3e05f2e4	0.13080937
24	0xbe97070c	-0.29497564
25	0xbccff990	-0.025387555
26	0xbe1ad602	-0.151207
27	0x3e03bc51	0.12864806
28	0x3e70cb74	0.23515111
29	0x3ed6484a	0.41852027
30	0x3dd81b34	0.105520636
31	0xbdedb8fa	-0.11607547
32	0x3eb6c7dc	0.35699356
33	0x3ed07ebe	0.40721697
34	0x3d59b8e0	0.053154826
35	0xbeaecc7c	-0.34140384
36	0xbde59b5e	-0.112112746
37	0xbd2ef728	-0.042716175
38	0x3dd2d5ce	0.10294686
39	0x3e711bae	0.23545715
40	0x3d2db0f3	0.04240508
41	0x3ea24e6d	0.3170046
42	0xbdc99794	-0.09843364
43	0x3ea68d29	0.32529572
44	0xbe94347b	-0.2894629
45	0x3ee63670	0.44963408
46	0x3ea89064	0.3292266
47	0xbe4c34b1	-0.19941975
48	0xbcb9d2d0	-0.022683531
49	0x3ecc7d6a	0.39939433
50	0x3eb121fb	0.34596238
51	0x3ea0d245	0.31410423
52	0xbda54071	-0.08068932
53	0xbda31e44	-0.07964757
54	0x3e0157dd	0.12631173
55	0xbd206f87	-0.03916886
56	0x3ebf4b92	0.37362343
57	0x3d033b60	0.032039046
58	0xbe0b208b	-0.13586633
59	0xbe21edef	-0.1581342
60	0xbe7d8d39	-0.24760903
61	0x3e5e0e52	0.2168515
62	0x3e34fdea	0.17674986
63	0x3ee1b0b1	0.44080117

fc2.weight f4 [64, 64]
0	0xbd3e94ea	-0.046528734
1	0xbdd6960e	-0.104778394
2	0x3d8fdc35	0.07024423
3	0xbd8bdbe9	-0.06829054
4	0x3d3d2ae0	0.046183467
5	0x3cd29725	0.025706837
6	0xbdf7c760	-0.12098575
7	0xbca05c48	-0.019575253
8	0x3cf82d20	0.030294955
9	0x3dc6307e	0.09677218
10	0x3d100438	0.035160273
11	0x3dd3393e	0.103136525
12	0xbd45e51c	-0.0483142
13	0x3def6b8c	0.11690435
14	0xbc61afb0	-0.013774797
15	0x3d8f3251	0.06992019
16	0x3c260740	0.0101335645
17	0xbd06b648	-0.03288868
18	0xbc916ce8	-0.017752126
19	0x3df3f8f8	0.119127214
20	0xbdac98b8	-0.08427566
21	0xbd80418a	-0.062625006
22	0x3ca981b5	0.020691732
23	0xbe0525a1	-0.13002636
24	0xbd5e138f	-0.05421787
25	0xbddc3448	-0.10752159
26	0xbad55f00	-0.0016278923
27	0x3b6c31e7	0.0036040486
28	0x3ded9bc8	0.116019785
29	0x3d95402c	0.072876304
30	0xbd31992c	-0.043358967
31	0xbd178ab8	-0.036997527
32	0xbd8fce9e	-0.07021831
33	0xbcaeab39	-0.02132188
34	0xbdff7522	-0.12473513
35	0xbd261a9c	-0.04055272
36	0x3dcb99ae	0.099414214
37	0xbdd52840	-0.10408068
38	0xbd8b1871	-0.06791771
39	0x3d3a75fc	0.045522675
40	0x3db9b534	0.09067765
41	0x3c00b0d0	0.007854655
42	0x3de1ba1e	0.11021827
43	0xbdd6c8cb	-0.10487517
44	0xbdb14cc6	-0.086572215
45	0x3c2ef6f9	0.010679
46	0x3d3af8ce	0.045647435
47	0xbc043a00	-0.008070469
48	0x3cbb7d58	0.022886917
49	0xbd626e46	-0.055280946
50	0xbdf9e1f9	-0.12201304
51	0x3db9a648	0.09064919
52	0xbd0ea92c	-0.034829304
53	0x3de3e2b8	0.111272275
54	0xbdc8a37b	-0.097968064
55	0xbc6edf30	-0.014579579
56	0x3d51e568	0.05124417
57	0xbd68ee19	-0.056867693
58	0x3d0808a0	0.03321135
59	0x3df3124e	0.11868726
60	0x3d9c65ec	0.076366276
61	0xbd8583f4	-0.06519309
62	0xbdaa285a	-0.08308478
63	0xbd8aa82f	-0.0677036
64	0xbcff8958	-0.03119342
65	0x3d931bb0	0.07183015
66	0x3d90ddee	0.0707358
67	0x3dac2f7c	0.084074944
68	0xbcae8360	-0.021302879
69	0xbcf1bf10	-0.029510051
70	0xbdbe403c	-0.092895955
71	0xbd15eae4	-0.036600962
72	0x3dd6bc4e	0.10485135
73	0xbd994df8	-0.074855745
74	0xbdb2fc94	-0.08739582
75	0x3d812960	0.0630672
76	0xbd27fb90	-0.041011393
77	0x3d008dd8	0.031385273
78	0xbdef1da6	-0.11675577
79	0xbd8c85f6	-0.068614885
80	0x3d44e464	0.048069373
81	0xbcffe1f8	-0.03123568
82	0x3d0f8284	0.03503658
83	0x3cb41b40	0.02198565
84	0x3d14163c	0.036154017
85	0x3dac4414	0.08411422
86	0xbd68e960	-0.05686319
87	0xbd265de8	-0.0406169
88	0xbd85a6b0	-0.06525934
89	0xbcc6cc38	-0.024267301
90	0xbdfe59a8	-0.12419444
91	0xbd479f80	-0.048736095
92	0xbcdfec18	-0.027334258
93	0x3db6412c	0.08899149
94	0x3db5c04e	0.0887457
95	0xbddcecf0	-0.1078738
96	0x3d8f1fd4	0.069884926
97	0x3ce5c238	0.028046712
98	0xbd9745e0	-0.073863745
99	0x3d0c818c	0.034303233
100	0xbda0d89e	-0.078538164
101	0xbdf44958	-0.11928052
102	0xbd0b0314	-0.033938482
103	0x3db6689a	0.0890667
104	0xbdc6abdc	-0.09700748
105	0xbde46e10	-0.11153805
106	0xbdd8ffe8	-0.10595685
107	0x3d1b3534	0.037892535
108	0x3cc70e58	0.024298832
109	0xbd120cd8	-0.03565678
110	0xbdb310d0	-0.08743441
111	0xbd92d6a6	-0.07169847
112	0xbcedf438	-0.029047117
113	0x3db76de6	0.08956508
114	0x3d0bb404	0.034107223
115	0x3c294400	0.010331154
116	0xbdb03c9a	-0.08605309
117	0xbdb3cd80	-0.087794304
118	0xbdf8d636	-0.121502325
119	0xbd907cba	-0.0705504
120	0xbd8c5994	-0.06853023
121	0x3d460b20	0.048350453
122	0xbdaf8a5a	-0.0857131
123	0xbdf37150	-0.11886847
124	0xbdec2180	-0.11529827
125	0x3da05f98	0.07830733
126	0x3d568008	0.052368194
127	0xbd87f35e	-0.066382155
128	0x3d37014f	0.044678982
129	0xbbb73ab8	-0.0055917166
130	0x3e18cf07	0.14922725
131	0xbcd2e7de	-0.025745329
132	0x3d5ded84	0.05418159
133	0xbd8a4b82	-0.06752683
134	0x3d80e67a	0.0629396
135	0xbcc221e8	-0.023697808
136	0x3d06681b	0.032814126
137	0x3d89b1b8	0.0672335
138	0x3da1b9ac	0.07896742
139	0x3dbb1e6e	0.091366634
140	0x3d1631ab	0.03666846
141	0x3e28731b	0.16450159
142	0xbdd44638	-0.10364956
143	0x3d6a27ab	0.057166737
144	0x3d27e568	0.040990263
145	0x3c59ad99	0.013286018
146	0x3d8c5d22	0.06853701
147	0xbdfe0784	-0.12403777
148	0xbcbf9458	-0.023386165
149	0xbdd2b9b2	-0.10289325
150	0x3dd5f827	0.10447722
151	0x3e1ef6a8	0.1552378
152	0x3df68477	0.120369844
153	0xbd9bfb79	-0.07616324
154	0xbd974cef	-0.07387721
155	0x3dd55d8c	0.10418233
156	0x3e2670ce	0.16253969
157	0xbc5347d3	-0.012895542
158	0xbd0d1cc0	-0.034451246
159	0x3ce4632a	0.027879316
160	0x3d865e02	0.06560899
161	0x3e4f3a1f	0.20237015
162	0x3dba9cac	0.09111914
163	0x3ccd0388	0.025026098
164	0x3e20da89	0.15708365
165	0xbcf4f4d0	-0.029901892
166	0x3e147b24	0.145001
167	0xbda3e6f6	-0.08003037
168	0x3e1dfe9f	0.15429161
169	0xbd8c9bea	-0.06865676
170	0x3ce31600	0.027720451
171	0x3d31968b	0.04335646
172	0xbd9ba916	-0.0760061
173	0x3e0db783	0.13839535
174	0xbc0d3ea2	-0.00862089
175	0xbd67f38c	-0.05662875
176	0x3dac9c2e	0.084282264
177	0x3d8038a3	0.062608026
178	0xbce8f85a	-0.028438736
179	0x3d08c7fb	0.03339384
180	0x3ca813d8	0.020517275
181	0x3dc9c146	0.09851317
182	0x3d9f3b44	0.07774976
183	0xbce53f82	-0.027984384
184	0x3df02512	0.117258206
185	0xbb865d63	-0.004100488
186	0xbd426073	-0.047455262
187	0xbd1c7925	-0.03820147
188	0x3e044ccb	0.12919919
189	0x3e3f5aba	0.18686953
190	0xbb24b132	-0.002513003
191	0x3c271f47	0.010200328
192	0xbd3b3131	-0.04570121
193	0x3e10a380	0.1412487
194	0x3dbce251	0.09222854
195	0x3e132999	0.14371337
196	0x3d9e611c	0.07733366
197	0xbb18582d	-0.0023245916
198	0x3e17d508	0.14827359
199	0x3de60724	0.11231831
200	0x3d0ce1b4	0.034394935
201	0xbcc826b8	-0.024432525
202	0x3de4e514	0.11176506
203	0x3c2fa7d0	0.010721162
204	0xbcad0c98	-0.02112417
205	0x3d5e7373	0.05430932
206	0xbce8c168	-0.028412536
207	0x3d9b963b	0.075970136
208	0xbd94e0f2	-0.072694674
209	0x3d816827	0.063186936
210	0xbda0a3bc	-0.0784373
211	0x3c6c0380	0.014405131
212	0xbd9170fe	-0.0710163
213	0x3d41f7a0	0.047355294
214	0x3e234966	0.15945968
215	0x3d24767c	0.040152058
216	0xbc8f8ab5	-0.017522195
217	0xbce93da3	-0.028471773
218	0xbe0096eb	-0.1255757
219	0x3e3bead9	0.18351306
220	0x3e48f545	0.19624813
221	0x3e3d71be	0.1850042
222	0xbd29e064	-0.04147376
223	0x3e576d7a	0.21037856
224	0x3dfd0146	0.123537585
225	0x3e4c3180	0.19940758
226	0x3dec0ae0	0.11525512
227	0xbd567084	-0.052353397
228	0xbd08f68b	-0.033438247
229	0xbdd2b106	-0.10287671
230	0x3c709691	0.014684335
231	0xbc4bd6f0	-0.012441382
232	0xbd3ba873	-0.045814943
233	0xbd9e47d2	-0.077285424
234	0xbdf03120	-0.1172812
235	0x3e1daeda	0.15398732
236	0xbd08622c	-0.03329675
237	0x3e0e0681	0.13869669
238	0x3e4538da	0.19259968
239	0x3cc61f38	0.024184808
240	0xbcc31b40	-0.023816705
241	0x3d9cbcc4	0.07653192
242	0x3c98bab8	0.018643722
243	0x3c8965a1	0.016772093
244	0xbc2a9edf	-0.010413854
245	0xbdcb5f2a	-0.099302605
246	0x3cac4ea5	0.021033594
247	0x3d7dcf23	0.06196512
248	0x3c5a3de9	0.013320425
249	0x3e15db93	0.14634542
250	0xbd3d7d33	-0.046261977
251	0x3d82cb67	0.06386452
252	0x3e1d67fe	0.15371701
253	0xbcc2333d	-0.023706073
254	0x3c4e63f5	0.012597074
255	0x3dc48f0b	0.09597596

fc2.bias f4 [64]
0	0xbc7df7b7	-0.015500954
1	0xbd939be2	-0.07207467
2	0x3e079159	0.1323904
3	0x3d44c2e2	0.048037417
4	0x3d709d4b	0.058743756
5	0x3d87d930	0.06633222
6	0xbda3faa3	-0.080067895
7	0x3c9669e0	0.018361032
8	0x3cc32915	0.0238233
9	0x3e1ff6a0	0.15621424
10	0xbd42faf4	-0.04760261
11	0x3dd77bf0	0.10521686
12	0x3df14dbd	0.117824055
13	0x3e0de53f	0.13856982
14	0xbde59310	-0.112096906
15	0xbde6ae58	-0.11263722
16	0xbd224e0c	-0.039625213
17	0x3e35ebaa	0.1776568
18	0x3e3e239a	0.18568268
19	0xbd4fa785	-0.05069687
20	0xbd052858	-0.032509178
21	0xbde76b84	-0.11299804
22	0x3da71efd	0.081602074
23	0xbd6ebd34	-0.058285907
24	0xbd07321b	-0.03300677
25	0x3d4f7c0a	0.050655402
26	0x3d1288cf	0.035775002
27	0xbd2f4b7e	-0.042796604
28	0x3e29dea0	0.16588831
29	0x3d91ac4e	0.07112943
30	0x3c8a6bb7	0.016897066
31	0xbd84f488	-0.06491953
32	0xbd9748a2	-0.073869005
33	0x3ded7037	0.11593669
34	0x3bb17900	0.0054160357
35	0x3d05582f	0.0325548
36	0xbd47f490	-0.048817217
37	0x3d9a89b4	0.07545796
38	0xbc0e92de	-0.008702008
39	0xbcb62de0	-0.022238672
40	0x3de110e6	0.10989551
41	0xbd6db628	-0.058035046
42	0x3d813c6c	0.06310353
43	0xbd067f44	-0.032836214
44	0xbd97de7c	-0.074154824
45	0x3d165771	0.036704484
46	0xbdc20db3	-0.09475269
47	0xbd91f0e8	-0.07126027
48	0xbda53248	-0.08066231
49	0xbd9582fe	-0.073003754
50	0x3da4c0ce	0.08044587
51	0x3e192ab5	0.14957698
52	0xbd0f96ac	-0.0350558
53	0x3d68dacb	0.056849282
54	0x39addfce	0.0003316388
55	0x3dba9fd8	0.09112519
56	0x3d9c6b96	0.07637708
57	0xbd83a290	-0.06427491
58	0x3d4202db	0.047366004
59	0x3e1e7ce0	0.15477324
60	0xbdd95d3e	-0.10613488
61	0xbdd403bc	-0.10352275
62	0x3db44588	0.088023245
63	0x3d808a40	0.06276369

fc3.weight f4 [14, 64]
0	0x3dd0bdfc	0.10192487
1	0x3d51cc18	0.05122003
2	0xbda80937	-0.082048826
3	0xbd8fcf9b	-0.070220195
4	0xbd49b0b7	-0.049240794
5	0x3c2d7b50	0.010588482
6	0xbda63bb6	-0.08116858
7	0x3c097500	0.008389711
8	0xbd586a37	-0.05283567
9	0x3d5d8225	0.054079194
10	0x3d02852c	0.031865284
11	0xbdf71200	-0.1206398
12	0xb9b7b76a	-0.00035041134
13	0x3d3d760f	0.046255168
14	0x3ca46f78	0.020072684
15	0xbdfad7d4	-0.12248197
16	0x3d85cfda	0.06533785
17	0x3c691b3d	0.0142276855
18	0x3dd4700b	0.10372933
19	0x3ce61f92	0.028091226
20	0xbde7d138	-0.11319202
21	0xbe014bfa	-0.12626639
22	0xbdfec607	-0.124401145
23	0xbc84ddb8	-0.016219005
24	0xbda865a5	-0.08222512
25	0x3c299666	0.010350799
26	0x3cac58c0	0.021038413
27	0x3d8ca88f	0.068680875
28	0xbcb4c2df	-0.022065578
29	0x3d82f74c	0.063948244
30	0x3c3bd660	0.011464685
31	0xbdb7be48	-0.0897184
32	0xbbd45d8a	-0.0064808773
33	0x3db2c14e	0.08728276
34	0x3d03da6c	0.032190725
35	0x3dd94c57	0.10610264
36	0xbd78a284	-0.060701862
37	0xbd2250d0	-0.03962785
38	0xbdaa7d14	-0.08324638
39	0x3d150338	0.036380023
40	0x3d4faad4	0.050700024
41	0x3dcc2f7e	0.09969996
42	0x3d91053f	0.07081079
43	0xbd66abc0	-0.056316137
44	0xbcc2170f	-0.023692636
45	0xbc267f27	-0.010162151
46	0x3d793736	0.06084367
47	0x3dc3cd92	0.09560694
48	0xbdc6e246	-0.09711127
49	0xbc8e57cf	-0.017375855
50	0xbd138774	-0.03601785
51	0x3dc12782	0.09431364
52	0x3d92ecca	0.0717407
53	0xbda633e1	-0.08115364
54	0xbd23ec0f	-0.040020045
55	0x3dc3d2fe	0.09561728
56	0x3c52c180	0.012863517
57	0xbd32fecc	-0.043700024
58	0x3d20a15c	0.039216384
59	0x3d990cb0	0.07473123
60	0xba0a9100	-0.0005285889
61	0x3d8380f8	0.06421083
62	0x3cd481a8	0.025940731
63	0xbd4786e0	-0.04871261
64	0xbdfc92a4	-0.12332657
65	0x3dd77ba4	0.105216295
66	0x3dbb4232	0.09143485
67	0x3c8854ae	0.01664194
68	0xbd927f3d	-0.07153175
69	0x3cafb530	0.021448702
70	0xbd7fdc5c	-0.06246601
71	0xbdc2a218	-0.09503573
72	0x3c657772	0.014005529
73	0x3c2ff6e9	0.01074002
74	0x3db7f57c	0.08982369
75	0x3df9d83a	0.12199445
76	0xbbf3ed84	-0.0074440856
77	0x3d8b7e16	0.06811158
78	0x3de4cd70	0.111719966
79	0x3de52bb0	0.11189973
80	0x3da671e2	0.0812719
81	0x3dad98bc	0.084763974
82	0xbd25769d	-0.04039632
83	0xbd9e0f94	-0.07717815
84	0x3d7085b6	0.058721267
85	0x3d567359	0.052356098
86	0xbd9d3f1c	-0.07678053
87	0x3deda802	0.116043106
88	0x3db36e74	0.08761302
89	0xbd507496	-0.050892435
90	0xbd97c8ff	-0.07411384
91	0x3cb4e70f	0.022082834
92	0xbd72011d	-0.059083093
93	0x3a5b7f00	0.00083731115
94	0x3d1be36f	0.038058694
95	0x3dba110c	0.09085283
96	0xbbde577f	-0.0067853327
97	0x3d98d924	0.07463291
98	0xbdaf8c52	-0.08571686
99	0xbd4533b2	-0.048145004
100	0x3ab27480	0.0013615042
101	0x3dc95704	0.0983105
102	0xbd68a5cb	-0.056798737
103	0xbdb89bf6	-0.09014122
104	0x3dc28b1a	0.09499188
105	0x3cb1a400	0.021684647
106	0x3d971602	0.073772445
107	0xb9d18de5	-0.00039969306
108	0xbba6ad75	-0.0050865957
109	0xbd815d43	-0.063166164
110	0x3e17570d	0.14779301
111	0x3d637478	0.055530995
112	0xbcaead60	-0.021322906
113	0x3c15ba98	0.009138726
114	0x3d464de4	0.048414126
115	0x3d1dd1ea	0.038530268
116	0xbd4e2fe4	-0.05033864
117	0xbd73128e	-0.059343867
118	0x3df3a099	0.11895866
119	0x3d6e127e	0.058123104
120	0x3d96085c	0.07325813
121	0x3df7e344	0.12103894
122	0xbcb0ce0e	-0.02158263
123	0x3de622a5	0.11237077
124	0xbd20dc1b	-0.03927241
125	0x3da37616	0.079815075
126	0xbd0d20b0	-0.034455
127	0x3dad6e42	0.08468296
128	0x3d051428	0.032489926
129	0xbd9b1412	-0.075721875
130	0x3bf4f182	0.007475079
131	0xbde0a646	-0.10969214
132	0x3da7ae19	0.08187503
133	0x3d15bf20	0.036559224
134	0xbd03b6a6	-0.03215661
135	0xbdabf57c	-0.08396432
136	0xbcb7c67d	-0.022433514
137	0xbbef0722	-0.0072945515
138	0x3caa5240	0.020791173
139	0xbcbebd68	-0.023283675
140	0xbdb4695c	-0.08809158
141	0xbde675ed	-0.11252961
142	0xbdeadff0	-0.11468494
143	0x3d232e48	0.03983906
144	0xbdff9d46	-0.124811694
145	0xbe245e68	-0.16051638
146	0xbd1f3e74	-0.03887792
147	0x3d540dfc	0.05177115
148	0x3d2b3ebc	0.041807875
149	0x3dcf6234	0.10126153
150	0x3c3daa9b	0.01157632
151	0x3c0bbb10	0.008528486
152	0xbae1e295	-0.0017233664
153	0x3d5b7761	0.053580645
154	0xbb049140	-0.0020228177
155	0xbb8b5112	-0.0042516077
156	0xbe1b9748	-0.15194428
157	0xbb982c80	-0.0046439767
158	0x3dc1e5a7	0.09467631
159	0x3cc45330	0.023965448
160	0x3d0c140e	0.034198813
161	0x3cdafe00	0.026732445
162	0x3c9ed7a8	0.019389942
163	0x3cfbe004	0.030746467
164	0xbae66c00	-0.0017579794
165	0x3db21a52	0.086964265
166	0xbda8c398	-0.082404315
167	0xbdda9e7e	-0.10674761
168	0x3db78abc	0.08962008
169	0x3d56f57c	0.052480206
170	0xbd534076	-0.051575147
171	0xbdb3daac	-0.08781943
172	0x3ddfa85c	0.10920784
173	0xbba14f1c	-0.0049227607
174	0xbd9fa70c	-0.077955335
175	0xbdfe4644	-0.12415746
176	0xbdd5d3f0	-0.104408145
177	0xbdc10c3b	-0.09426161
178	0xbd372900	-0.044716835
179	0xbdcff8aa	-0.10154851
180	0x3da1cb20	0.07900071
181	0xbd97e8d7	-0.074174576
182	0xbd86ac74	-0.065758616
183	0x3c9a8093	0.018860137
184	0x3dc8e644	0.09809545
185	0x3d304a1c	0.043039426
186	0xbdd1173b	-0.10209509
187	0xbe1af623	-0.15132956
188	0x3dfd757d	0.12375925
189	0xbbe3fbc0	-0.006957501
190	0x3dfa9388	0.122351706
191	0x3bd7c920	0.0065852553
192	0xbcd28648	-0.025698796
193	0xbd2f1358	-0.042743057
194	0x3da03593	0.078227185
195	0xbd771fa4	-0.06033291
196	0x3dcff09e	0.10153316
197	0xbd98c718	-0.07459849
198	0xbdfbf33c	-0.12302253
199	0xbd8d93ea	-0.06912978
200	0xbc63a400	-0.013894081
201	0x3e19f692	0.15035465
202	0x3dfb5488	0.122719824
203	0xbdc94ff6	-0.098297045
204	0x3e0b0f87	0.13580142
205	0xbd7f5611	-0.06233794
206	0xbd27ca28	-0.040964276
207	0x3c8289e8	0.0159349
208	0x3c1027e0	0.008798569
209	0xbd9ada10	-0.07561123
210	0xbd89fcea	-0.06737693
211	0x3c1679f0	0.009184346
212	0x3d969414	0.073524624
213	0x3d07e0b3	0.033173274
214	0x3debf39f	0.115210764
215	0x3a688000	0.0008869171
216	0xbcdf555d	-0.027262384
217	0x3c3c36cd	0.011487675
218	0x3de08fd8	0.10964936
219	0xbdcf6614	-0.10126892
220	0x3e0cbf30	0.13744807
221	0x3ce6f368	0.028192237
222	0xbdaef207	-0.08542257
223	0x3de39b98	0.111136615
224	0xbd0d8bed	-0.03455727
225	0xbccd631f	-0.025071679
226	0x3dcecdfe	0.10097884
227	0xbd1bb18d	-0.038011122
228	0x3cb966c0	0.022632003
229	0xbd90baf6	-0.0706691
230	0x3dd795e0	0.10526633
231	0xbc925f50	-0.017867714
232	0x3d35a0bc	0.04434274
233	0x3d0e0564	0.03467311
234	0x3da7dbd4	0.08196226
235	0xbd897847	-0.06712394
236	0x3c7a9110	0.015293375
237	0x3d864bf4	0.06557456
238	0x3db7b6d7	0.08970421
239	0xbdf5ce2e	-0.12002216
240	0xbde25ed8	-0.11053246
241	0xbda4edb4	-0.08053151
242	0x3d504a7c	0.050852284
243	0xbd7e3163	-0.062058818
244	0xbd9c8140	-0.0764184
245	0xbce454c4	-0.02787245
246	0xbd2053d3	-0.03914244
247	0x3da38560	0.07984424
248	0x3d8ec2ee	0.06970774
249	0xbb1b54c0	-0.0023701638
250	0x3d1be7e6	0.038062952
251	0xbd7f06d7	-0.062262382
252	0x3d602be6	0.054729365
253	0xbdae61a6	-0.08514719
254	0xbd500480	-0.05078554
255	0x3ba66f20	0.005079165

fc3.bias f4 [14]
0	0x3dbc0af9	0.0918178
1	0xbd4065ee	-0.046972208
2	0xbdcda556	-0.10041301
3	0x3db3e092	0.08783068
4	0x3e04990c	0.12949008
5	0xbcd2b560	-0.025721252
6	0x3dfc2749	0.123121805
7	0x3e12e32e	0.14344475
8	0xbcbef912	-0.023312125
9	0x3de4d84a	0.11174066
10	0x3dcecacc	0.10097274
11	0xbe0315b6	-0.12801251
12	0x3cd4396e	0.02590629
13	0x3cb395b9	0.02192198

fc1.weight f4 [64, 7]
0	0x3e9e9fc9	0.3098128
1	0x3e758b02	0.23978809
2	0xbe8feeb0	-0.28111792
3	0x3ec11df3	0.37718162
4	0xbdd74c74	-0.10512629
5	0xbe91ac08	-0.28451562
6	0x3eac854b	0.33695444
7	0xbe8ac645	-0.27104393
8	0x3e2ed9ce	0.17075273
9	0x3eb855c1	0.36002925
10	0xbd47a338	-0.048739642
11	0xbe585a9b	-0.21128313
12	0xbe72563a	-0.23665705
13	0xbe2906bb	-0.16506474
14	0xbe161756	-0.1465734
15	0x3e81e83f	0.25372502
16	0x3e158b0a	0.1460382
17	0x3eb61d6b	0.3556932
18	0x3e4d5116	0.20050463
19	0x3e4b0a5a	0.19828168
20	0x3eb288d3	0.34870014
21	0x3ebe72c3	0.3719693
22	0x3e6f950e	0.23396704
23	0x3db3a478	0.08771604
24	0x3c232660	0.00995788
25	0x3eafc447	0.34329435
26	0xbe38b018	-0.18035924
27	0xbbe96680	-0.0071228147
28	0x3dbb14fc	0.09134862
29	0xbebcc1ca	-0.368666
30	0x3d931424	0.07181576
31	0x3e00656a	0.12538686
32	0x3e199002	0.14996341
33	0x3e8d3aa1	0.27583793
34	0xbd0d5840	-0.03450799
35	0x3e1fb782	0.15597346
36	0xbeab41e5	-0.3344871
37	0xbe091f5b	-0.13390867
38	0x3e3d7482	0.18501475
39	0x3e2337d2	0.15939263
40	0x3dd87554	0.105692536
41	0x3db755b0	0.089518905
42	0xbeac9e3c	-0.33714473
43	0x3d995c10	0.07488263
44	0x3d0e1490	0.03468758
45	0x3de3e1a8	0.11127025
46	0xbea1d2d5	-0.31606165
47	0x3e753416	0.2394565
48	0xbc8eea00	-0.017445564
49	0x3b07fe80	0.002075106
50	0xbeab368b	-0.3344005
51	0xbe0cb8ed	-0.13742419
52	0xbd603cb0	-0.054745376
53	0xbe7846c1	-0.2424574
54	0xbdaf8820	-0.08570886
55	0xbebf1f44	-0.3732854
56	0xbe99ab6e	-0.30013603
57	0xbea63121	-0.32459357
58	0x3ea35a53	0.3190485
59	0xbe4ef354	-0.2021001
60	0x3ebf0c31	0.3731399
61	0x3eb29e05	0.34886184
62	0x3e8a779d	0.27044383
63	0xbe169631	-0.14705731
64	0xbea91474	-0.33023417
65	0xbe912880	-0.28351212
66	0x3d85cca8	0.06533176
67	0xbeb62081	-0.35571674
68	0xbe7db3e1	-0.2477565
69	0xbe805a38	-0.2506883
70	0x3ea698c5	0.3253843
71	0x3e5c6fa6	0.21526965
72	0xbe5afdc8	-0.21385872
73	0x3e7e905a	0.24859753
74	0xbe014428	-0.12623656
75	0x3e9ffbed	0.31246892
76	0x3df70a14	0.12062469
77	0xbe36e016	-0.1785892
78	0xbc652b20	-0.013987333
79	0xbe607672	-0.21920183
80	0xbe920ba6	-0.28524512
81	0xbe805a2d	-0.250688
82	0xbeb0e24c	-0.3454765
83	0xbe177411	-0.1479037
84	0x3eb862c1	0.36012843
85	0xbe61b702	-0.22042468
86	0x3e6bf92a	0.23044267
87	0xbe8d7074	-0.27624857
88	0xbea0ad3b	-0.31382164
89	0x3ea73e25	0.326646
90	0x3df12d60	0.11776233
91	0xbe690bf4	-0.22758466
92	0x3db92f34	0.090422064
93	0xbe8f4b2e	-0.27987045
94	0x3ebbdcbd	0.36691847
95	0x3d815e9c	0.063168734
96	0x3eaf0801	0.34185794
97	0x3d59e8b8	0.053200454
98	0xbebfa6ab	-0.37431845
99	0xbca68c60	-0.020330608
100	0xbe5cb8a0	-0.21554804
101	0xbe9c62a2	-0.30544
102	0xbd151e48	-0.03640583
103	0xbe2089ee	-0.15677616
104	0x3ebff47f	0.37491223
105	0xbd702230	-0.058626354
106	0xba332a00	-0.00068345666
107	0x3e7ed53e	0.24886033
108	0x3e800233	0.25001678
109	0x3e9328d3	0.28742084
110	0xbd38e898	-0.045143694
111	0xbe923abc	-0.28560436
112	0xbe472779	-0.19448651
113	0x3d2a0090	0.041504443
114	0x3dfc2cf4	0.12313262
115	0xbe873f5d	-0.2641553
116	0xbd0a3510	-0.03374201
117	0xbeb5ecba	-0.3553217
118	0x3da411a8	0.0801118
119	0xbdc054d8	-0.09391183
120	0x3dcddcd0	0.10051882
121	0x3de59494	0.1120998
122	0x3c51f0e0	0.012813777
123	0xbe36e711	-0.17861582
124	0xbe450165	-0.19238813
125	0x3e87ff6d	0.26562062
126	0x3dd02c60	0.10164714
127	0xbe86134d	-0.261866
128	0xbe9eede1	-0.31040862
129	0xbe4f0b11	-0.20219065
130	0xbe32e655	-0.17470677
131	0x3dfaf21c	0.1225321
132	0xbe75c46a	-0.24000707
133	0xbdab4bf4	-0.08364096
134	0x3df5fad8	0.12010735
135	0x3e8f0875	0.2793614
136	0xbdfeda74	-0.124440104
137	0x3d39a368	0.045321852
138	0xbe9f9bf6	-0.31173676
139	0xbe83b2cc	-0.2572235
140	0xbe8d1085	-0.27551666
141	0xbe6d04ae	-0.23146316
142	0xbe1b0c81	-0.15141489
143	0xbe94c576	-0.290569
144	0x3e0e6db2	0.13909033
145	0xbe3b6845	-0.18301494
146	0xbde2e7cc	-0.11079368
147	0xbe8d648e	-0.2761578
148	0x3dcafc0c	0.099113554
149	0xbeae7d27	-0.3407986
150	0x3e25da4a	0.16196552
151	0x3eafdb43	0.3434697
152	0xbe754f96	-0.23956141
153	0xbe4b0015	-0.1982425
154	0x3e8685f1	0.26274064
155	0x3c856ac0	0.016286254
156	0xbe84b84c	-0.25921857
157	0xbe77b726	-0.2419096
158	0x3eb97115	0.36219087
159	0x3eb97e5d	0.3622922
160	0x3e9fba35	0.31196752
161	0x3ea84ec7	0.32872602
162	0x3d4ce3a8	0.050021797
163	0x3d419500	0.047261238
164	0x3d1be198	0.03805694
165	0xbe3a8752	-0.18215683
166	0xbe7a166f	-0.2442262
167	0xbd102d30	-0.035199344
168	0x3e6cd3aa	0.23127618
169	0x3ead07d9	0.3379505
170	0xbd2526c8	-0.040320188
171	0x3dd5c598	0.10438079
172	0x3e18f0e2	0.1493564
173	0xbc5558a0	-0.013021618
174	0xbe9101a8	-0.28321576
175	0xbe8d2593	-0.2756773
176	0xbea964da	-0.33084756
177	0x3d87de08	0.06634146
178	0x3e3d127e	0.18464085
179	0xbe0e3d46	-0.13890561
180	0x3e3ce2ce	0.18445894
181	0x3ea0c491	0.31399968
182	0x3e91ecff	0.28501126
183	0xbc18a860	-0.0093174875
184	0x3ccaba90	0.024747163
185	0x3dee18c4	0.116258174
186	0xbe1e5035	-0.15460284
187	0x3e15992e	0.14609215
188	0xbd94586c	-0.07243428
189	0x3d98a760	0.07453799
190	0x3e56305a	0.20916882
191	0x3e5bd8ea	0.21469465
192	0xbe26c1fd	-0.16284938
193	0x3ead784d	0.33880845
194	0x3d626258	0.05526957
195	0x3de76070	0.11297691
196	0xbd240600	-0.040044785
197	0x3cdf70b0	0.027275413
198	0xbd4727c8	-0.048621923
199	0x3e84b281	0.25917438
200	0xbe206ab1	-0.156657
201	0xbea3fdf4	-0.32029688
202	0x3d51ef78	0.051253766
203	0xbeaf821a	-0.34278947
204	0x3e36c79e	0.17849585
205	0xbe019f24	-0.12658364
206	0xbe644100	-0.2229042
207	0x3eb9bf65	0.36278835
208	0xbb2e5480	-0.002660066
209	0xbe867c08	-0.26266503
210	0x3e87e0bf	0.26538655
211	0xbcac3bd0	-0.021024615
212	0x3d634208	0.055482894
213	0x3cae1ce0	0.021254003
214	0x3c202120	0.009773523
215	0x3e168932	0.14700773
216	0xbeb15d4a	-0.34641486
217	0xbeb7e48a	-0.3591655
218	0x3be5a600	0.007008314
219	0x3e9d4beb	0.30721983
220	0x3d887134	0.06662217
221	0xbeac1874	-0.33612406
222	0x3ea12e9b	0.3148087
223	0x3e9e7d77	0.30955097
224	0x3ebd645b	0.36990628
225	0xbe58a841	-0.21157934
226	0x3e30e672	0.17275408
227	0xbc293860	-0.010328382
228	0xbdc8ffd4	-0.0981442
229	0x3e2429ce	0.16031572
230	0x3e9137c9	0.28362873
231	0xbc4e3220	-0.012585193
232	0x3ebfd2e5	0.37465587
233	0xbe2ef0a5	-0.17083986
234	0xbebb90a7	-0.36633798
235	0x3e23b3ea	0.159866
236	0x3e34eabe	0.17667672
237	0xbe14b884	-0.14523512
238	0xbe84bc9a	-0.25925142
239	0xbe170f87	-0.14752017
240	0x3e489e7e	0.1959171
241	0xbec0a235	-0.37623754
242	0xbcb27d40	-0.02178824
243	0xbe988d29	-0.29795197
244	0x3de8cdd0	0.113673806
245	0xbe9480b4	-0.29004443
246	0xbe8a41f4	-0.27003443
247	0x3eafb723	0.3431941
248	0xbd4b8388	-0.049685985
249	0x3e0cf6aa	0.1376597
250	0xbd1bc1f8	-0.03802678
251	0xbc045a60	-0.008078188
252	0x3da796cc	0.08183059
253	0x3eb59b87	0.3547022
254	0xbe72bc16	-0.23704562
255	0x3e3b229a	0.18274918

fc1.bias f4 [64]
0	0x3e94adcd	0.2903885
1	0x3e52e4f2	0.20595148
2	0xbeac21ef	-0.3361964
3	0x3e89444f	0.26809928
4	0xbea06e11	-0.31333974
5	0x3d1a85e8	0.03772536
6	0x3c8edf50	0.017440468
7	0x3e9074a9	0.28214005
8	0x3d3b9ea0	0.045805573
9	0xbd96e488	-0.073678076
10	0xbd49e520	-0.049290776
11	0x3ea83f27	0.3286068
12	0x3dfcb0f4	0.12338439
13	0xbe96f045	-0.29480186
14	0xbeb96fb9	-0.3621805
15	0xbb96f600	-0.004606962
16	0xbeb3d201	-0.35121158
17	0xbe0b2b8f	-0.13590835
18	0xbea6400e	-0.32470745
19	0x3d75a760	0.059974074
20	0xbbb06080	-0.0053825974
21	0xbdb3c1f0	-0.08777225
22	0x3dee7338	0.1164307
23	0x3e01b6f2	0.12667444
24	0xbeb93dff	-0.36180112
25	0x3b139400	0.0022518635
26	0xbe1524ca	-0.14564815
27	0x3d2e2fe8	0.042526156
28	0x3e275f16	0.16344866
29	0x3eaf8cd1	0.34287122
30	0x3dd81b34	0.105520636
31	0xbe3adee1	-0.18249084
32	0x3e8be19f	0.27320573
33	0x3ead7177	0.3387563
34	0x3d59b8e0	0.053154826
35	0xbeaecc7c	-0.34140384
36	0xbe350c3f	-0.17680453
37	0xbd2ef728	-0.042716175
38	0x3d53e478	0.051731557
39	0x3e711bae	0.23545715
40	0xbc0ad360	-0.008473247
41	0x3ea24e6d	0.3170046
42	0xbdc99794	-0.09843364
43	0x3e9c6a4b	0.30549845
44	0xbe94347b	-0.2894629
45	0x3ebc736b	0.36806807
46	0x3e805e31	0.25071862
47	0xbe4c34b1	-0.19941975
48	0xbcb9d2d0	-0.022683531
49	0x3ea58443	0.3232747
50	0x3e9f530b	0.31118044
51	0x3e51540e	0.2044222
52	0xbe2059a2	-0.15659192
53	0xbda31e44	-0.07964757
54	0x3d1f75b8	0.038930625
55	0xbdda400c	-0.10656747
56	0x3e966b9d	0.29378977
57	0xbca129c0	-0.019673228
58	0xbe1dd298	-0.15412366
59	0xbe7fe65f	-0.24990223
60	0xbea54dcb	-0.32285914
61	0x3e0d2f1e	0.13787505
62	0x3e138c2a	0.14408937
63	0x3eb84d73	0.3599659

fc2.weight f4 [64, 64]
0	0xbd29a06c	-0.041412756
1	0xbdd6960e	-0.104778394
2	0x3d9a566e	0.075360164
3	0xbd8161b0	-0.063174605
4	0x3d3d2ae0	0.046183467
5	0x3cfc8008	0.030822769
6	0xbdf7c760	-0.12098575
7	0xbca05c48	-0.019575253
8	0x3d110b08	0.03541091
9	0x3dc6307e	0.09677218
10	0x3d24f8b4	0.040276244
11	0x3dd3393e	0.103136525
12	0xbd45e51c	-0.0483142
13	0x3df9e5c2	0.12202026
14	0xbc61afb0	-0.013774797
15	0x3d99ac88	0.07503611
16	0x3c260740	0.0101335645
17	0xbd06b648	-0.03288868
18	0xbc916ce8	-0.017752126
19	0x3df3f8f8	0.119127214
20	0xbdac98b8	-0.08427566
21	0xbd80418a	-0.062625006
22	0x3cd36aa8	0.025807694
23	0xbdffd10c	-0.124910444
24	0xbd491f1c	-0.049101934
25	0xbddc3448	-0.10752159
26	0xbad55f00	-0.0016278923
27	0x3c0ede60	0.0087200105
28	0x3df815fe	0.1211357
29	0x3d9fba62	0.077992216
30	0xbd31992c	-0.043358967
31	0xbd178ab8	-0.036997527
32	0xbd855466	-0.06510238
33	0xbc84c248	-0.016205922
34	0xbdff7522	-0.12473513
35	0xbd261a9c	-0.04055272
36	0x3dd613e6	0.10453014
37	0xbdd52840	-0.10408068
38	0xbd809e3a	-0.06280179
39	0x3d3a75fc	0.045522675
40	0x3dc42f6c	0.095793575
41	0x3c00b0d0	0.007854655
42	0x3de1ba1e	0.11021827
43	0xbdcc4e94	-0.09975925
44	0xbdb14cc6	-0.086572215
45	0x3c816470	0.015794963
46	0x3d4fed4c	0.050763413
47	0xbc043a00	-0.008070469
48	0x3cbb7d58	0.022886917
49	0xbd4d79cc	-0.050164983
50	0xbdef67c2	-0.11689712
51	0x3db9a648	0.09064919
52	0xbd0ea92c	-0.034829304
53	0x3de3e2b8	0.111272275
54	0xbdbe2944	-0.092852145
55	0xbc6edf30	-0.014579579
56	0x3d66d9e4	0.05636014
57	0xbd53f9a0	-0.051751733
58	0x3d1cfd1c	0.03832732
59	0x3dfd8c6a	0.123802975
60	0x3da6e024	0.0814822
61	0xbd761378	-0.06007716
62	0xbdaa285a	-0.08308478
63	0xbd802df6	-0.06258766
64	0xbcff8958	-0.03119342
65	0x3d931bb0	0.07183015
66	0x3d90ddee	0.0707358
67	0x3dac2f7c	0.084074944
68	0xbcae8360	-0.021302879
69	0xbcf1bf10	-0.029510051
70	0xbdbe403c	-0.092895955
71	0xbd15eae4	-0.036600962
72	0x3dd6bc4e	0.10485135
73	0xbd994df8	-0.074855745
74	0xbdb2fc94	-0.08739582
75	0x3d812960	0.0630672
76	0xbd27fb90	-0.041011393
77	0x3d008dd8	0.031385273
78	0xbdef1da6	-0.11675577
79	0xbd8c85f6	-0.068614885
80	0x3d44e464	0.048069373
81	0xbcffe1f8	-0.03123568
82	0x3d0f8284	0.03503658
83	0x3cb41b40	0.02198565
84	0x3d14163c	0.036154017
85	0x3dac4414	0.08411422
86	0xbd68e960	-0.05686319
87	0xbd265de8	-0.0406169
88	0xbd85a6b0	-0.06525934
89	0xbcc6cc38	-0.024267301
90	0xbdfe59a8	-0.12419444
91	0xbd479f80	-0.048736095
92	0xbcdfec18	-0.027334258
93	0x3db6412c	0.08899149
94	0x3db5c04e	0.0887457
95	0xbddcecf0	-0.1078738
96	0x3d8f1fd4	0.069884926
97	0x3ce5c238	0.028046712
98	0xbd9745e0	-0.073863745
99	0x3d0c818c	0.034303233
100	0xbda0d89e	-0.078538164
101	0xbdf44958	-0.11928052
102	0xbd0b0314	-0.033938482
103	0x3db6689a	0.0890667
104	0xbdc6abdc	-0.09700748
105	0xbde46e10	-0.11153805
106	0xbdd8ffe8	-0.10595685
107	0x3d1b3534	0.037892535
108	0x3cc70e58	0.024298832
109	0xbd120cd8	-0.03565678
110	0xbdb310d0	-0.08743441
111	0xbd92d6a6	-0.07169847
112	0xbcedf438	-0.029047117
113	0x3db76de6	0.08956508
114	0x3d0bb404	0.034107223
115	0x3c294400	0.010331154
116	0xbdb03c9a	-0.08605309
117	0xbdb3cd80	-0.087794304
118	0xbdf8d636	-0.121502325
119	0xbd907cba	-0.0705504
120	0xbd8c5994	-0.06853023
121	0x3d460b20	0.048350453
122	0xbdaf8a5a	-0.0857131
123	0xbdf37150	-0.11886847
124	0xbdec2180	-0.11529827
125	0x3da05f98	0.07830733
126	0x3d568008	0.052368194
127	0xbd87f35e	-0.066382155
128	0xbce4b9c8	-0.027920619
129	0xbdbfc9e8	-0.093646824
130	0x3da7c97e	0.081927285
131	0xbdbe1716	-0.09281747
132	0x3d5ded84	0.05418159
133	0xbdfc0d74	-0.123072535
134	0xbcfe4a00	-0.031041145
135	0xbcc221e8	-0.023697808
136	0xbd0e255c	-0.034703597
137	0x3d89b1b8	0.0672335
138	0x3c101440	0.0087938905
139	0x3dbb1e6e	0.091366634
140	0xbd95fd8c	-0.07323751
141	0x3df0dcd0	0.11760867
142	0xbdd44638	-0.10364956
143	0x3bf97280	0.0076125264
144	0x3d27e568	0.040990263
145	0xbdaa498e	-0.08314811
146	0x3d8c5d22	0.06853701
147	0xbdfe0784	-0.12403777
148	0xbcbf9458	-0.023386165
149	0xbdd2b9b2	-0.10289325
150	0x3d0ac928	0.033883244
151	0x3d4987fc	0.04920195
152	0x3d73c408	0.05951312
153	0xbdfae470	-0.12250602
154	0xbda293b4	-0.079383284
155	0x3d094a24	0.03351797
156	0x3dabd886	0.08390908
157	0xbd9c330a	-0.076269224
158	0xbd0d1cc0	-0.034451246
159	0xbd7b7a74	-0.061396077
160	0xbc52cd40	-0.012866318
161	0x3dffcc80	0.12490177
162	0x3dba9cac	0.09111914
163	0x3ccd0388	0.025026098
164	0x3db2ceba	0.08730836
165	0xbcf4f4d0	-0.029901892
166	0x3d90efe2	0.07077004
167	0xbda3e6f6	-0.08003037
168	0x3dbd6ca0	0.09249234
169	0xbd8c9bea	-0.06865676
170	0x3ce31600	0.027720451
171	0xbca15570	-0.01969406
172	0xbd9ba916	-0.0760061
173	0x3d862036	0.065491125
174	0xbd9f0bf4	-0.07765952
175	0xbd67f38c	-0.05662875
176	0x3dac9c2e	0.084282264
177	0xbbac3280	-0.0052550435
178	0xbddb0422	-0.10694148
179	0xbdba620e	-0.09100734
180	0xbdad374c	-0.08457813
181	0x3dc9c146	0.09851317
182	0xbb802ae0	-0.003911361
183	0xbdcfa4aa	-0.10138829
184	0x3d4ac44c	0.04950361
185	0xbda83508	-0.0821324
186	0xbdf2261a	-0.118236735
187	0xbda00da8	-0.07815105
188	0x3d6b79c4	0.05748917
189	0x3df48856	0.119400665
190	0xbdbe2544	-0.092844516
191	0xbd62bc34	-0.055355266
192	0xbdf9f91e	-0.122057185
193	0x3d3663d4	0.044528797
194	0x3c8bb4f8	0.017054066
195	0x3d8d2a7c	0.06892869
196	0x3d9e611c	0.07733366
197	0xbd8cbe22	-0.068722025
198	0x3d4857b0	0.04891175
199	0x3de60724	0.11231831
200	0xbd467ee4	-0.048460856
201	0xbcc826b8	-0.024432525
202	0x3d316f38	0.043318957
203	0x3c2fa7d0	0.010721162
204	0xbdc0111c	-0.09378263
205	0xbc294df0	-0.010333523
206	0xbce8c168	-0.028412536
207	0x3b629c00	0.0034577847
208	0xbd94e0f2	-0.072694674
209	0xbd1ef5f4	-0.038808778
210	0xbda0a3bc	-0.0784373
211	0x3c6c0380	0.014405131
212	0xbd9170fe	-0.0710163
213	0x3d41f7a0	0.047355294
214	0x3da33582	0.0796919
215	0x3ba0ed00	0.004911065
216	0xbdcfbad0	-0.101430535
217	0xbd8a7bc8	-0.06761891
218	0xbdf5d00a	-0.12002571
219	0x3dd43f8a	0.103636816
220	0x3ddcd188	0.107821524
221	0x3dcaa852	0.09895386
222	0xbd29e064	-0.04147376
223	0x3def8962	0.116961256
224	0x3d23d994	0.04000242
225	0x3de47760	0.111555815
226	0x3dec0ae0	0.11525512
227	0xbd567084	-0.052353397
228	0xbde5c2ca	-0.11218794
229	0xbdd2b106	-0.10287671
230	0xbd8ed0e0	-0.069734335
231	0xbc4bd6f0	-0.012441382
232	0xbdf65412	-0.12027754
233	0xbd9e47d2	-0.077285424
234	0xbdf03120	-0.1172812
235	0x3da72a9a	0.081624225
236	0xbd08622c	-0.03329675
237	0x3d731918	0.059350103
238	0x3dedd76e	0.116133556
239	0x3cc61f38	0.024184808
240	0xbcc31b40	-0.023816705
241	0xbc036a40	-0.008020937
242	0xbd84abbe	-0.0647807
243	0xbde68458	-0.11255711
244	0xbdb3acc0	-0.08773184
245	0xbdcb5f2a	-0.099302605
246	0xbd835884	-0.064133674
247	0xbd11a488	-0.0355573
248	0xbd8c7b84	-0.06859496
249	0x3d6dc5a4	0.058049813
250	0xbdf8e792	-0.121535435
251	0xbcd71750	-0.026256233
252	0x3d983788	0.07432467
253	0xbdcb2c2c	-0.099205345
254	0xbda42624	-0.08015087
255	0x3cad72c8	0.021172896

fc2.bias f4 [64]
0	0xbc2a25d0	-0.010384992
1	0xbd939be2	-0.07207467
2	0x3d6da330	0.058016956
3	0xbce6a698	-0.02815561
4	0xbc1f1960	-0.00971064
5	0x3d87d930	0.06633222
6	0xbd98985e	-0.07450937
7	0x3c9669e0	0.018361032
8	0x3d361fe4	0.044464007
9	0x3dbbf338	0.0917725
10	0xbd42faf4	-0.04760261
11	0x3dd77bf0	0.10521686
12	0x3d59a0dc	0.053131923
13	0x3d92e4ae	0.071725234
14	0xbde59310	-0.112096906
15	0xbde6ae58	-0.11263722
16	0xbd224e0c	-0.039625213
17	0x3de2d226	0.11075239
18	0x3dfe8992	0.12428583
19	0xbd22b6dc	-0.03972517
20	0xbd86e7de	-0.06587194
21	0xbdccc508	-0.09998518
22	0x3dc256bc	0.094891995
23	0xbd6ebd34	-0.058285907
24	0xbcf3ac78	-0.029745325
25	0xbc02c5f0	-0.007981762
26	0x3d27efc8	0.041000158
27	0xbca894f0	-0.020578831
28	0x3dcda88e	0.10041915
29	0x3d91ac4e	0.07112943
30	0x3cf4a588	0.029864088
31	0xbd84f488	-0.06491953
32	0xbd74d038	-0.059768885
33	0x3d659f90	0.056060374
34	0x3bb17900	0.0054160357
35	0xbc58af00	-0.013225317
36	0xbd47f490	-0.048817217
37	0x3d9a89b4	0.07545796
38	0x3a9edd00	0.0012120306
39	0xbcb62de0	-0.022238672
40	0x3de110e6	0.10989551
41	0xbd6db628	-0.058035046
42	0x3b0fc0c0	0.0021934956
43	0xbdd3b068	-0.10336381
44	0xbd854c3a	-0.0650868
45	0x3d902786	0.070387885
46	0xbd693c20	-0.056942105
47	0xbd91f0e8	-0.07126027
48	0xbda53248	-0.08066231
49	0xbd5ced7c	-0.05393742
50	0x3da4c0ce	0.08044587
51	0x3dc77b3c	0.09740302
52	0xbd0f96ac	-0.0350558
53	0x3d9e415a	0.077273086
54	0x3c80f760	0.015742958
55	0x3df2ff16	0.1186506
56	0x3d9c6b96	0.07637708
57	0xbd83a290	-0.06427491
58	0xbc5991b0	-0.0132793635
59	0x3dca750c	0.09885606
60	0xbdb110a6	-0.086457536
61	0xbdd403bc	-0.10352275
62	0x3db44588	0.088023245
63	0x3d808a40	0.06276369

fc3.weight f4 [14, 64]
0	0x3dd0bdfc	0.10192487
1	0x3d51cc18	0.05122003
2	0xbd9332e4	-0.07187441
3	0xbd4483e4	-0.047977343
4	0x3b843bc0	0.004035443
5	0x3c2d7b50	0.010588482
6	0xbda63bb6	-0.08116858
7	0x3c097500	0.008389711
8	0xbcce6ec0	-0.025199294
9	0x3da75e42	0.08172275
10	0x3d02852c	0.031865284
11	0xbdf71200	-0.1206398
12	0x3ca942e0	0.020661771
13	0x3d6cd64c	0.057821557
14	0x3ca46f78	0.020072684
15	0xbdfad7d4	-0.12248197
16	0x3d85cfda	0.06533785
17	0x3d240450	0.040043175
18	0x3dfb6a98	0.122761905
19	0x3d1d6578	0.038426846
20	0xbcaf4da8	-0.021399334
21	0xbdf15a00	-0.11784744
22	0xbd6b6e0c	-0.057477996
23	0xbc84ddb8	-0.016219005
24	0xbd8ddb14	-0.069265515
25	0x3d033fe4	0.032043353
26	0x3cac58c0	0.021038413
27	0x3d986cdc	0.07442638
28	0xba2cfa00	-0.0006598532
29	0x3d82f74c	0.063948244
30	0x3c3bd660	0.011464685
31	0xbdb7be48	-0.0897184
32	0x3be27a80	0.006911576
33	0x3ddc8292	0.10767092
34	0x3d03da6c	0.032190725
35	0x3dba455c	0.090952605
36	0xbd78a284	-0.060701862
37	0xbd2250d0	-0.03962785
38	0xbd9deaf6	-0.07710831
39	0x3d150338	0.036380023
40	0x3d4faad4	0.050700024
41	0x3dcc2f7e	0.09969996
42	0x3def5ba0	0.11687398
43	0xbd0f1020	-0.034927487
44	0xbc761940	-0.0150206685
45	0xbcb7dab8	-0.02244316
46	0x3d48f28c	0.049059436
47	0x3dc3cd92	0.09560694
48	0xbdc6e246	-0.09711127
49	0x3b3f7dc0	0.002921924
50	0xbd138774	-0.03601785
51	0x3df1ccd2	0.118066445
52	0x3d92ecca	0.0717407
53	0xbd8879ca	-0.066638544
54	0xbcae0ab0	-0.02124533
55	0x3dac6e6c	0.08419499
56	0x3c52c180	0.012863517
57	0xbd32fecc	-0.043700024
58	0x3d48af04	0.048995033
59	0x3dc5b7e4	0.09654215
60	0xba0a9100	-0.0005285889
61	0x3d8380f8	0.06421083
62	0x3cd481a8	0.025940731
63	0xbd4786e0	-0.04871261
64	0xbdfc92a4	-0.12332657
65	0x3dd77ba4	0.105216295
66	0x3d7b37fc	0.061332688
67	0xbc076340	-0.008263409
68	0xbdae36de	-0.08506559
69	0x3cafb530	0.021448702
70	0xbd7fdc5c	-0.06246601
71	0xbdc2a218	-0.09503573
72	0xbbcbde60	-0.0062215775
73	0xbc0e7900	-0.008695841
74	0x3db7f57c	0.08982369
75	0x3df9d83a	0.12199445
76	0xbd1488e8	-0.036263376
77	0x3d1e891c	0.038704976
78	0x3de4cd70	0.111719966
79	0x3de52bb0	0.11189973
80	0x3da671e2	0.0812719
81	0x3d7ea530	0.062169254
82	0xbd8ba4f8	-0.06818575
83	0xbdb5ee7c	-0.08883378
84	0x3d923ac0	0.07140112
85	0x3d1bad94	0.038007334
86	0xbd463b24	-0.048396245
87	0x3deda802	0.116043106
88	0x3dc826ea	0.09773047
89	0xbda3326c	-0.079686016
90	0xbda26d16	-0.07930963
91	0x3bc179a0	0.0059043914
92	0xbdaeb700	-0.08530998
93	0x3a5b7f00	0.00083731115
94	0x3d0142fc	0.031558022
95	0x3dba110c	0.09085283
96	0xbca89338	-0.020578012
97	0x3d42eeb8	0.04759094
98	0xbdaf8c52	-0.08571686
99	0xbd86dbb6	-0.06584875
100	0x3ab27480	0.0013615042
101	0x3dc95704	0.0983105
102	0xbd8b539e	-0.06803058
103	0xbdb89bf6	-0.09014122
104	0x3dc28b1a	0.09499188
105	0x3cb1a400	0.021684647
106	0x3d85d012	0.06533827
107	0xbcd06f48	-0.025443688
108	0xbc7c1970	-0.015386924
109	0xbdb23774	-0.08701983
110	0x3dfead26	0.12435369
111	0x3d637478	0.055530995
112	0xbcaead60	-0.021322906
113	0xbc084430	-0.008317038
114	0x3d464de4	0.048414126
115	0x3c575590	0.013142958
116	0xbd4e2fe4	-0.05033864
117	0xbd9aa780	-0.07551479
118	0x3dd58bf2	0.10427083
119	0x3d11edd4	0.0356272
120	0x3d96085c	0.07325813
121	0x3df7e344	0.12103894
122	0xbcd6f840	-0.026241422
123	0x3dae543c	0.0851216
124	0xbd69eb38	-0.057109088
125	0x3da37616	0.079815075
126	0xbd0d20b0	-0.034455
127	0x3dad6e42	0.08468296
128	0x3d051428	0.032489926
129	0xbd9b1412	-0.075721875
130	0x3d6b1b6c	0.0573992
131	0xbd83a888	-0.06428629
132	0x3dc6a254	0.096989304
133	0x3d15bf20	0.036559224
134	0xbd1a76fc	-0.03771113
135	0xbdabf57c	-0.08396432
136	0xbc3cdfc0	-0.0115279555
137	0x3d179304	0.03700544
138	0x3caa5240	0.020791173
139	0xbcbebd68	-0.023283675
140	0xbd266e40	-0.040632486
141	0xbda55f18	-0.08074778
142	0xbdeadff0	-0.11468494
143	0x3d232e48	0.03983906
144	0xbdff9d46	-0.124811694
145	0xbde75b46	-0.11296706
146	0x3bd47720	0.0064839274
147	0x3d6ca71c	0.057776555
148	0x3d7232f0	0.05913061
149	0x3daba402	0.083808914
150	0x3d39ef08	0.045393974
151	0x3c0bbb10	0.008528486
152	0x3af6fe00	0.0018844008
153	0x3dd19644	0.10233739
154	0xbb049140	-0.0020228177
155	0x3c00b820	0.007856399
156	0xbddaa0e0	-0.10675216
157	0xbb982c80	-0.0046439767
158	0x3dd0f028	0.10202056
159	0x3cc45330	0.023965448
160	0x3d02c91c	0.031930074
161	0x3d958058	0.0729987
162	0x3c9ed7a8	0.019389942
163	0x3d814570	0.06312072
164	0xbae66c00	-0.0017579794
165	0x3db21a52	0.086964265
166	0xbda8c398	-0.082404315
167	0xbdda9e7e	-0.10674761
168	0x3db78abc	0.08962008
169	0x3d56f57c	0.052480206
170	0xbd291eb4	-0.041289046
171	0xbd34ec84	-0.04417087
172	0x3ddfa85c	0.10920784
173	0x3cc01140	0.023445725
174	0xbd42bc44	-0.047542825
175	0xbdfe4644	-0.12415746
176	0xbdd5d3f0	-0.104408145
177	0xbda46e04	-0.08028796
178	0xbd372900	-0.044716835
179	0xbd82afc8	-0.06381184
180	0x3da1cb20	0.07900071
181	0xbd8c4236	-0.06848566
182	0xbd697190	-0.056993067
183	0x3d436170	0.047700346
184	0x3dc8e644	0.09809545
185	0x3d304a1c	0.043039426
186	0xbd87e0ca	-0.06634672
187	0xbdd5dada	-0.10442133
188	0x3dfc09b0	0.12306535
189	0xbbe3fbc0	-0.006957501
190	0x3dfa9388	0.122351706
191	0x3bd7c920	0.0065852553
192	0xbcd28648	-0.025698796
193	0xbd2f1358	-0.042743057
194	0x3d0255c8	0.03182009
195	0xbddd84d0	-0.108163476
196	0x3d929ddc	0.071590155
197	0xbd98c718	-0.07459849
198	0xbdfbf33c	-0.12302253
199	0xbd8d93ea	-0.06912978
200	0xbc63a400	-0.013894081
201	0x3dd2c434	0.10291329
202	0x3dfb5488	0.122719824
203	0xbdc94ff6	-0.098297045
204	0x3db44cd0	0.08803713
205	0xbde0f3ea	-0.10984023
206	0xbd27ca28	-0.040964276
207	0x3c8289e8	0.0159349
208	0x3c1027e0	0.008798569
209	0xbdfd236e	-0.12360273
210	0xbdec14ac	-0.1152738
211	0x3c1679f0	0.009184346
212	0x3d706f54	0.05869992
213	0x3cc09018	0.02350621
214	0x3dc97670	0.09837043
215	0x3a688000	0.0008869171
216	0xbd0314c4	-0.032002226
217	0xbd0f4230	-0.03497523
218	0x3de08fd8	0.10964936
219	0xbde805a2	-0.113291994
220	0x3db78b6c	0.089621395
221	0x3ce6f368	0.028192237
222	0xbdb98326	-0.09058218
223	0x3de39b98	0.111136615
224	0xbd2840f8	-0.041077584
225	0xbd942f98	-0.0723564
226	0x3dcecdfe	0.10097884
227	0xbda83242	-0.08212711
228	0x3cb966c0	0.022632003
229	0xbd90baf6	-0.0706691
230	0x3dd795e0	0.10526633
231	0xbc925f50	-0.017867714
232	0x3d35a0bc	0.04434274
233	0x3d0e0564	0.03467311
234	0x3d635874	0.055504277
235	0xbdeaf9ce	-0.11473428
236	0x3c7a9110	0.015293375
237	0x3d1c5d7c	0.03817509
238	0x3d7b4bdc	0.061351642
239	0xbdf5ce2e	-0.12002216
240	0xbde25ed8	-0.11053246
241	0xbdb9e6fa	-0.090772584
242	0x3d504a7c	0.050852284
243	0xbde1d53a	-0.11026998
244	0xbd9c8140	-0.0764184
245	0xbd20a5e4	-0.039220706
246	0xbd3a9824	-0.04555525
247	0x3d5786d8	0.05261883
248	0x3d8ec2ee	0.06970774
249	0xbb1b54c0	-0.0023701638
250	0x3a235100	0.00062300265
251	0xbde16078	-0.11004728
252	0x3d2f0dd4	0.042737797
253	0xbdae61a6	-0.08514719
254	0xbd500480	-0.05078554
255	0x3ba66f20	0.005079165

fc3.bias f4 [14]
0	0x3df29398	0.118445575
1	0xbd867512	-0.06565298
2	0xbd6ebe48	-0.058286935
3	0x3d26ca28	0.040720135
4	0x3df40dea	0.119167164
5	0xbcb37fb0	-0.021911472
6	0x3dd2a5bc	0.102855176
7	0x3ddc3f8a	0.107543066
8	0x3be33be0	0.006934628
9	0x3dcd9b26	0.10039358
10	0x3daf8722	0.085706964
11	0xbdd0c6cc	-0.101941675
12	0xbb023740	-0.0019869357
13	0x3da9d41a	0.08292408
