Deep_Learning/BargainAI/models/seller_model.pth (torch, 94717 bytes, 24 tensors)

fc1.weight f4 [64, 7]
0	0xbeb58abe	-0.35457414
1	0xbe5fc72a	-0.21853319
2	0xbdf3d218	-0.119053066
3	0x3d21c898	0.03949794
4	0xbe07d85e	-0.13266131
5	0xbe9388e0	-0.28815365
6	0x3cb11ea0	0.021621048
7	0x3e67dde3	0.22643237
8	0xbc65b5af	-0.0140203675
9	0x3e8726da	0.2639683
10	0x3ec6f3e4	0.3885795
11	0x3e8a70eb	0.27039275
12	0x3e5f032f	0.21778558
13	0x3e0a1e21	0.13488056
14	0x3eabdf61	0.33568862
15	0x3e1cdc94	0.15318519
16	0xbca687e5	-0.020328471
17	0xbe9ecf6c	-0.31017625
18	0xbdabec74	-0.08394709
19	0x3e27fbb3	0.1640461
20	0x3d4ea77f	0.050452705
21	0xbdb5b350	-0.08872092
22	0xbdfa89e8	-0.12233335
23	0xbd08c368	-0.03338948
24	0xbe58cc26	-0.21171626
25	0xbe81bb04	-0.25337994
26	0x3d5a6f20	0.053328633
27	0xbddf13d0	-0.10892451
28	0x3e11612f	0.14197229
29	0x3ea7c3cb	0.32766566
30	0xbe774998	-0.24149168
31	0x3e821214	0.25404418
32	0x3e3007a5	0.17190416
33	0x3e7e1c3a	0.24815455
34	0x3deb82d5	0.114995636
35	0x3eadc475	0.33938947
36	0x3ca6e930	0.020374864
37	0x3ea9dce3	0.33176336
38	0x3d9cef74	0.076628596
39	0xbde6e3ec	-0.112739414
40	0xbebeee35	-0.37291113
41	0x3d4a9ba0	0.04946482
42	0x3e59d042	0.2127085
43	0xbe1f405b	-0.15551893
44	0xbe1ea7e1	-0.15493728
45	0x3ee3c10c	0.4448322
46	0x3e9dc157	0.3081157
47	0xbd88a7df	-0.06672644
48	0x3e4b0d7e	0.19829366
49	0x3ddf0336	0.10889284
50	0xbddab0f3	-0.10678282
51	0x3e94e49a	0.2908066
52	0x3ddb303f	0.107025616
53	0xbdd4b438	-0.103859365
54	0x3ebd323c	0.36952388
55	0x3e24e9b9	0.16104783
56	0x3e9cc45e	0.30618566
57	0x3d1b7e99	0.03796253
58	0x3e352b32	0.17692259
59	0x3e4e6305	0.2015496
60	0x3d7ccea2	0.061720498
61	0x3ea1511b	0.3150719
62	0xbe96685c	-0.29376495
63	0x3e05201b	0.13000529
64	0x3ec6bc34	0.38815463
65	0x3e5a441d	0.21315046
66	0x3e0c46d1	0.1369889
67	0x3e87638a	0.2644313
68	0xbc1e1a9d	-0.0096499
69	0x3ec693ee	0.38784736
70	0x3d0a025b	0.033693653
71	0xbecbdd77	-0.39817402
72	0x3e622023	0.22082572
73	0xbeb71629	-0.35759094
74	0xbbfc5681	-0.0077007418
75	0x3d959448	0.07303673
76	0x3e6b0f88	0.22955143
77	0xbe5d7bbd	-0.21629234
78	0x3e744076	0.23852715
79	0xbdae16a4	-0.08500412
80	0xbe15a4a9	-0.14613594
81	0x3e71453e	0.2356157
82	0x3e5fa1a6	0.21839008
83	0xbe5db083	-0.21649365
84	0xbe92ab2c	-0.2864622
85	0x3e239ffc	0.15978998
86	0x3c3f6c44	0.011683527
87	0xbe78880c	-0.24270648
88	0x3ec197f6	0.3781125
89	0xbe5a680f	-0.21328758
90	0xbd36659e	-0.044530503
91	0x3eb0597a	0.34443265
92	0xbd3d6660	-0.04624021
93	0x3e78b0a7	0.24286138
94	0x3e0a2a53	0.13492708
95	0x3e210fd1	0.1572869
96	0x3ea33185	0.31873718
97	0xbdc07be6	-0.09398632
98	0x3c867636	0.01641379
99	0xbdfa15d8	-0.122111976
100	0x3db74c74	0.08950129
101	0xbdb5b848	-0.088730395
102	0x3ca2c183	0.019867664
103	0x3eb7abb6	0.35873193
104	0x3ea3e2e6	0.32009047
105	0x3eb6fef9	0.35741404
106	0xbe9ac0d3	-0.30225238
107	0xbe255c17	-0.1614841
108	0xbe8aaeca	-0.27086478
109	0x3e0a7782	0.13522151
110	0xbea4751d	-0.321206
111	0x3df75b5c	0.12077972
112	0xbe8b1b72	-0.27169377
113	0x3eb2ae92	0.34898812
114	0x3ea9c750	0.33159876
115	0x3d8b9f05	0.0681744
116	0xbea17048	-0.31530976
117	0x3dcd6585	0.10029129
118	0x3e2abac2	0.16672805
119	0x3e18d511	0.14925028
120	0xbdffd3db	-0.1249158
121	0x3ed0e66f	0.40800807
122	0xbe9587ae	-0.29205078
123	0x3eaaaf51	0.3333688
124	0x3e3baba5	0.18327196
125	0xbdbea6fd	-0.09309194
126	0x3e5b660f	0.21425651
127	0x3d5c5858	0.05379519
128	0x3eaca198	0.33717036
129	0xbb8177df	-0.0039510573
130	0xba73f815	-0.00093066815
131	0x3eb5556c	0.35416734
132	0x3dfed965	0.124438085
133	0x3ebe3175	0.37147108
134	0xbea030b2	-0.31287152
135	0xbce1c1e0	-0.027558267
136	0xbeb7707b	-0.35828003
137	0x3d8b71c8	0.068088114
138	0xbe20d3b7	-0.15705763
139	0x3eb1de63	0.3473998
140	0x3e4901f0	0.19629645
141	0xbc778e86	-0.015109664
142	0x3d2cbc00	0.04217148
143	0xbe3c8eee	-0.18413898
144	0xbe234fa9	-0.15948357
145	0xbdc053a5	-0.09390954
146	0x3ebded4c	0.37095106
147	0x3e5335ce	0.20625994
148	0x3eb5794d	0.35444108
149	0xbe39b502	-0.18135455
150	0xbd3b1f04	-0.045683876
151	0x3eb515b3	0.35368118
152	0x3eba7cf3	0.36423454
153	0xbe50bb4d	-0.2038395
154	0x3e8cf6bb	0.2753199
155	0xbe50ca70	-0.20389724
156	0xbe93372a	-0.28753024
157	0xbec116f3	-0.3771282
158	0xbd3e1cd8	-0.046414226
159	0xbd860768	-0.065443814
160	0xbe9d0f6c	-0.30675828
161	0x3e357f11	0.17724253
162	0x3d2789d6	0.040902935
163	0xbe33aae0	-0.17545652
164	0x3e1fb7ae	0.15597412
165	0xbe14cd47	-0.14531432
166	0x3e0bf87d	0.1366901
167	0x3ecaf514	0.39640105
168	0x3d3b6b08	0.04575637
169	0xbebc7c29	-0.36813477
170	0x3ea3601d	0.31909266
171	0xbe8fa9f5	-0.28059354
172	0x3e64461a	0.22292367
173	0x3e18c64e	0.14919397
174	0xbd4bb610	-0.049734175
175	0xbdaa5f67	-0.08318978
176	0x3e146c5e	0.14494464
177	0x3e831322	0.25600535
178	0xbca3037d	-0.019899124
179	0xbe00ac1a	-0.12565652
180	0xbdbde4da	-0.092721656
181	0x3e2ca65e	0.16860339
182	0x3cf36aae	0.029713955
183	0x3e8d2209	0.2756503
184	0x3ebe9a06	0.37226886
185	0x3df676bd	0.12034366
186	0x3db53a98	0.088490665
187	0x3eaaf77c	0.3339194
188	0x3e3760da	0.1790804
189	0x3ea70549	0.3262122
190	0x3dd9e838	0.10639995
191	0x3e558af0	0.20853782
192	0xbe9739e4	-0.29536355
193	0x3ec8fe7d	0.3925666
194	0x3ecbe243	0.39821061
195	0x3ec24e8a	0.37950546
196	0x3e6bcb1c	0.23026699
197	0x3e57167c	0.21004671
198	0xbe80c069	-0.25146797
199	0xbea932f1	-0.33046678
200	0xbd21794c	-0.03942232
201	0x3e4138c4	0.1886931
202	0xbdb39960	-0.08769488
203	0x3e87c0db	0.26514325
204	0x3e01f409	0.12690748
205	0xbe2291fa	-0.15875998
206	0xbe14b2f0	-0.14521384
207	0x3ebc59b3	0.36787185
208	0xbe8c060b	-0.2734836
209	0x3ebcbcd6	0.3686282
210	0x3c16017b	0.009155626
211	0x3e353131	0.17694546
212	0xbb51f8f7	-0.0032039264
213	0x3eb30c83	0.34970483
214	0xbd9dd0f7	-0.077058725
215	0x3ed0f326	0.40810508
216	0x3e2413a6	0.1602312
217	0xbd6bea6d	-0.057596613
218	0x3e0e6ffd	0.13909908
219	0x3eb06d5f	0.34458444
220	0x3e801281	0.25014117
221	0x3eedc4e8	0.4643929
222	0x3e6588fb	0.22415535
223	0x3d3ea34a	0.046542443
224	0xbdf123ff	-0.11774444
225	0xbd2996ec	-0.041403696
226	0x3bd22031	0.006412529
227	0x3ed1f204	0.41004956
228	0x3d05ab75	0.032634217
229	0x3e371d95	0.17882378
230	0x3e9aafbc	0.302122
231	0xbd9eaeaa	-0.07748158
232	0x3e03dc67	0.12877046
233	0xbe5eb1e8	-0.21747553
234	0xbeb81b93	-0.35958537
235	0xbe2f4ec7	-0.17119895
236	0xbc7bde79	-0.015372866
237	0x3d80b2da	0.06284113
238	0x3ea33c1b	0.31881794
239	0x3b95c280	0.0045703053
240	0xbdd79d20	-0.10528016
241	0xbe196346	-0.14979276
242	0xbe8e6552	-0.27811676
243	0xbdb62328	-0.08893424
244	0xbd250a40	-0.04029298
245	0xbd879e40	-0.06621981
246	0x3cb058f0	0.021526784
247	0x3e4016b6	0.18758664
248	0xbddae894	-0.10688892
249	0xbe2ace91	-0.16680361
250	0xbe686695	-0.22695382
251	0xbe4841e2	-0.19556382
252	0x3de37908	0.11107069
253	0xbe03939a	-0.12849274
254	0xbd8160c0	-0.06317282
255	0x3e453b8a	0.19260994

fc1.bias f4 [64]
0	0xbe7d36db	-0.24727957
1	0xbdafe2ee	-0.08588205
2	0x3ca73ac8	0.020413771
3	0x3d2a3ca0	0.041561723
4	0x3e834244	0.25636494
5	0xbea0aba4	-0.3138095
6	0xbe9676df	-0.29387566
7	0x3d88ecf5	0.06685821
8	0xbe871adb	-0.26387677
9	0x3d96cc54	0.07363191
10	0x3d2173fc	0.039417252
11	0xbeaa89f9	-0.3330839
12	0x3e957f0b	0.2919849
13	0x3dc48aae	0.095967636
14	0x3df69844	0.12040761
15	0x3eb97ac5	0.36226478
16	0x3de19bc5	0.11016039
17	0x3dbbbd48	0.09166962
18	0xbdc0459a	-0.093882754
19	0xbe512b2c	-0.20426625
20	0x3ea858e4	0.32880318
21	0x3eb1686b	0.34649977
22	0x3e2953e6	0.16535911
23	0xbd02b696	-0.03191241
24	0xbe74b2f5	-0.23896392
25	0x3e812d11	0.25229695
26	0x3ec4a920	0.38410282
27	0x3ec49c2c	0.384004
28	0x3e508a53	0.20365267
29	0x3cb8b6f2	0.022548173
30	0xbd3fe72d	-0.046851326
31	0xbe8517ee	-0.2599482
32	0xbea6a472	-0.32547337
33	0x3ebf39dc	0.3734883
34	0xbeade9fb	-0.33967575
35	0x3d6c2e68	0.057661444
36	0xbdf9b8cc	-0.1219345
37	0x3e27d2d7	0.16389023
38	0xbdff63e5	-0.12470225
39	0x3e1de0f4	0.15417844
40	0xbe2a1c19	-0.16612281
41	0x3e9cd6f5	0.3063275
42	0x3eb13411	0.34610036
43	0xbd5bacd7	-0.05363163
44	0xbdd8ccb0	-0.10585916
45	0x3e94f92c	0.29096353
46	0x3dcd55c8	0.10026127
47	0xbd4fd44a	-0.050739564
48	0xbdf78d78	-0.1208753
49	0x3eb4efef	0.35339305
50	0xbe30dd4f	-0.17271923
51	0x3eab4b4f	0.33455893
52	0xbeace356	-0.33767194
53	0x3e5dc3ba	0.21656695
54	0xbccf85d0	-0.025332361
55	0x3ed0bccc	0.4076904
56	0x3d210e73	0.03932042
57	0x3ea534c7	0.32266828
58	0xbe986846	-0.29767054
59	0x3ed6d1c1	0.41956905
60	0x3e8d5ab5	0.27608266
61	0x3ea80ea7	0.3282368
62	0x3e0f2eb5	0.13982661
63	0x3ebf40e6	0.373542

fc2.weight f4 [64, 64]
0	0xbd380ab8	-0.044932097
1	0x3daad6e8	0.08341771
2	0x3d8864e8	0.06659871
3	0x3deb7880	0.11497593
4	0xbd30e0c4	-0.043183103
5	0xbc8b49e8	-0.017003015
6	0xbc8ba958	-0.017048523
7	0xbcd4a448	-0.025957242
8	0xbdd139ae	-0.1021608
9	0x3dceac5c	0.10091469
10	0x3cb748a0	0.022373497
11	0xbd297490	-0.04137093
12	0x3ce94628	0.028475836
13	0x3df75930	0.12077558
14	0x3dd8502c	0.105621666
15	0xbd6c14e0	-0.057637095
16	0x3d80d408	0.06290442
17	0x3c35f4c0	0.011105716
18	0x3db3a028	0.08770782
19	0xbd85cde2	-0.0653341
20	0xbc6ebe80	-0.014571786
21	0xbd5fc13c	-0.054627642
22	0x3d003ac4	0.031306043
23	0x3d1b3228	0.03788963
24	0xbdf74564	-0.12073782
25	0x3dc68f16	0.0969526
26	0x3dce1278	0.100621164
27	0xbdf86c66	-0.1213005
28	0x3cf1c638	0.029513463
29	0xbdc9c0ee	-0.098512515
30	0xbdeab780	-0.11460781
31	0x3dc75766	0.09733467
32	0xbcf84558	-0.030306503
33	0xbdd54b20	-0.104147196
34	0x3ce65eb8	0.028121337
35	0xbdafb2f4	-0.085790545
36	0x3da8c728	0.08241111
37	0x3d5b0d38	0.053479403
38	0xbd0980d8	-0.03357014
39	0x3d450f9c	0.04811059
40	0x3d30b4a8	0.043141037
41	0xbc1e6b40	-0.009669125
42	0xbdc0feee	-0.09423624
43	0xbdb75832	-0.08952369
44	0x3dc8772e	0.09788357
45	0xbd8076d4	-0.06272665
46	0x3d9e5e0e	0.07732783
47	0xbd9a3204	-0.07529071
48	0x3cdaf960	0.02673024
49	0x3de52c2e	0.11190067
50	0x3dc3dfc0	0.09564161
51	0xbc4a5270	-0.012348756
52	0xbdc0b814	-0.0941011
53	0x3d801daa	0.06255658
54	0x3db4f884	0.08836463
55	0xbdfe065e	-0.12403558
56	0xbdb79e2e	-0.08965717
57	0x3cf8afe0	0.030357301
58	0xbcbcd758	-0.023051903
59	0xbd42ad58	-0.047528595
60	0xbda557aa	-0.08073361
61	0x3cf78938	0.030216798
62	0x3cfcfd30	0.030882448
63	0x3dba678c	0.09101781
64	0x3d822e94	0.0635654
65	0xbe01a0f2	-0.12659052
66	0xbda15263	-0.07877042
67	0x3dbb6012	0.09149183
68	0xbd81a9a7	-0.06331187
69	0xbd85e632	-0.06538047
70	0x3cf9d678	0.030497774
71	0xbd2f2541	-0.042760137
72	0x3cf91960	0.030407608
73	0xbcd24499	-0.025667476
74	0x3c50040e	0.012696279
75	0x3d038eac	0.032118484
76	0x3d13a54c	0.03604631
77	0xba6041ed	-0.00085547456
78	0x3d974386	0.07385926
79	0x3da3da2c	0.08000597
80	0x3cf3e099	0.029770182
81	0xbda60b1b	-0.08107587
82	0xbd7e8ee7	-0.062148
83	0x3d2e85f8	0.04260823
84	0xbd216e82	-0.03941203
85	0x3dc36959	0.09541578
86	0x3cfb7378	0.030694708
87	0xbd3dff5d	-0.04638611
88	0xbcc3dba0	-0.023908436
89	0x3de44844	0.11146596
90	0x3d79e1d8	0.061006397
91	0x3de500ff	0.111818306
92	0x3c03e9d0	0.008051351
93	0x3cc69b37	0.024243934
94	0xbe023af7	-0.12717806
95	0xbbf1620a	-0.0073664235
96	0x3d01de2f	0.03170603
97	0xbde4b707	-0.11167722
98	0xbd827054	-0.06369081
99	0x3dadd4e8	0.08487874
100	0xbdc777c2	-0.09739639
101	0xbdb32512	-0.08747305
102	0x3dd72b1b	0.105062686
103	0xbbf45d02	-0.0074573765
104	0x3d1ecf04	0.038771644
105	0xbd308c48	-0.043102533
106	0xbd96ff22	-0.073728815
107	0xbd81b04e	-0.063324556
108	0x3c77ecc0	0.015132129
109	0xbd9c0d51	-0.076197274
110	0xbd149b5c	-0.036280975
111	0xbda31187	-0.079623275
112	0x3dba069d	0.09083293
113	0xbd9774bc	-0.07395312
114	0x3db36bb2	0.087607756
115	0xbdd50586	-0.10401444
116	0xbd6c8c74	-0.057751134
117	0x3dd06fba	0.1017756
118	0x3d940230	0.0722698
119	0xbdcd1cb6	-0.10015242
120	0x3cdcabfe	0.026937481
121	0x3cd120d5	0.02552835
122	0x3d532ce8	0.051556498
123	0x3ca25fd6	0.019821089
124	0xbdab027a	-0.08350082
125	0xbdb08420	-0.08618951
126	0xbdd9667c	-0.106152505
127	0x3cde3c8c	0.02712848
128	0xbc1d7930	-0.009611413
129	0xbdc67bc5	-0.09691576
130	0xbdb96310	-0.09052098
131	0xbd4d3e14	-0.05010803
132	0xbe022bb5	-0.12711985
133	0xbceda268	-0.029008105
134	0xbd3f29c3	-0.046670686
135	0x3c5379a1	0.012907417
136	0x3d2363eb	0.03989021
137	0xbdbbcb1e	-0.09169601
138	0x3c220e4d	0.009891105
139	0xbcfde3d0	-0.030992419
140	0xbe1a326d	-0.15058298
141	0xbd0b79c6	-0.03405168
142	0xbdd1b924	-0.10240391
143	0xbd1f9074	-0.03895612
144	0xbdcc44c5	-0.09974054
145	0x3b01e7fe	0.0019822116
146	0xbdac32a2	-0.08408095
147	0x3d2026b0	0.039099395
148	0x3da66069	0.081238575
149	0xbdb75622	-0.089519754
150	0x3dbea092	0.0930797
151	0xbd4a736e	-0.04942649
152	0x3dd72436	0.105049536
153	0x3d4b0eff	0.04957485
154	0x3d9fed80	0.078089714
155	0x3d356c27	0.044292595
156	0xbd332070	-0.043732107
157	0xbdb258ab	-0.08708318
158	0xbd623bcc	-0.055232808
159	0x3c62eeb2	0.013850855
160	0xbdeff1a8	-0.11716014
161	0x3cd2e0f5	0.025742033
162	0x3deef4aa	0.1166776
163	0x3d9ad0fa	0.0755939
164	0x3d1a4d30	0.037671268
165	0x3c0d0cf1	0.0086090425
166	0x3d3f7645	0.04674365
167	0xbd368c03	-0.04456712
168	0xbd99b3c6	-0.07504992
169	0xbd2da078	-0.042389363
170	0x3d364dde	0.044507854
171	0x3d0e688d	0.034767676
172	0x3db3fc30	0.08788335
173	0xbe0a5d59	-0.13512172
174	0x3d17fd34	0.037106708
175	0x3db2fa8a	0.08739193
176	0xbe0bcf79	-0.13653363
177	0x3db61494	0.08890644
178	0x3d93d9c4	0.0721927
179	0x3cf93430	0.030420393
180	0xbc9f9825	-0.019481728
181	0xbd988433	-0.0744709
182	0x3db120e4	0.086488515
183	0x3db6d3d0	0.08927119
184	0x3d9d8373	0.076910876
185	0x3d295f82	0.04135085
186	0x3cfbe8f8	0.030750737
187	0x3dd76cc9	0.10518796
188	0x3d3678e8	0.0445489
189	0xbde2c5c5	-0.11072878
190	0xbd8bab8e	-0.06819831
191	0x3d2cbb09	0.042170558
192	0xbdd2e7c4	-0.10298112
193	0xbdb10b80	-0.086447716
194	0x3de56f84	0.112029105
195	0xbd9bb556	-0.076029465
196	0xbdb8aeaa	-0.090176895
197	0xbd5cee14	-0.053937986
198	0xbcd22e80	-0.025656939
199	0xbd8498b2	-0.06474437
200	0xbdfe2ab4	-0.12410489
201	0x3b85dea0	0.004085377
202	0xbcc39f28	-0.023879603
203	0xbd64538c	-0.05574374
204	0x3d2fc080	0.04290819
205	0xbbcb99a0	-0.006213382
206	0x3d5b4180	0.053529263
207	0x3a127000	0.00055861473
208	0xbc103dc0	-0.008803785
209	0xbbcea100	-0.006305814
210	0xbdf82524	-0.12116459
211	0xbca50ef8	-0.02014874
212	0xbd36b4e8	-0.04460612
213	0x3cbd6680	0.023120165
214	0xbd08a9d4	-0.033365086
215	0xbd7dcc30	-0.061962306
216	0x3d8b3736	0.0679764
217	0x3df7997c	0.12089822
218	0x3d9b2cb8	0.07576889
219	0xbc9f3050	-0.019432217
220	0xbc4a9810	-0.012365356
221	0xbd1ed944	-0.03878142
222	0x3d1e1478	0.03859374
223	0xbd4eae94	-0.05045946
224	0x3d8881dc	0.06665394
225	0xbded8eac	-0.11599478
226	0x3a41ad00	0.0007388145
227	0xbdcced38	-0.100061834
228	0xbc5f0aa0	-0.013613373
229	0xbdcf39cc	-0.10118446
230	0x3d1edfb4	0.03878756
231	0x3d60551c	0.054768667
232	0xbd180634	-0.03711529
233	0xbcf26fd0	-0.029594332
234	0x3df1a18a	0.11798389
235	0xbd89aa9e	-0.06721996
236	0x3dd2163c	0.10258147
237	0xbc0de880	-0.008661389
238	0xbd870006	-0.06591801
239	0xbdf6d3a8	-0.12052089
240	0x3db94666	0.090466306
241	0xbbfa6460	-0.00764136
242	0xbd3c9cd8	-0.046048015
243	0x3dd67334	0.10471192
244	0xbda7de96	-0.08196752
245	0xbba3b500	-0.004995942
246	0x3dfb4ffe	0.12271117
247	0x3db3ee26	0.087856576
248	0xbcbf2938	-0.023335084
249	0xbd386734	-0.045020297
250	0x3ce60b30	0.028081506
251	0xba3d3900	-0.00072182715
252	0xbd5a92c8	-0.053362638
253	0x3dfc2b0a	0.123128965
254	0x3da89370	0.082312465
255	0xbc02e1a0	-0.0079883635

fc2.bias f4 [64]
0	0xbdd52cf2	-0.10408963
1	0x3d871268	0.065953076
2	0x3c57661c	0.013146903
3	0x3d01da34	0.031702235
4	0xbde1e468	-0.11029893
5	0x3cba3e43	0.022734767
6	0xbdb4d8ce	-0.08830415
7	0x3deefea7	0.11669665
8	0xbce045f5	-0.027377108
9	0x3e006f8f	0.12542556
10	0xbc541e6a	-0.012946704
11	0x3d0513a0	0.03248942
12	0x3df93e0a	0.12170036
13	0x3dcd510c	0.10025224
14	0x3b66086b	0.0035100232
15	0xbdef9b34	-0.116995245
16	0x3ce69297	0.028146071
17	0x3cbb79f8	0.022885308
18	0x3dc5e2c2	0.09662391
19	0x3d428184	0.047486797
20	0xbd9a2424	-0.075264245
21	0x3d2267a8	0.039649636
22	0xbd821bac	-0.06352934
23	0xbdde19ce	-0.108447656
24	0xbdc99cd3	-0.09844365
25	0xbd134ca0	-0.035961747
26	0xbd378f9c	-0.04481469
27	0x3dcfa0d7	0.101381
28	0xbd960138	-0.07324451
29	0xbdfa1740	-0.12211466
30	0xbc54d7e0	-0.012990922
31	0x3d954f6e	0.07290541
32	0xbba89c7e	-0.0051456084
33	0x3e2c2295	0.16810067
34	0x3db38d1a	0.08767147
35	0xbe0646bb	-0.13112919
36	0xbd0edb88	-0.03487733
37	0x3d09eacc	0.033671185
38	0xbdfcf94e	-0.123522386
39	0x3d9f3a34	0.07774773
40	0xbc131ef0	-0.008979544
41	0x3ddce657	0.10786121
42	0x3de6fcda	0.11278696
43	0xbba756b3	-0.005106771
44	0xbd932512	-0.07184805
45	0x3e1aad7e	0.15105245
46	0xbcc2520f	-0.02372077
47	0x3c9065fb	0.017626753
48	0xbd5d8f4d	-0.05409174
49	0xbe07ed2e	-0.1327407
50	0x3d8aa271	0.067692645
51	0x3d4b7978	0.04967639
52	0xbd0c12db	-0.03419767
53	0xbcc2c8e8	-0.02377744
54	0x3dc4711b	0.09591886
55	0xbcc504b2	-0.02405009
56	0x3c7fd1b1	0.015613959
57	0x3db80dc2	0.08986999
58	0xbd119080	-0.035538197
59	0xbd6d38b0	-0.05791539
60	0xbdb4bb5c	-0.088247985
61	0x3d9f5f89	0.07781894
62	0xbd7864bb	-0.06064294
63	0x3dd46db3	0.10372486

fc3.weight f4 [10, 64]
0	0xbaf2c500	-0.0018521845
1	0xbdf88b0a	-0.121358946
2	0x3ddee719	0.10883922
3	0xbde434ae	-0.1114286
4	0xbc926780	-0.017871618
5	0x3c71fc27	0.01476959
6	0xbddfe6b6	-0.109326765
7	0x3e244ba6	0.16044483
8	0xbca883ba	-0.020570625
9	0xbcb2c65f	-0.021823106
10	0xbdae2691	-0.0850345
11	0x3df7b176	0.12094395
12	0x3d6d56b8	0.05794403
13	0xbdb470ac	-0.08810553
14	0xbcdf80d5	-0.027283112
15	0x3deb0564	0.114756376
16	0x3cfce7df	0.030872284
17	0xbd1f65d4	-0.03891547
18	0xbc7d2650	-0.015451029
19	0x3e0c2790	0.13686967
20	0x3cabe980	0.020985365
21	0x3e0d59cd	0.13803788
22	0xbdeabb9e	-0.114615664
23	0xbdb23cbe	-0.08702992
24	0x3da545db	0.080699645
25	0xbd9fd95c	-0.0780513
26	0xbd9b3128	-0.07577735
27	0xbcdc2edd	-0.026877815
28	0x3de1026e	0.109867916
29	0x3d9a4cf4	0.07534209
30	0x3d604818	0.054756254
31	0x3d2bb52c	0.041920826
32	0x3e3c7607	0.18404399
33	0x3d04c25e	0.032411925
34	0x3df7ab3a	0.12093206
35	0xbdaf4039	-0.085571714
36	0x3d719548	0.058980256
37	0x3d8c3bc0	0.06847334
38	0xbd1f6fd0	-0.038924992
39	0x3d8eb1de	0.06967519
40	0x3dea3972	0.11436738
41	0x3dd51e0f	0.10406124
42	0x3d08e8fb	0.033425312
43	0xbcc4c01c	-0.024017386
44	0x3dc673ca	0.09690054
45	0x3e3102d0	0.17286229
46	0x3d5f1214	0.0544606
47	0x3d18b50f	0.037282046
48	0x3d488fd1	0.04896528
49	0xbd6242e5	-0.055239577
50	0x3b660d41	0.0035103115
51	0x3c83b998	0.016079709
52	0x3e32060b	0.17385118
53	0xbd0129b8	-0.031533927
54	0x3de725b4	0.11286488
55	0x3c2e3c5f	0.010634511
56	0x3d4c9e58	0.049955696
57	0x3dd81082	0.105500236
58	0xbcc2a050	-0.023758084
59	0x3d6c8f42	0.05775381
60	0x3d6bd48c	0.057575747
61	0x3e16ca5e	0.14725634
62	0xba37d1ac	-0.00070121395
63	0x3de42ce7	0.11141377
64	0xbd6f1154	-0.058366135
65	0xbd58aeb3	-0.05290098
66	0x3da7c907	0.0819264
67	0xbc37eb80	-0.011225581
68	0xbc7effe0	-0.015563935
69	0x3d190459	0.037357662
70	0x3d012f68	0.03153935
71	0xbd5bcb8f	-0.053660925
72	0xbdecfd47	-0.11571746
73	0xbacc4892	-0.0015585592
74	0x3c2dfbf0	0.010619149
75	0xbdd56cde	-0.104211554
76	0xbdd6acf4	-0.10482207
77	0xbdd37dfe	-0.103267655
78	0xbe1de1ac	-0.15418118
79	0xbdbd929a	-0.09256478
80	0xbb9bf54d	-0.0047594667
81	0x3cdcf918	0.026974246
82	0xbd8b26ee	-0.067945346
83	0x3dc6cb60	0.097067595
84	0xbb82e420	-0.00399448
85	0xbd8a41d9	-0.06750841
86	0xbd803c26	-0.062614724
87	0x3d63a974	0.055581525
88	0x3d8d9db7	0.06914847
89	0xbddfb35c	-0.10922882
90	0x3cd7eb18	0.026357219
91	0x3d9dedd2	0.07711376
92	0x3aab0600	0.0013048053
93	0x3d181e60	0.037138343
94	0x3d5bdafc	0.053675637
95	0x3d1d1438	0.03834936
96	0xbd0a6f3a	-0.03379748
97	0x3d8998bd	0.06718586
98	0x3c141570	0.009038314
99	0xbe071dcd	-0.13194962
100	0xbdd2b572	-0.10288514
101	0xbd700fa4	-0.058608666
102	0xbd5a6f9c	-0.053329095
103	0xbdf30b6c	-0.11867413
104	0x3de4c7e0	0.11170936
105	0x3d7ee1a9	0.062226925
106	0xbcac7752	-0.02105299
107	0x3dd80edd	0.1054971
108	0x3c95665f	0.01823729
109	0xbd184b62	-0.037181266
110	0x3d321ab8	0.043482512
111	0x3e43aad5	0.19108136
112	0xbe13a1a5	-0.14417131
113	0x3d510823	0.05103315
114	0x3d18c340	0.03729558
115	0x3decd9c5	0.11564974
116	0x3c74ed3b	0.014949138
117	0xbb83aec0	-0.0040186346
118	0xbd7fa178	-0.062409848
119	0x3d275fa8	0.04086271
120	0x3bef9ee0	0.0073126405
121	0xbdd8f36b	-0.10593303
122	0xbddf883e	-0.10914658
123	0xbdfb8fcc	-0.122832865
124	0x3dfd00a0	0.12353635
125	0xbe063606	-0.13106546
126	0x3dac2448	0.084053576
127	0x3c813963	0.015774434
128	0xbde09dc0	-0.109675884
129	0x3da14a9c	0.07875559
130	0x3cda4a16	0.026646655
131	0x3df93994	0.12169185
132	0x3d88abe0	0.066734076
133	0x3d6a328c	0.05717711
134	0xbca64ff0	-0.020301789
135	0xbad820ed	-0.0016489305
136	0x3df1b9f3	0.11803045
137	0xbd29b2b8	-0.041430205
138	0x3d0facf6	0.035077058
139	0xbd2b0b94	-0.04175909
140	0xbc972550	-0.01845041
141	0x3d45b010	0.04826361
142	0x3dea900e	0.114532575
143	0x3dfb8720	0.122816324
144	0xbc8c0421	-0.017091813
145	0x3d4b5664	0.049642935
146	0x3d189cb0	0.037258804
147	0x3d069c7f	0.03286409
148	0x3c07c1a0	0.00828591
149	0x3d851760	0.06498599
150	0xbde3ade2	-0.1111715
151	0xbb806be0	-0.0039191097
152	0xbdbac40b	-0.091194235
153	0xbdc0f36c	-0.09421429
154	0x3c1c42c0	0.009537399
155	0xbdde45e5	-0.10853175
156	0xbdcd2466	-0.10016708
157	0x3c7e5ef0	0.015525565
158	0x3d5dfd58	0.054196686
159	0x3df11e36	0.117733404
160	0x3db545bd	0.08851192
161	0xbdbdcaf5	-0.092672266
162	0xbda52732	-0.080641165
163	0x3d5ba6a7	0.05362573
164	0x3d5c339c	0.053760156
165	0x3d9363c2	0.07196762
166	0xbc331d10	-0.010932222
167	0x3dc8f4ca	0.09812315
168	0xbdacc14c	-0.08435306
169	0xbd5c6b03	-0.05381299
170	0xbbeda363	-0.007252143
171	0xbdc27b17	-0.09496134
172	0x3d5a179e	0.05324518
173	0x3d64bf1d	0.055846322
174	0x3d98f5d8	0.07468766
175	0x3de76dd4	0.11300245
176	0xbcccaebe	-0.024985667
177	0x3d2e3317	0.04252919
178	0xbd22884b	-0.03968076
179	0xbd7e858f	-0.06213909
180	0xbd2ad0a1	-0.04170287
181	0xbd851b44	-0.06499341
182	0x3bb3591c	0.005473269
183	0xbd623b25	-0.055232186
184	0x3c7d2e50	0.015452936
185	0x3c3e6cab	0.011622588
186	0x3d8f844a	0.07007654
187	0xbc900dbd	-0.017584676
188	0x3ddca930	0.107744575
189	0xbbfb4734	-0.0076684
190	0xbd47b043	-0.04875208
191	0x3b91baf7	0.004447337
192	0x3da2e748	0.0795427
193	0xbdda22e0	-0.10651183
194	0xbda96fd6	-0.08273284
195	0xbd411bc0	-0.047145605
196	0x3dc15112	0.09439291
197	0xbd349c2e	-0.044094257
198	0x3d7c1ed0	0.061552823
199	0xbe00d194	-0.12579948
200	0xbdbdfe35	-0.09277002
201	0xbd09d791	-0.033652846
202	0xbd2ffd23	-0.04296602
203	0x3db9808a	0.0905772
204	0x3bf734a0	0.007544115
205	0x3d836880	0.06416416
206	0xbd1d242d	-0.038364578
207	0xbdb20ce4	-0.08693865
208	0xbbdd9f4e	-0.0067633754
209	0xbc4e2c60	-0.012583822
210	0x3dcf152a	0.101114586
211	0xbd87b275	-0.06625835
212	0x3c6abaf0	0.014326796
213	0xbdaa9c24	-0.08330563
214	0x3c8f4a40	0.01749146
215	0xbd5409a4	-0.051767007
216	0xbc9e6b23	-0.019338196
217	0xba006b00	-0.0004898757
218	0x3dc0f09a	0.09420891
219	0xbd8274cb	-0.06369933
220	0x3c4629f0	0.01209496
221	0x3de49896	0.11161916
222	0x3d7fe558	0.06247458
223	0x3db015d4	0.085979134
224	0x3d115d32	0.03548927
225	0xbcf2ba64	-0.029629894
226	0x3d8205a2	0.063487306
227	0x3d5912e8	0.052996546
228	0x3d1f73cc	0.038928792
229	0xbceb73a8	-0.028741673
230	0xbdbc9b82	-0.09209348
231	0xbd762eb8	-0.06010315
232	0xbc622140	-0.013801873
233	0x3d53e00e	0.051727347
234	0xbd35d8cd	-0.04439621
235	0x3dcb9181	0.09939862
236	0xbddc5ad7	-0.10759514
237	0x3dc618ee	0.09672724
238	0xbcc1ec88	-0.023672357
239	0xbda2a1ae	-0.07940994
240	0xbdca0e50	-0.09866011
241	0xbd87ee08	-0.06637198
242	0x3d516653	0.051122975
243	0xbdc807bb	-0.097670995
244	0x3d246462	0.040134795
245	0xbccefff0	-0.025268525
246	0x3dbcd39c	0.09220049
247	0x3de5dda7	0.112239175
248	0xbc894880	-0.016758204
249	0xbd6c5950	-0.057702363
250	0xba615800	-0.0008596182
251	0xbd95b8a9	-0.07310612
252	0xbd6d6114	-0.05795391
253	0xbca03419	-0.019556092
254	0xbd153892	-0.036430903
255	0xbacdb316	-0.001569363

fc3.bias f4 [10]
0	0x3e42e23b	0.19031613
1	0xbda6a01a	-0.08136006
2	0x3dfd7b3f	0.12377023
3	0x3b157c7e	0.0022809799
4	0x3d34c8be	0.044136755
5	0x3d7964a2	0.060886987
6	0xbd44943d	-0.047992934
7	0xbe01fc21	-0.12693836
8	0xbc857502	-0.016291145
9	0xbbbfa77d	-0.0058488236

fc1.weight f4 [64, 7]
0	0xbeb58abe	-0.35457414
1	0xbe5fc72a	-0.21853319
2	0xbdf3d218	-0.119053066
3	0x3d21c898	0.03949794
4	0xbe07d85e	-0.13266131
5	0xbe9388e0	-0.28815365
6	0x3cb11ea0	0.021621048
7	0x3e67d97e	0.2264156
8	0x3cb4d130	0.022072405
9	0x3e99a199	0.30006102
10	0x3ebd1b0d	0.369347
11	0x3e864067	0.2622101
12	0x3e81fc57	0.25387833
13	0x3e2f13a2	0.17097333
14	0x3e9b9285	0.30385223
15	0x3d92bd04	0.07164958
16	0xbdd09ef8	-0.10186571
17	0xbe9b7226	-0.30360526
18	0xbdbc244c	-0.091866106
19	0x3da8fa88	0.0825091
20	0xbcfea2c0	-0.031083465
21	0xbdb5b350	-0.08872092
22	0xbdfa89e8	-0.12233335
23	0xbd08c368	-0.03338948
24	0xbe58cc26	-0.21171626
25	0xbe81bb04	-0.25337994
26	0x3d5a6f20	0.053328633
27	0xbddf13d0	-0.10892451
28	0x3ddf6adc	0.10909054
29	0x3e85f96f	0.26166865
30	0xbe9d6f2a	-0.30748874
31	0x3e27a46a	0.16371313
32	0x3dbc1f38	0.09185642
33	0x3e3a8782	0.18215755
34	0x3d48b2c8	0.048998624
35	0x3eadc475	0.33938947
36	0x3ca6e930	0.020374864
37	0x3ea9dce3	0.33176336
38	0x3d9cef74	0.076628596
39	0xbde6e3ec	-0.112739414
40	0xbebeee35	-0.37291113
41	0x3d4a9ba0	0.04946482
42	0x3e275796	0.16342005
43	0xbe4f6763	-0.20254283
44	0xbe4ecee9	-0.20196117
45	0x3ebf9c13	0.37423763
46	0x3e81b13f	0.2533054
47	0xbde8f5f4	-0.11375037
48	0x3e1ae676	0.15126976
49	0x3d5ac688	0.05341199
50	0xbe269279	-0.16266812
51	0x3e708f2e	0.23492119
52	0x3cc50c90	0.024053842
53	0xbe320455	-0.17384465
54	0x3ea09539	0.31363848
55	0x3dd75f68	0.10516244
56	0x3ea67e7d	0.32518378
57	0x3d4d0360	0.050052047
58	0x3e418c66	0.18901214
59	0x3e4cc732	0.19997862
60	0x3d883784	0.06651214
61	0x3ea781b1	0.32716134
62	0xbe9037c6	-0.28167552
63	0x3d870928	0.06593543
64	0x3ea32c85	0.31869903
65	0x3e1324c2	0.1436949
66	0x3d2e7898	0.042595476
67	0x3e3c202e	0.1837165
68	0xbda2020c	-0.07910547
69	0x3ea3043f	0.31839177
70	0x3da3b148	0.07992798
71	0xbeb2d882	-0.34930807
72	0x3e8a1509	0.26969174
73	0xbeb2b425	-0.34903064
74	0x3a4a6400	0.00077205896
75	0x3df9a828	0.121902764
76	0x3e8e8cbd	0.2784175
77	0xbe5d7bbd	-0.21629234
78	0x3e744076	0.23852715
79	0xbdae16a4	-0.08500412
80	0xbe15a4a9	-0.14613594
81	0x3e71453e	0.2356157
82	0x3e5fa1a6	0.21839008
83	0xbe5db083	-0.21649365
84	0xbeaab92c	-0.333444
85	0x3dcc76e8	0.09983617
86	0xbd45b710	-0.048270285
87	0xbea294f0	-0.31754255
88	0x3ea0f2b9	0.31435183
89	0xbe8be64d	-0.27324143
90	0xbdd5fbe0	-0.10448432
91	0x3e85d747	0.26140806
92	0xbdbbe0dc	-0.09173748
93	0x3e4a19d2	0.19736412
94	0x3d1b32b8	0.037890166
95	0x3d9940ac	0.07483038
96	0x3e8be617	0.27323982
97	0xbe0ed4ca	-0.1394836
98	0xbbce8840	-0.0063028634
99	0xbe1da975	-0.15396674
100	0x3d6c1ed0	0.057646573
101	0xbe0f4619	-0.13991584
102	0xbcca9940	-0.024731278
103	0x3ea75c73	0.3268772
104	0x3e9393a3	0.28823575
105	0x3eb6fef9	0.35741404
106	0xbe9ac0d3	-0.30225238
107	0xbe255c17	-0.1614841
108	0xbe8aaeca	-0.27086478
109	0x3e0a7782	0.13522151
110	0xbea4751d	-0.321206
111	0x3df75b5c	0.12077972
112	0xbe7aeaa9	-0.24503578
113	0x3eb0af0b	0.34508547
114	0x3ea7c7c9	0.3276961
115	0x3d862c30	0.06551397
116	0xbe9de53a	-0.30838948
117	0x3dc56758	0.09638852
118	0x3e26bbaa	0.16282526
119	0x3dbba168	0.09161645
120	0xbe3a38f7	-0.18185793
121	0x3eb3bef3	0.3510662
122	0xbeb12093	-0.34595165
123	0x3e90e357	0.28298447
124	0x3e015ca2	0.12632993
125	0xbe19a286	-0.15003404
126	0x3e1b9c02	0.15196231
127	0xbca3db30	-0.020001978
128	0x3e86d8dd	0.2633733
129	0xbdd50ed8	-0.10403222
130	0xbdb07dc0	-0.08617735
131	0x3e8f8cb1	0.28037027
132	0x3d4f6ce0	0.05064094
133	0x3ebe3175	0.37147108
134	0xbea030b2	-0.31287152
135	0xbce1c1e0	-0.027558267
136	0xbeb7707b	-0.35828003
137	0x3d8b71c8	0.068088114
138	0xbe20d3b7	-0.15705763
139	0x3eb1de63	0.3473998
140	0x3e4cac9e	0.19987723
141	0xbca486b0	-0.020083755
142	0x3d185c48	0.03719738
143	0xbe4aad1f	-0.19792603
144	0xbe24082f	-0.16018747
145	0xbdca8384	-0.09888366
146	0x3ebb615d	0.3659772
147	0x3e0a271a	0.13491479
148	0x3e9107af	0.28326175
149	0xbe814c20	-0.2525339
150	0xbe12fa26	-0.14353237
151	0x3e89744f	0.2684655
152	0x3e960b55	0.2930552
153	0xbe8ccf45	-0.27501884
154	0x3e8cf6bb	0.2753199
155	0xbe50ca70	-0.20389724
156	0xbe93372a	-0.28753024
157	0xbec116f3	-0.3771282
158	0xbd3e1cd8	-0.046414226
159	0xbd860768	-0.065443814
160	0xbe9d0f6c	-0.30675828
161	0x3e0107b6	0.12600598
162	0xbc786860	-0.015161604
163	0xbe6d13d8	-0.23152101
164	0x3d9282d4	0.0715386
165	0xbe612a37	-0.2198876
166	0x3da51f0c	0.08062562
167	0x3eae409d	0.3403367
168	0x3d3b6b08	0.04575637
169	0xbebc7c29	-0.36813477
170	0x3ea3601d	0.31909266
171	0xbe8fa9f5	-0.28059354
172	0x3e64461a	0.22292367
173	0x3e18c64e	0.14919397
174	0xbd4bb610	-0.049734175
175	0xbd864e64	-0.065579206
176	0x3e2fc9ea	0.17166868
177	0x3e90c1e9	0.28272942
178	0x3c887860	0.016658962
179	0xbdbafc88	-0.09130198
180	0xbd8729c4	-0.06599763
181	0x3e4803ea	0.19532743
182	0xbd126098	-0.03573665
183	0x3e58e9ea	0.21182981
184	0x3e9decf3	0.3084484
185	0x3cdd4a30	0.027012914
186	0x3bc7b380	0.006094396
187	0x3e8a4a69	0.27009895
188	0x3dec0d64	0.115259916
189	0x3e8e9eab	0.2785543
190	0x3d67aac0	0.056559324
191	0x3e228186	0.15869722
192	0xbec08291	-0.37599614
193	0x3ea2d791	0.3180509
194	0x3eb25d8d	0.34837
195	0x3ea8c9d3	0.3296648
196	0x3e4e5852	0.20150879
197	0x3e0f7752	0.14010361
198	0xbea48ff6	-0.32141083
199	0xbea3cb73	-0.31991157
200	0xbc191060	-0.009342283
201	0x3df33354	0.118750244
202	0xbe216bd3	-0.15763788
203	0x3e6d55e6	0.23177299
204	0x3dbdf85c	0.092758864
205	0xbe4589d7	-0.19290863
206	0xbe543f98	-0.20727384
207	0x3ea0f04d	0.31433335
208	0xbe9d81fd	-0.30763236
209	0x3eab40e3	0.33447942
210	0xbd3ffc50	-0.046871483
211	0x3dfb9864	0.122849256
212	0xbd6ab380	-0.05730009
213	0x3e88d4a7	0.2672474
214	0xbe15c20c	-0.14624804
215	0x3eb540a9	0.35400894
216	0x3dd95d54	0.10613504
217	0xbe002546	-0.12514219
218	0x3d8ec554	0.06971231
219	0x3e8ce6b3	0.2751976
220	0x3e190ca6	0.14946231
221	0x3ec0fd4b	0.37693247
222	0x3e1e7baa	0.15476862
223	0xbcbb23f0	-0.022844285
224	0xbe34178d	-0.17587109
225	0xbdb04864	-0.086075574
226	0xbd1cb5d8	-0.038259357
227	0x3ea8dbe9	0.32980278
228	0xbd106520	-0.03525269
229	0x3e095f22	0.13415197
230	0x3e83d083	0.2574502
231	0xbe026412	-0.12733486
232	0x3d8c6750	0.06855643
233	0xbe8e2d46	-0.27768916
234	0xbead6fd0	-0.3387437
235	0xbe3a7cba	-0.18211642
236	0xbd9acd1c	-0.07558653
237	0x3b2c2d80	0.0026272237
238	0x3ea33c1b	0.31881794
239	0x3b95c280	0.0045703053
240	0xbdd79d20	-0.10528016
241	0xbe196346	-0.14979276
242	0xbe8e6552	-0.27811676
243	0xbdb62328	-0.08893424
244	0xbd250a40	-0.04029298
245	0xbd879e40	-0.06621981
246	0x3cb058f0	0.021526784
247	0x3e4016b6	0.18758664
248	0xbddae894	-0.10688892
249	0xbe2ace91	-0.16680361
250	0xbe686695	-0.22695382
251	0xbe4841e2	-0.19556382
252	0x3de37908	0.11107069
253	0xbe03939a	-0.12849274
254	0xbd8160c0	-0.06317282
255	0x3e453b8a	0.19260994

fc1.bias f4 [64]
0	0xbe7d36db	-0.24727957
1	0xbd4befd0	-0.04978925
2	0xbd7a5b40	-0.06112218
3	0x3d2a3ca0	0.041561723
4	0x3e42efd2	0.19036797
5	0xbea0aba4	-0.3138095
6	0xbeae8a64	-0.3408996
7	0x3c33c760	0.010972828
8	0xbe80ea45	-0.25178733
9	0x3b88da00	0.0041763783
10	0x3db4cde4	0.08828333
11	0xbeaa89f9	-0.3330839
12	0x3e6d998e	0.23203108
13	0x3d4eba08	0.050470382
14	0x3db55b38	0.08855289
15	0x3eb97ac5	0.36226478
16	0x3dd99d98	0.10625762
17	0x3d0e3e68	0.034727484
18	0xbe2bb446	-0.16767988
19	0xbe512b2c	-0.20426625
20	0x3ea5ccf5	0.32382932
21	0x3e8cf6cd	0.27532044
22	0x3e2953e6	0.16535911
23	0xbdb42d40	-0.08797693
24	0xbe74b2f5	-0.23896392
25	0x3e8edbd7	0.279021
26	0x3ea3fc0d	0.32028237
27	0x3eab1775	0.33416334
28	0x3e08eb2e	0.13370964
29	0xbc3e0fc0	-0.011600435
30	0xbdcebd90	-0.1009475
31	0xbea89e9a	-0.32933503
32	0xbebd83ab	-0.37014517
33	0x3ea0657d	0.3132743
34	0xbeade9fb	-0.33967575
35	0x3d6c2e68	0.057661444
36	0xbdf9b8cc	-0.1219345
37	0x3de168a8	0.1100629
38	0xbe31d455	-0.17366154
39	0x3dffae34	0.124843985
40	0xbe6d9db2	-0.23204687
41	0x3e9cd6f5	0.3063275
42	0x3e9f7541	0.31144145
43	0xbe046860	-0.12930441
44	0xbdd8ccb0	-0.10585916
45	0x3e75af3a	0.23992625
46	0x3dcd55c8	0.10026127
47	0xbd96d7c8	-0.07365376
48	0xbe29dbff	-0.16587828
49	0x3eb4efef	0.35339305
50	0xbe30dd4f	-0.17271923
51	0x3e926513	0.28592739
52	0xbea6fdd5	-0.32615533
53	0x3e5cffb6	0.21581921
54	0xbccf85d0	-0.025332361
55	0x3eae1e55	0.34007517
56	0xbd7c0528	-0.061528355
57	0x3eb9155f	0.36149117
58	0xbe986846	-0.29767054
59	0x3ebcf461	0.36905196
60	0x3e8d5ab5	0.27608266
61	0x3e9199af	0.28437564
62	0x3e06044a	0.13087574
63	0x3e972771	0.2952228

fc2.weight f4 [64, 64]
0	0xbd380ab8	-0.044932097
1	0x3daad6e8	0.08341771
2	0x3d8864e8	0.06659871
3	0x3deb7880	0.11497593
4	0xbd30e0c4	-0.043183103
5	0xbc8b49e8	-0.017003015
6	0xbc8ba958	-0.017048523
7	0xbcd4a448	-0.025957242
8	0xbdd139ae	-0.1021608
9	0x3dceac5c	0.10091469
10	0x3cb748a0	0.022373497
11	0xbd297490	-0.04137093
12	0x3ce94628	0.028475836
13	0x3df75930	0.12077558
14	0x3dd8502c	0.105621666
15	0xbd6c14e0	-0.057637095
16	0x3d80d408	0.06290442
17	0x3c35f4c0	0.011105716
18	0x3db3a028	0.08770782
19	0xbd85cde2	-0.0653341
20	0xbc6ebe80	-0.014571786
21	0xbd5fc13c	-0.054627642
22	0x3d003ac4	0.031306043
23	0x3d1b3228	0.03788963
24	0xbdf74564	-0.12073782
25	0x3dc68f16	0.0969526
26	0x3dce1278	0.100621164
27	0xbdf86c66	-0.1213005
28	0x3cf1c638	0.029513463
29	0xbdc9c0ee	-0.098512515
30	0xbdeab780	-0.11460781
31	0x3dc75766	0.09733467
32	0xbcf84558	-0.030306503
33	0xbdd54b20	-0.104147196
34	0x3ce65eb8	0.028121337
35	0xbdafb2f4	-0.085790545
36	0x3da8c728	0.08241111
37	0x3d5b0d38	0.053479403
38	0xbd0980d8	-0.03357014
39	0x3d450f9c	0.04811059
40	0x3d30b4a8	0.043141037
41	0xbc1e6b40	-0.009669125
42	0xbdc0feee	-0.09423624
43	0xbdb75832	-0.08952369
44	0x3dc8772e	0.09788357
45	0xbd8076d4	-0.06272665
46	0x3d9e5e0e	0.07732783
47	0xbd9a3204	-0.07529071
48	0x3cdaf960	0.02673024
49	0x3de52c2e	0.11190067
50	0x3dc3dfc0	0.09564161
51	0xbc4a5270	-0.012348756
52	0xbdc0b814	-0.0941011
53	0x3d801daa	0.06255658
54	0x3db4f884	0.08836463
55	0xbdfe065e	-0.12403558
56	0xbdb79e2e	-0.08965717
57	0x3cf8afe0	0.030357301
58	0xbcbcd758	-0.023051903
59	0xbd42ad58	-0.047528595
60	0xbda557aa	-0.08073361
61	0x3cf78938	0.030216798
62	0x3cfcfd30	0.030882448
63	0x3dba678c	0.09101781
64	0x3d822e94	0.0635654
65	0xbdef625a	-0.11688681
66	0xbda607d2	-0.0810696
67	0x3dbb6012	0.09149183
68	0xbd598528	-0.053105503
69	0xbd85e632	-0.06538047
70	0x3cf9d678	0.030497774
71	0xbcfa53a8	-0.030557469
72	0x3d1fe4ec	0.039036676
73	0xbc799070	-0.0152321905
74	0x3cf08f60	0.029365242
75	0x3d038eac	0.032118484
76	0x3d4c2054	0.049835518
77	0x3c0e3860	0.008680433
78	0x3daed0e4	0.085359365
79	0x3da3da2c	0.08000597
80	0x3d291bcc	0.041286275
81	0xbdad2c8c	-0.08455762
82	0xbd4b316c	-0.04960768
83	0x3d2e85f8	0.04260823
84	0xbce2b830	-0.027675718
85	0x3dd8a012	0.10577406
86	0x3cfb7378	0.030694708
87	0xbd0556c0	-0.032553434
88	0xbcc3dba0	-0.023908436
89	0x3dfacec0	0.12246466
90	0x3d931d56	0.0718333
91	0x3dfaeeaa	0.12252553
92	0x3ccd19e8	0.025036767
93	0x3d096558	0.033543915
94	0xbdeec752	-0.11659111
95	0x3aaa7780	0.0013005584
96	0x3ceb65e8	0.028735116
97	0xbdc29584	-0.09501174
98	0xbd827054	-0.06369081
99	0x3dadd4e8	0.08487874
100	0xbdc777c2	-0.09739639
101	0xbd9d3e9e	-0.07677959
102	0x3deb728a	0.11496456
103	0x3aa44e00	0.0012535453
104	0x3d4e096c	0.050301954
105	0xbd308c48	-0.043102533
106	0xbd855af8	-0.065114915
107	0xbd4f54e0	-0.050618052
108	0x3c77ecc0	0.015132129
109	0xbd863b1c	-0.06554243
110	0xbd149b5c	-0.036280975
111	0xbd8e6a14	-0.069538265
112	0x3dcb7d3e	0.099359974
113	0xbd9774bc	-0.07395312
114	0x3db36bb2	0.087607756
115	0xbdbcab74	-0.092123896
116	0xbd6c8c74	-0.057751134
117	0x3dd06fba	0.1017756
118	0x3d940230	0.0722698
119	0xbdb67e8a	-0.08910854
120	0x3d30bdd0	0.04314977
121	0x3d194e04	0.037427917
122	0x3d532ce8	0.051556498
123	0x3cf343e8	0.029695466
124	0xbdab027a	-0.08350082
125	0xbd97b4c6	-0.07407527
126	0xbdc7d5a4	-0.097575456
127	0x3d324570	0.043523252
128	0xbc1d7930	-0.009611413
129	0xbda1979a	-0.07890244
130	0xbdcd4ff8	-0.100250185
131	0xbd4d3e14	-0.05010803
132	0xbdde7ba0	-0.10863423
133	0xbceda268	-0.029008105
134	0xbcf2ba60	-0.029629886
135	0x3d057694	0.032583788
136	0x3d6a5fd4	0.057220295
137	0xbd95414a	-0.072878435
138	0x3cd494b0	0.025949806
139	0xbcfde3d0	-0.030992419
140	0xbdfe2d4e	-0.12410985
141	0xbc851798	-0.016246602
142	0xbda98468	-0.082772076
143	0xbd1f9074	-0.03895612
144	0xbda56274	-0.08075419
145	0x3c56dd00	0.013114214
146	0xbd81d9b6	-0.06340353
147	0x3d2026b0	0.039099395
148	0x3dcd25d0	0.10016978
149	0xbd90597e	-0.07048319
150	0x3dbea092	0.0930797
151	0xbd0408bc	-0.032234892
152	0x3dd72436	0.105049536
153	0x3d8bfaba	0.06834932
154	0x3dc6d6ec	0.09708962
155	0x3d81b174	0.063326746
156	0xbce78f50	-0.028266579
157	0xbd8dde38	-0.069271505
158	0xbd15ebe4	-0.036601916
159	0x3d0406f0	0.03223318
160	0xbdc909e6	-0.09816341
161	0x3d2badf0	0.041913927
162	0x3deef4aa	0.1166776
163	0x3d9ad0fa	0.0755939
164	0x3d1a4d30	0.037671268
165	0x3ce04668	0.027377322
166	0x3d8495cc	0.06473884
167	0xbcd8a490	-0.026445657
168	0xbd62cd0c	-0.05537133
169	0xbd2da078	-0.042389363
170	0x3d803b92	0.06261362
171	0x3d602ae4	0.054728404
172	0x3db3fc30	0.08788335
173	0xbdeeec40	-0.11666155
174	0x3d17fd34	0.037106708
175	0x3dd856d4	0.10563436
176	0xbdf20766	-0.118178174
177	0x3db61494	0.08890644
178	0x3d93d9c4	0.0721927
179	0x3d5da594	0.054112986
180	0xbc81bf60	-0.015838325
181	0xbdaa3c6a	-0.08312304
182	0x3db120e4	0.086488515
183	0x3ddd4b72	0.10805406
184	0x3dbfceaa	0.0936559
185	0x3d73e170	0.059541166
186	0x3cfbe8f8	0.030750737
187	0x3dfc6964	0.12324789
188	0x3d3678e8	0.0445489
189	0xbdbae684	-0.091259986
190	0xbd5066f8	-0.05087945
191	0x3d699edc	0.057036266
192	0xbdd2e7c4	-0.10298112
193	0xbdb10b80	-0.086447716
194	0x3de56f84	0.112029105
195	0xbd9bb556	-0.076029465
196	0xbdb8aeaa	-0.090176895
197	0xbd5cee14	-0.053937986
198	0xbcd22e80	-0.025656939
199	0xbd8498b2	-0.06474437
200	0xbdfe2ab4	-0.12410489
201	0x3b85dea0	0.004085377
202	0xbcc39f28	-0.023879603
203	0xbd64538c	-0.05574374
204	0x3d2fc080	0.04290819
205	0xbbcb99a0	-0.006213382
206	0x3d5b4180	0.053529263
207	0x3a127000	0.00055861473
208	0xbc103dc0	-0.008803785
209	0xbbcea100	-0.006305814
210	0xbdf82524	-0.12116459
211	0xbca50ef8	-0.02014874
212	0xbd36b4e8	-0.04460612
213	0x3cbd6680	0.023120165
214	0xbd08a9d4	-0.033365086
215	0xbd7dcc30	-0.061962306
216	0x3d8b3736	0.0679764
217	0x3df7997c	0.12089822
218	0x3d9b2cb8	0.07576889
219	0xbc9f3050	-0.019432217
220	0xbc4a9810	-0.012365356
221	0xbd1ed944	-0.03878142
222	0x3d1e1478	0.03859374
223	0xbd4eae94	-0.05045946
224	0x3d8881dc	0.06665394
225	0xbded8eac	-0.11599478
226	0x3a41ad00	0.0007388145
227	0xbdcced38	-0.100061834
228	0xbc5f0aa0	-0.013613373
229	0xbdcf39cc	-0.10118446
230	0x3d1edfb4	0.03878756
231	0x3d60551c	0.054768667
232	0xbd180634	-0.03711529
233	0xbcf26fd0	-0.029594332
234	0x3df1a18a	0.11798389
235	0xbd89aa9e	-0.06721996
236	0x3dd2163c	0.10258147
237	0xbc0de880	-0.008661389
238	0xbd870006	-0.06591801
239	0xbdf6d3a8	-0.12052089
240	0x3db94666	0.090466306
241	0xbbfa6460	-0.00764136
242	0xbd3c9cd8	-0.046048015
243	0x3dd67334	0.10471192
244	0xbda7de96	-0.08196752
245	0xbba3b500	-0.004995942
246	0x3dfb4ffe	0.12271117
247	0x3db3ee26	0.087856576
248	0xbcbf2938	-0.023335084
249	0xbd386734	-0.045020297
250	0x3ce60b30	0.028081506
251	0xba3d3900	-0.00072182715
252	0xbd5a92c8	-0.053362638
253	0x3dfc2b0a	0.123128965
254	0x3da89370	0.082312465
255	0xbc02e1a0	-0.0079883635

fc2.bias f4 [64]
0	0xbdd52cf2	-0.10408963
1	0x3d9d3f58	0.076780975
2	0x3d032fac	0.032027885
3	0x3d01da34	0.031702235
4	0xbde1e468	-0.11029893
5	0x3d3074d4	0.043080166
6	0xbdb4d8ce	-0.08830415
7	0x3d687004	0.05674745
8	0xbbdff7c0	-0.006834954
9	0x3df2a2a6	0.11847429
10	0x3c0eb620	0.008710414
11	0x3d0513a0	0.03248942
12	0x3df93e0a	0.12170036
13	0x3dcd510c	0.10025224
14	0xbc771940	-0.015081704
15	0xbdef9b34	-0.116995245
16	0x3d1d0ff4	0.038345292
17	0x3cbb79f8	0.022885308
18	0x3dc5e2c2	0.09662391
19	0x3d9a7dd6	0.075435326
20	0xbd9a2424	-0.075264245
21	0x3bc51c40	0.0060153306
22	0xbd821bac	-0.06352934
23	0xbdde19ce	-0.108447656
24	0xbdbbe332	-0.091741934
25	0xbd134ca0	-0.035961747
26	0xbd378f9c	-0.04481469
27	0x3de60b8c	0.11232671
28	0xbd960138	-0.07324451
29	0xbdfa1740	-0.12211466
30	0xbc54d7e0	-0.012990922
31	0x3d954f6e	0.07290541
32	0xbc83f760	-0.016109169
33	0x3de4426e	0.11145483
34	0x3db38d1a	0.08767147
35	0xbddeafd4	-0.1087338
36	0xbd0edb88	-0.03487733
37	0x3d09eacc	0.033671185
38	0xbdfcf94e	-0.123522386
39	0x3d9f3a34	0.07774773
40	0xbc131ef0	-0.008979544
41	0x3d4ac884	0.049507633
42	0x3d879bcc	0.06621513
43	0x3c0b3990	0.008497611
44	0xbd7d82c4	-0.061892286
45	0x3d9e0906	0.07716565
46	0xbc912028	-0.017715529
47	0xbc4a9580	-0.012364745
48	0xbdae349c	-0.08506128
49	0xbdf6d6ae	-0.12052666
50	0x3d20b3e8	0.039234072
51	0x3d614e94	0.05500658
52	0xbdcbd5e0	-0.09952903
53	0xbcc2c8e8	-0.02377744
54	0x3de788fe	0.11305426
55	0xbc015a20	-0.007895023
56	0x3caa67b8	0.02080141
57	0x3d3a1558	0.04543051
58	0xbd119080	-0.035538197
59	0xbd4143b4	-0.047183707
60	0xbdb4bb5c	-0.088247985
61	0x3c7d17e0	0.015447587
62	0xbd2dd5b4	-0.04244013
63	0x3d1419cc	0.036157414

fc3.weight f4 [10, 64]
0	0xbaf2c500	-0.0018521845
1	0xbde944b6	-0.11390059
2	0x3dbdb60a	0.09263237
3	0xbde434ae	-0.1114286
4	0xbc926780	-0.017871618
5	0x392c2000	0.00016415119
6	0xbddfe6b6	-0.109326765
7	0x3d972b66	0.073813245
8	0xbd406398	-0.04696998
9	0xbdcc0728	-0.099623024
10	0xbdc32fb8	-0.09530586
11	0x3df7b176	0.12094395
12	0x3d6d56b8	0.05794403
13	0xbdb470ac	-0.08810553
14	0xbde03faa	-0.10949643
15	0x3deb0564	0.114756376
16	0x3cbe8d60	0.023260772
17	0xbd1f65d4	-0.03891547
18	0xbc7d2650	-0.015451029
19	0x3de31042	0.11087085
20	0x3cabe980	0.020985365
21	0x3d605c9c	0.05477582
22	0xbdeabb9e	-0.114615664
23	0xbdb23cbe	-0.08702992
24	0xbb9741c0	-0.0046159923
25	0xbd9fd95c	-0.0780513
26	0xbd9b3128	-0.07577735
27	0xbdc0dde8	-0.09417325
28	0x3de1026e	0.109867916
29	0x3d9a4cf4	0.07534209
30	0x3d604818	0.054756254
31	0x3d2bb52c	0.041920826
32	0x3dfd7246	0.123753116
33	0xbd4530c8	-0.048142225
34	0x3df7ab3a	0.12093206
35	0xbdfa6bda	-0.12227602
36	0x3d719548	0.058980256
37	0x3d8c3bc0	0.06847334
38	0xbd1f6fd0	-0.038924992
39	0x3d8eb1de	0.06967519
40	0x3dea3972	0.11436738
41	0x3c96a610	0.018389732
42	0xbd55c40c	-0.052188918
43	0xbd00b58c	-0.031423137
44	0x3dc673ca	0.09690054
45	0x3da8632c	0.082220405
46	0x3d5f1214	0.0544606
47	0xbbeaaae0	-0.007161483
48	0xbcbc7880	-0.023006678
49	0xbd837190	-0.06418145
50	0xbd9eff3e	-0.07763527
51	0x3d3d8afc	0.046275124
52	0x3da5ed32	0.08101882
53	0xbd0129b8	-0.031533927
54	0x3ce19748	0.027537957
55	0x3c933f80	0.017974615
56	0x3d4c9e58	0.049955696
57	0x3c789df0	0.015174374
58	0xbcc2a050	-0.023758084
59	0xbc2be4c0	-0.01049155
60	0x3d6bd48c	0.057575747
61	0x3d8e819c	0.06958315
62	0xbc599a60	-0.013281435
63	0x3cb8dec8	0.022567168
64	0xbd6f1154	-0.058366135
65	0xbd402344	-0.046908632
66	0x3dc4ec86	0.09615426
67	0xbc37eb80	-0.011225581
68	0xbc7effe0	-0.015563935
69	0x3d649e58	0.05581507
70	0x3d012f68	0.03153935
71	0xbca2ef18	-0.0198894
72	0xbdbd0dcc	-0.09231147
73	0x3d0bc198	0.034120172
74	0x3cdaab78	0.02669309
75	0xbdd56cde	-0.104211554
76	0xbdd6acf4	-0.10482207
77	0xbdd37dfe	-0.103267655
78	0xbdf41ede	-0.1191995
79	0xbdbd929a	-0.09256478
80	0x3b8ffde0	0.004394278
81	0x3cdcf918	0.026974246
82	0xbd8b26ee	-0.067945346
83	0x3de56b8e	0.11202155
84	0xbb82e420	-0.00399448
85	0xbd6bbb84	-0.057551876
86	0xbd803c26	-0.062614724
87	0x3d63a974	0.055581525
88	0x3db8856c	0.09009823
89	0xbddfb35c	-0.10922882
90	0x3cd7eb18	0.026357219
91	0x3df12aa8	0.11775714
92	0x3aab0600	0.0013048053
93	0x3d181e60	0.037138343
94	0x3d5bdafc	0.053675637
95	0x3d1d1438	0.03834936
96	0xbc4ac5b0	-0.012376234
97	0x3dbfedb0	0.09371507
98	0x3c141570	0.009038314
99	0xbdd4bc46	-0.10387473
100	0xbdd2b572	-0.10288514
101	0xbd700fa4	-0.058608666
102	0xbd5a6f9c	-0.053329095
103	0xbdf30b6c	-0.11867413
104	0x3de4c7e0	0.11170936
105	0x3dc3fd98	0.095698535
106	0x3c5b5ad0	0.013388351
107	0x3dee9926	0.116503045
108	0x3cd8b950	0.026455551
109	0x3b2be780	0.0026230514
110	0x3d321ab8	0.043482512
111	0x3de9b938	0.11412281
112	0xbdc7dad4	-0.09758535
113	0x3d699648	0.057028085
114	0x3d894494	0.06702533
115	0x3de238a0	0.110459566
116	0x3d32abdc	0.04362093
117	0xbb83aec0	-0.0040186346
118	0xbd1dbb88	-0.03850892
119	0x3d5c5cd0	0.05379945
120	0x3bef9ee0	0.0073126405
121	0xbd9939b2	-0.07481708
122	0xbddf883e	-0.10914658
123	0xbdc7138a	-0.09720524
124	0x3dfd00a0	0.12353635
125	0xbdd81c90	-0.10552323
126	0x3dc9eec6	0.098599955
127	0x3d4c3ca8	0.049862534
128	0xbde09dc0	-0.109675884
129	0x3d88ad00	0.06673622
130	0x3c3601c0	0.011108816
131	0x3df93994	0.12169185
132	0x3d88abe0	0.066734076
133	0x3d26ef18	0.04075536
134	0xbca64ff0	-0.020301789
135	0xbc9d84e8	-0.019228414
136	0x3dca5582	0.098795906
137	0xbd7026d4	-0.05863078
138	0x3ca69ee8	0.020339444
139	0xbd2b0b94	-0.04175909
140	0xbc972550	-0.01845041
141	0x3d45b010	0.04826361
142	0x3dc878e8	0.09788686
143	0x3dfb8720	0.122816324
144	0xbcd619e0	-0.026135385
145	0x3d4b5664	0.049642935
146	0x3d189cb0	0.037258804
147	0x3c76f370	0.015072688
148	0x3c07c1a0	0.00828591
149	0x3d33b430	0.043873012
150	0xbde3ade2	-0.1111715
151	0xbb806be0	-0.0039191097
152	0xbdcaa998	-0.09895629
153	0xbdc0f36c	-0.09421429
154	0x3c1c42c0	0.009537399
155	0xbdfefbf4	-0.124504
156	0xbdcd2466	-0.10016708
157	0x3c7e5ef0	0.015525565
158	0x3d5dfd58	0.054196686
159	0x3df11e36	0.117733404
160	0x3daf8fba	0.085723355
161	0xbdef0672	-0.11671151
162	0xbda52732	-0.080641165
163	0x3d108d34	0.03529091
164	0x3d5c339c	0.053760156
165	0x3d9363c2	0.07196762
166	0xbc331d10	-0.010932222
167	0x3dc8f4ca	0.09812315
168	0xbdacc14c	-0.08435306
169	0xbd94885c	-0.07252571
170	0xbcdb8238	-0.026795492
171	0xbdd9a9b6	-0.10628073
172	0x3d36004c	0.044433877
173	0x3d2c3fac	0.04205291
174	0x3d98f5d8	0.07468766
175	0x3d9d10b6	0.07669203
176	0xbcfd4960	-0.030918777
177	0x3d15abe8	0.036540896
178	0xbd80e4b0	-0.06293619
179	0xbdcc2dc2	-0.09969665
180	0xbd69a944	-0.05704619
181	0xbd851b44	-0.06499341
182	0xbc4823f0	-0.012215599
183	0xbd88f58e	-0.06687461
184	0x3c7d2e50	0.015452936
185	0xba863e80	-0.0010242015
186	0x3d8f844a	0.07007654
187	0xbd016ad0	-0.031596005
188	0x3ddca930	0.107744575
189	0x3b520940	0.003204897
190	0xbd820e00	-0.063503265
191	0xbc68cc60	-0.014208883
192	0x3da2e748	0.0795427
193	0xbdf3340a	-0.1187516
194	0xbdc9eadc	-0.09859249
195	0xbd411bc0	-0.047145605
196	0x3dc15112	0.09439291
197	0xbd7615c4	-0.06007935
198	0x3d7c1ed0	0.061552823
199	0xbdf82330	-0.121160865
200	0xbde2b5bc	-0.11069819
201	0xbd0460e0	-0.03231895
202	0xbd6d3a64	-0.057917014
203	0x3db9808a	0.0905772
204	0x3bf734a0	0.007544115
205	0x3d836880	0.06416416
206	0xbd07f7b8	-0.033195227
207	0xbdb20ce4	-0.08693865
208	0xbc8b41c0	-0.016999125
209	0xbc4e2c60	-0.012583822
210	0x3dcf152a	0.101114586
211	0xbdb33dce	-0.08752023
212	0x3c6abaf0	0.014326796
213	0xbd9b259e	-0.07575534
214	0x3c8f4a40	0.01749146
215	0xbd5409a4	-0.051767007
216	0xbc0ef460	-0.008725256
217	0xba006b00	-0.0004898757
218	0x3dc0f09a	0.09420891
219	0xbd843370	-0.064551234
220	0x3c4629f0	0.01209496
221	0x3de49896	0.11161916
222	0x3d7fe558	0.06247458
223	0x3db015d4	0.085979134
224	0x3d6ea78c	0.058265254
225	0xbcf44068	-0.029815868
226	0x3d8205a2	0.063487306
227	0x3d14dd78	0.03634402
228	0x3d1f73cc	0.038928792
229	0xbceb73a8	-0.028741673
230	0xbdbc9b82	-0.09209348
231	0xbd762eb8	-0.06010315
232	0xbc622140	-0.013801873
233	0x3d6d924c	0.058000848
234	0xbd216980	-0.039407253
235	0x3db43908	0.0879994
236	0xbdf0f750	-0.11765921
237	0x3ddc84f2	0.10767545
238	0xbcc1ec88	-0.023672357
239	0xbdb0db9c	-0.08635637
240	0xbda6eaca	-0.08150251
241	0xbd9438bc	-0.07237384
242	0x3d5d407c	0.054016575
243	0xbddf9b1c	-0.10918257
244	0x3d46f6c4	0.048575178
245	0xbccefff0	-0.025268525
246	0x3dc05538	0.09391254
247	0x3dcc31aa	0.0997041
248	0xbc894880	-0.016758204
249	0xbd353b0c	-0.044245765
250	0xba615800	-0.0008596182
251	0xbda78190	-0.08179009
252	0xbd6d6114	-0.05795391
253	0x3cab04c0	0.020876288
254	0xbd527f78	-0.051391095
255	0x3b50ec00	0.0031878948

fc3.bias f4 [10]
0	0x3debb354	0.115088135
1	0xbd596e18	-0.05308351
2	0x3dd054fe	0.10172461
3	0xb91fe400	-0.00015248358
4	0x3d25ae9c	0.040449724
5	0x3de1f564	0.11033133
6	0xbd2a401c	-0.041565046
7	0xbddab8f4	-0.10679808
8	0xbb989bc0	-0.0046572387
9	0x3d2679e4	0.040643588
