Deep_Learning/SignalSeekerAI/models/dqn_agent_episode_2.pth (torch, 568827 bytes, 16 tensors)

network.0.weight f4 [256, 100]
0.014797196 0.041831724 0.00014594942 0.03356687 -0.05136874 -0.074190855 0.02276995 0.0947798
0.072179385 0.0621591 -0.07944094 0.03872364 -0.037385046 0.09783735 0.03386309 -0.07719292
-0.029273234 0.07948411 -0.052883532 0.08865262 0.055867277 -0.00467477 -0.0036175624 0.06420613
-0.024900056 -0.0017209277 0.09593389 -0.017887272 -0.010856308 -0.042607453 -0.046839703 -0.024829626
-0.049358428 -0.04669887 -0.08182587 -0.034768857 0.040464096 -0.020170175 0.047336586 0.0400315
-0.0042061657 0.009258032 0.03223952 -0.0004917234 0.0067197904 0.07060451 -0.031198047 0.082858555
0.08333296 -0.03639712 -0.087311886 0.03984929 0.09732712 -0.031295992 -0.071289286 -0.08046351
0.033135615 0.031088404 -0.05582899 0.04944501 0.0585173 0.011192381 0.09821267 0.03351613
-0.064674765 0.070341565 0.08898591 0.05027666 -0.094570935 -0.09862792 0.09593662 0.060746975
-0.00811629 -0.016612008 0.07409745 0.0900426 -0.08404261 -0.0050628036 -0.039744902 0.025261514
0.086858355 0.011530563 0.005625643 -0.017492495 0.053038724 0.08803495 0.09232969 -0.09558826
-0.03377913 0.09618109 0.059612192 -0.049252905 -0.04142567 0.027297504 0.035998784 0.08457195
-0.008369826 -0.05375394 0.04958812 -0.02869042 -0.017946884 0.058997817 0.03682024 -0.057085145
-0.039380994 -0.007447757 -0.0002008304 -0.07685916 0.021166757 0.043414064 0.05956415 -0.09417772
0.010194361 -0.031537995 -0.07356546 0.07105041 0.05290375 -0.081436634 -0.08457383 -0.055608284
-0.0115719065 -0.013180658 -0.08793893 0.08723258 0.0806951 -0.057204355 -0.009569325 0.040277623
0.05041582 -0.0018121153 -0.008999623 -0.089405574 -0.029013194 -0.020400658 -0.017412089 0.09677508
-0.07203458 -0.062099185 0.048448585 0.07396174 0.07801253 0.06964374 0.009675421 0.09836554
0.055347912 0.054137655 -0.03167303 -0.09607287 -0.0855334 -0.06015308 0.07814867 0.03275048
-0.095686905 -0.014070794 0.0923102 0.047753118 -0.019698858 -0.026532426 0.089669995 -0.0013369471
-0.087252155 -0.024427637 0.03115236 0.017824635 0.05831433 0.05293735 -0.08408252 -0.019873299
-0.09538724 -0.05857371 0.09852692 0.06055779 -0.065687954 -0.078346565 -0.093428135 -0.05546069
-0.0660484 -0.09519042 0.08913856 -0.08921317 -0.0752518 0.03300152 0.082750626 -0.09785626
0.04331883 0.018482946 -0.041430738 -0.08687979 0.055887304 0.03953842 0.016559064 0.08189427
0.07111461 -0.049598016 0.06613637 -0.08901308 0.09953383 0.012330309 -0.0844092 0.006030537
-0.09003853 -0.032151796 -0.09085261 -0.061757863 0.02550628 0.0038730726 0.093979545 -0.017475508
-0.051193085 0.04078812 0.093849726 -0.066522345 0.041556157 -0.019227967 -0.08986252 0.06428944
0.049655102 -0.013882175 0.070620365 -0.08139924 -0.019715324 -0.018617913 -0.018369593 -0.07085683
0.06308437 -0.054428555 -0.001339756 -0.04050356 0.024472833 -0.0026665777 0.05464036 0.07440678
-0.04255387 0.045939274 0.092138045 0.056951262 -0.049301125 0.0675006 0.041226633 -0.070700824
-0.07575401 -0.06473547 -0.06043147 0.091111444 0.035566606 0.06774259 -0.026258089 0.017076395
0.021286525 0.060626812 0.07631763 0.07368573 0.055373527 -0.017372862 -0.05479604 -0.048338998
00000000: f06f 723c be57 2b3d 000a 1939 6a7d 093d
00000010: 0768 52bd 60f1 97bd 0c88 ba3c e91b c23d
00000020: c9d2 933d 8a9a 7e3d eeb1 a2bd ae9c 1e3d
00000030: 1021 19bd f35e c83d 06b4 0a3d 5217 9ebd
00000040: 6cce efbc 91c8 a23d 679c 58bd 818f b53d
00000050: 16d5 643d d02e 99bb a014 6dbb 817e 833d
00000060: 34fb cbbc c090 e1ba fd78 c43d 5488 92bc
00000070: a8de 31bc 2785 2ebd fdda 3fbd 8067 cbbc
00000080: 102c 4abd 5047 3fbd 5294 a7bd ca69 0ebd
00000090: aebd 253d ec3b a5bc 02e4 413d 12f8 233d
000000a0: e0d3 89bb 00af 173c 960d 043d 00e7 00ba
000000b0: b031 dc3b 1999 903d 0c93 ffbc bfb1 a93d
000000c0: 79aa aa3d 2615 15bd 93d0 b2bd 0239 233d
000000d0: 7153 c73d 3a30 00bd 1e00 92bd 0dca a4bd
000000e0: 36b9 073d 1cad fe3c f0ac 64bd da86 4a3d
000000f0: d6af 6f3d 4060 373c b923 c93d 3648 093d
00000100: 3474 84bd 3d0f 903d 3f3e b63d e6ee 4d3d
00000110: 68ae c1bd 6ffd c9bd 6b7a c43d d2d1 783d
00000120: 30fa 04bc e815 88bc 67c0 973d 4168 b83d
00000130: 881e acbd e0e5 a5bb 8dcb 22bd 3cf1 ce3c
00000140: cbe2 b13d b0ea 3c3c 5057 b83b 6c4c 8fbc
00000150: 223f 593d ab4b b43d 5917 bd3d c7c3 c3bd
00000160: fc5b 0abd 97fa c43d ea2b 743d 6abd 49bd
00000170: f7ad 29bd 049f df3c 7673 133d 0f34 ad3d
00000180: 9821 09bc 172d 5cbd ea1c 4b3d 2c08 ebbc
00000190: 5805 93bc b2a7 713d d2d0 163d 1dd2 69bd
000001a0: f74d 21bd 500c f4bb 0096 52b9 5668 9dbd
000001b0: e865 ad3c f2d2 313d 8af9 733d 40e0 c0bd
000001c0: 4006 273c fc2d 01bd 7da9 96bd e182 913d
000001d0: 9ab1 583d 40c8 a6bd 0b35 adbd 83c5 63bd
000001e0: 1898 3dbc b0f3 57bc 5319 b4bd ffa6 b23d
000001f0: 7943 a53d 1d4f 6abd a8c8 1cbc 26fa 243d
00000200: d280 4e3d 8084 edba 2873 13bc 451a b7bd
00000210: 14ad edbc 481f a7bc cca3 8ebc 0332 c63d
00000220: de86 93bd b75b 7ebd 0672 463d 4179 973d
00000230: 09c5 9f3d 61a1 8e3d a885 1e3c df73 c93d
00000240: 7eb4 623d 72bf 5d3d 94bb 01bd dac1 c4bd
00000250: 232c afbd 1363 76bd 690c a03d 5e25 063d
00000260: 7ff7 c3bd 3089 66bc 210d bd3d c698 433d
00000270: 805f a1bc 885a d9bc e7a4 b73d 803c afba
00000280: 42b1 b2bd 781c c8bc 3c33 ff3c f804 923c
00000290: 02db 6e3d d6d4 583d 7533 acbd 54cd a2bc
000002a0: 635a c3bd fdea 6fbd 7bc8 c93d 720b 783d
000002b0: 6887 86bd 2a74 a0bd 4057 bfbd c02a 63bd
000002c0: 6244 87bd 32f3 c2bd 478e b63d 65b5 b6bd
000002d0: 9e1d 9abd 9a2c 073d 2979 a93d dd68 c8bd
000002e0: 166f 313d 8c69 973c 47b3 29bd 08ee b1bd
000002f0: 16ea 643d 0af3 213d e0a6 873c 2fb8 a73d
00000300: 89a4 913d 4a27 4bbd 8172 873d 7d4c b6bd
00000310: 65d8 cb3d 1005 4a3c bbde acbd d09b c53b
00000320: 1f66 b8bd 9ab1 03bd ef10 babd d0f5 7cbd
00000330: 8cf2 d03c 60d3 7d3b 5978 c03d cc28 8fbc
00000340: d7af 51bd 7211 273d 4934 c03d de3c 88bd
00000350: ca36 2a3d f883 9dbc d709 b8bd 2faa 833d
00000360: 2663 4b3d 1072 63bc 69a1 903d a5b4 a6bd
00000370: 0882 a1bc 9884 98bc d47b 96bc 631d 91bd
00000380: 6132 813d 7af0 5ebd c09a afba 10e7 25bd
00000390: 407b c83c c0c1 2ebb 92ce 5f3d 9562 983d
000003a0: f74c 2ebd d22a 3c3d dfb2 bc3d ba45 693d
000003b0: faef 49bd c13d 8a3d 42dd 283d 98cb 90bd
000003c0: eb24 9bbd 0894 84bd fd86 77bd a398 ba3d
000003d0: 4aae 113d a1bc 8a3d 341b d7bc cce3 8b3c
000003e0: 1461 ae3c d253 783d 6b4c 9c3d 8be8 963d
000003f0: 5acf 623d 8851 8ebc d071 60bd 1dff 45bd

network.0.bias f4 [256]
0.030847304 -0.013925374 -0.017616391 -0.035195448 -0.012250766 -0.07563144 -0.09616768 -0.0694509
0.019839957 0.042269953 0.018729553 -0.030959107 0.06173349 -0.09632521 0.09389468 -0.008396372
0.08522556 0.059152983 0.09774382 0.060836576 -0.017020777 -0.0976836 0.0709667 -0.025055505
0.017494358 0.03096617 0.04943367 0.0571642 -0.0076715723 0.0699284 -0.060532045 0.041299127
0.039476223 -0.054244187 0.04457646 -0.047751356 0.03579641 0.07619109 0.026259832 -0.024086311
0.07981891 0.085707374 -0.046883572 0.014567971 -0.041664626 0.039462574 0.034264095 -0.06776093
0.022396028 0.08405355 0.06215688 -0.023336753 0.0053512603 0.0038365573 -0.07254906 0.07483364
0.090604626 0.08750089 -0.0708372 0.06739057 -0.055836666 -0.054753866 -0.055107713 -0.002121091
-0.016547397 -0.06712809 0.069007464 0.07126892 0.054817878 0.061676092 0.055569507 0.025607519
0.005912684 -0.042575326 0.031792082 0.058573432 0.07776325 0.056095906 0.035978265 0.094076045
0.019308627 -0.077277556 -0.052383173 0.0026815087 -0.045429792 0.058477603 -0.07831732 -0.094241455
-0.08190274 -0.07054125 0.020505786 0.08091054 0.019369423 -0.090125345 -0.035229877 -0.09828764
-0.022011504 -0.059741724 0.0675404 0.09773024 -0.0063344017 0.09296002 -0.0967832 -0.031652674
-0.019621387 0.007648185 0.032841094 -0.014700316 -0.07946833 -0.0070749745 0.06453969 0.019819781
-0.077054955 0.03313894 -0.044152867 -0.08341439 0.081332944 -0.08798273 -0.07181271 0.05308295
0.06328774 -0.087251745 -0.04385343 -0.025100514 0.0124178305 0.09696389 -0.08732735 0.054171033
0.098781966 0.006842479 -0.027073815 -0.04817729 -0.039030064 0.052714117 -0.05056894 0.027954884
-0.0042683706 0.09833237 -0.06395141 0.024609007 -0.021309353 0.081378944 -0.0010371432 -0.056910433
0.075092755 -0.023555025 -0.084336445 -0.023771822 -0.061425865 0.059728123 -0.0047961473 0.004716739
-0.07588951 0.010103285 -0.011743389 -0.031944394 -0.03885628 -0.03365711 -0.02086161 0.031526573
0.057871766 0.021408774 -0.06294039 -0.08051125 0.09280784 0.07651203 0.04851801 0.02479013
-0.086255066 -0.0019508377 -0.067846954 -0.035095885 -0.035213605 0.058399685 0.014323749 -0.08027464
0.08139504 -0.08802332 0.07183882 -0.09170945 -0.0042852387 -0.08094736 -0.05883162 -0.01033096
-0.07015298 0.067957915 -0.06626265 0.06042818 -0.06522073 -0.010484971 -0.019192517 0.009497941
-0.0457742 0.06457292 0.006839134 0.0027833134 -0.06391661 0.08992442 0.07301182 0.052987613
-0.09855919 0.012176171 -0.014262244 -0.09649511 -0.06966984 -0.067759074 -0.079372026 -0.055137027
-0.057641007 0.037613712 0.031910785 -0.044224646 -0.07812921 -0.0343619 -0.032799505 -0.095873885
0.028517433 -0.08640727 0.04425197 -0.013898216 -0.08088863 -0.04640157 -0.00038252026 -0.049016394
-0.09219735 0.044681437 0.05890181 -0.03993609 0.04516106 0.044085912 -0.062609114 -0.08023393
-0.093439355 -0.038707137 0.014314011 -0.09981363 -0.04545288 0.03829903 0.08637596 0.037569113
-0.029022373 0.027183287 -0.03944811 -0.029704131 -0.007862046 -0.023914203 0.05721534 0.026752613
0.015402123 -0.049875285 0.048807435 0.04738053 0.07497787 0.05175758 0.03434994 -0.09576203
00000000: 7cb3 fc3c 4027 64bc 4050 90bc 1a29 10bd
00000010: 70b7 48bc a8e4 9abd 90f3 c4bd 463c 8ebd
00000020: 6887 a23c 4223 2d3d b86e 993c f49d fdbc
00000030: 42dc 7c3d 2746 c5bd db4b c03d f090 09bc
00000040: bd8a ae3d 664a 723d e92d c83d c62f 793d
00000050: 286f 8bbc 570e c8bd fd56 913d 3441 cdbc
00000060: 5450 8f3c c4ac fd3c f67a 4a3d 0225 6a3d
00000070: d061 fbbb 9f36 8f3d 73f0 77bd 4629 293d
00000080: d2b1 213d 272f 5ebd ce95 363d ed96 43bd
00000090: 429f 123d 130a 9c3d dc1e d73c a850 c5bc
000000a0: 1978 a33d 5987 af3d fd08 40bd 80ae 6e3c
000000b0: 87a8 2abd 82a3 213d 8258 0c3d 3ec6 8abd
000000c0: e077 b73c 4524 ac3d 3698 7e3d b82c bfbc
000000d0: a059 af3b c06e 7b3b 9a94 94bd 6142 993d
000000e0: eb8e b93d ab33 b33d 1813 91bd 1104 8a3d
000000f0: fdb4 64bd 9745 60bd a0b8 61bd 0002 0bbb
00000100: 688e 87bc 747a 89bd c953 8d3d 71f5 913d
00000110: b688 603d 12a0 7c3d da9c 633d dcc6 d13c
00000120: 30bf c13b 7763 2ebd 6a38 023d b2ea 6f3d
00000130: 5742 9f3d d2c4 653d f25d 133d f1aa c03d
00000140: 202d 9e3c b243 9ebd bd8f 56bd 40bc 2f3b
00000150: 9714 3abd 3686 6f3d d564 a0bd aa01 c1bd
00000160: a0bc a7bd ee77 90bd c0fb a73c 6db4 a53d
00000170: a0ac 9e3c a393 b8bd 344d 10bd 084b c9bd
00000180: 7851 b4bc bdb3 74bd 9f52 8a3d cb26 c83d
00000190: d090 cfbb d361 be3d 4536 c6bd 3ca6 01bd
000001a0: 08bd a0bc a09d fa3b 6284 063d 98d9 70bc
000001b0: 4bc0 a2bd 30d5 e7bb 632d 843d 185d a23c
000001c0: fdce 9dbd b2bc 073d a3d9 34bd 2ad5 aabd
000001d0: e391 a63d 4a30 b4bd 8b12 93bd 826d 593d
000001e0: 019d 813d 0bb1 b2bd a79f 33bd 989f cdbc
000001f0: 2874 4b3c 0195 c63d afd8 b2bd 72e2 5d3d
00000200: 334e ca3d e036 e03b e8c9 ddbc 8d55 45bd
00000210: fddd 1fbd c2ea 573d 6021 4fbd a401 e53c
00000220: b0dd 8bbb 7b62 c93d f5f8 82bd d498 c93c
00000230: f490 aebc 01aa a63d c0f0 87ba ea1a 69bd
00000240: 3bca 993d 78f6 c0bc 96b8 acbd 20bd c2bc
00000250: b099 7bbd 7aa5 743d 0029 9dbb e08e 9a3b
00000260: f66b 9bbd 4088 253c 5867 40bc 20d8 02bd
00000270: c327 1fbd 0adc 09bd f8e5 aabc 0222 013d
00000280: f20a 6d3d 7461 af3c e4e6 80bd 15e3 a4bd
00000290: 0912 be3d 57b2 9c3d d2ba 463d ac14 cb3c
000002a0: 7fa6 b0bd 40b3 ffba 58f3 8abd b4c0 0fbd
000002b0: 243c 10bd 8234 6f3d 28ae 6a3c 0867 a4bd
000002c0: 71b2 a63d 9245 b4bd 3b20 933d 2ad2 bbbd
000002d0: 306b 8cbb bbc7 a5bd 6df9 70bd 3043 29bc
000002e0: 5eac 8fbd 852d 8b3d b6b4 87bd 8a83 773d
000002f0: 7292 85bd 28c9 2bbc a039 9dbc 409d 1b3c
00000300: ba7d 3bbd cf3e 843d d01a e03b 4068 363b
00000310: b6e6 82bd 4b2a b83d 3987 953d 8a09 593d
00000320: 67d9 c9bd 907e 473c 30ac 69bc 3a9f c5bd
00000330: 10af 8ebd 45c5 8abd cd8d a2bd 5dd7 61bd
00000340: fa18 6cbd d610 1a3d e2b4 023d e724 35bd
00000350: 3502 a0bd 10bf 0cbd c658 06bd 8759 c4bd
00000360: 649d e93c 4bf6 b0bd 8e41 353d 58b5 63bc
00000370: f0a8 a5bd 930f 3ebd 008d c8b9 6ac5 48bd
00000380: f7d1 bcbd e203 373d 0643 713d 0794 23bd
00000390: cefa 383d 6e93 343d 3539 80bd b051 a4bd
000003a0: 225d bfbd 608b 1ebd 5085 6a3c 176b ccbd
000003b0: cd2c 3abd 72df 1c3d e1e5 b03d 12e2 193d
000003c0: 54c0 edbc 7caf de3c 5794 21bd 1456 f3bc
000003d0: d0cf 00bc b8e7 c3bc a25a 6a3d 4c28 db3c
000003e0: 3059 7c3c 074a 4cbd 4eea 473d 1612 423d
000003f0: ff8d 993d c2ff 533d 86b2 0c3d e21e c4bd

network.3.weight f4 [128, 256]
0.0022390783 -0.02344869 -0.007263936 0.05047787 -0.02594933 -0.062447846 -0.0195679 0.005941674
0.033620514 -0.048594475 0.0019402057 0.061576344 -0.046510443 -0.04136815 0.02354686 0.061518677
0.056276992 -0.051278338 -0.05475147 0.03124392 -0.01684554 0.026001684 0.055267155 -0.00039067864
-0.0049954057 -0.015805438 -0.0495696 -0.047010846 0.04516784 0.011253588 -0.03781072 0.05439628
-0.035495877 0.026644275 0.043967895 0.05792374 0.008379079 0.017918937 0.041983902 0.05630058
0.009801574 0.04166732 0.048709586 0.049308345 -0.0124685615 0.017896488 7.070601e-05 -0.04757084
-0.014221385 -0.061806917 -0.05447109 0.030769221 -0.029055104 0.053886585 0.0005371496 0.019976199
0.046588644 0.052642673 0.0068250597 0.036360048 -0.05053941 0.031911068 -0.018576272 -0.030825779
0.0149302855 0.027617216 0.031778492 0.02595742 -0.04046823 -0.03915348 0.062171087 0.049250968
0.014988892 -0.054042645 -0.003424868 0.059314303 -0.02274827 -0.03561706 -0.015878074 -0.0019263402
0.027798608 0.011629604 0.03151092 -0.056708038 -0.0134544745 0.024592802 0.0200926 -0.043589346
0.051574133 0.033540934 -0.017011657 0.0072089806 -0.018907972 -0.029901206 -0.054992408 0.011125542
-0.0040259436 -0.04097513 -0.045570448 0.006911382 0.044515997 0.0147744045 -0.027629197 0.0043926537
0.051879644 0.0024968684 -0.033084415 -0.056057647 -0.04186728 -0.035343394 0.05224266 0.037952043
-0.0098884255 -0.027544245 -0.029347263 0.020954378 0.010307059 -0.024143353 0.0043627024 -0.059437826
0.06042085 0.05267363 0.008904405 0.021245971 0.020919435 0.030612208 -0.042634018 0.014800675
0.019871227 -0.040529244 -0.035706237 -0.056517765 0.046279125 0.004486367 -0.01487992 -0.05466251
-0.0336904 0.008531272 -0.008541182 -0.05650042 0.016203076 0.061996393 -0.044283517 0.057790115
-0.03791613 -0.0089742765 0.028725535 0.05027862 -0.047992542 0.04716301 -0.006057732 -0.062051892
0.004338965 -0.05362627 0.02179432 0.060281187 -0.0004567504 -0.010124646 0.027328715 0.06063556
-0.03478659 0.057769835 -0.009004168 -0.009383 0.018878266 -0.035689242 0.060373776 0.04761666
0.0021824166 -0.052600764 -0.015045784 0.0019260123 -0.035998628 -0.033967912 -0.041696034 -0.0039176345
-0.017332368 -0.059021488 -0.024497487 0.024023153 -0.031961516 -0.0050239936 0.033348024 0.017443083
-0.046009906 0.039577574 -0.043560646 0.061848655 -0.008288726 0.055381306 -0.049763598 0.054128528
-0.054466747 -0.055881515 0.017247707 0.009765066 -0.033916928 -0.023098327 -0.0059133396 -0.045417443
-0.0028456151 0.024349764 -0.04815995 -0.007271871 -0.020013794 0.023939446 -0.05296281 -0.020697452
0.01892598 -0.004352048 0.04686118 0.023725346 0.007588759 -0.018757194 -0.048035286 0.042478517
0.045334913 0.04333537 0.019422114 0.050751306 0.041107863 -0.045532666 -0.039300345 0.009352922
0.03391906 -0.029259577 0.0060995147 0.004589066 0.02533675 -0.047196604 -0.032040834 0.061264507
0.027749725 0.012272984 0.01753226 0.056876056 -0.044839755 -0.056291625 -0.0019194484 -0.007734388
-0.004896447 -0.01843866 0.03684394 -0.025934972 0.04134292 0.046306953 -0.02702561 -0.05128876
0.038059093 0.0006556809 -0.018948242 0.0003791824 0.026827395 -0.0513098 -0.0277507 -0.008554377
00000000: 80bd 123b 7817 c0bc 5006 eebb e2c1 4e3d
00000010: b093 d4bc 50c9 7fbd dc4c a0bc 60b2 c23b
00000020: aab5 093d 000b 47bd 804e fe3a 7a37 7c3d
00000030: bc81 3ebd a671 29bd 58e5 c03c 02fb 7b3d
00000040: b482 663d 3c09 52bd 1443 60bd 40f3 ff3c
00000050: a8ff 89bc 7c01 d53c d05f 623d 00d4 ccb9
00000060: 80b0 a3bb 687a 81bc 7e09 4bbd 728e 40bd
00000070: ea01 393d f860 383c 6adf 1abd a2ce 5e3d
00000080: 2064 11bd 1845 da3c ae17 343d 7241 6d3d
00000090: 6848 093c bcca 923c 50f7 2b3d 709b 663d
000000a0: c896 203c 5aab 2a3d b483 473d 8cf7 493d
000000b0: f048 4cbc a89b 923c 0048 9438 a4d9 42bd
000000c0: d000 69bc 4029 7dbd 141d 5fbd bc0f fc3c
000000d0: f804 eebc 2eb8 5c3d 80cf 0c3a 20a5 a33c
000000e0: bcd3 3e3d d89f 573d c0a4 df3b 46ee 143d
000000f0: 6a02 4fbd 2eb5 023d 442d 98bc 5886 fcbc
00000100: 289e 743c 803d e23c 2a2a 023d a8a4 d43c
00000110: 04c2 25bd 665f 20bd 1ca7 7e3d 62bb 493d
00000120: f893 753c d25b 5dbd c073 60bb 8ef3 723d
00000130: 945a babc 32e3 11bd bc12 82bc 407d fcba
00000140: e8b9 e33c 188a 3e3c 9811 013d b046 68bd
00000150: 2870 5cbc d876 c93c 3c99 a43c be8a 32bd
00000160: 663f 533d 3862 093d 085c 8bbc 5039 ec3b
00000170: e4e4 9abc 60f3 f4bc b83f 61bd e847 363c
00000180: 10ec 83bb 8ad5 27bd 14a8 3abd e078 e23b
00000190: 6856 363d 5810 723c a056 e2bc 40f0 8f3b
000001a0: c07f 543d 80a2 233b 8683 07bd b49c 65bd
000001b0: 067d 2bbd 3cc4 10bd 66fc 553d 9a73 1b3d
000001c0: 1003 22bc 78a4 e1bc ac69 f0bc 84a8 ab3c
000001d0: f0de 283c 48c8 c5bc 00f5 8e3b 1475 73bd
000001e0: da7b 773d 4ec0 573d c8e3 113c 080c ae3c
000001f0: 3c5f ab3c 74c6 fa3c 02a1 2ebd 887e 723c
00000200: fcc8 a23c fe01 26bd b440 12bd 2c7f 67bd
00000210: 2e8f 3d3d 6002 933b e8ca 73bc cce5 5fbd
00000220: f2fe 09bd c0c6 0b3c 50f0 0bbc fc6c 67bd
00000230: 50bc 843c eeef 7d3d a262 35bd 54b5 6c3d
00000240: f24d 1bbd d808 13bc d051 eb3c f4f0 4d3d
00000250: d493 44bd 002e 413d f07f c6bb 202a 7ebd
00000260: e02d 8e3b 38a7 5bbd 008a b23c 68e9 763d
00000270: 0078 efb9 d8e1 25bc 78e0 df3c fe5c 783d
00000280: 627c 0ebd 10a0 6c3d 3886 13bc 28bb 19bc
00000290: 98a6 9a3c e22e 12bd 7e4a 773d b009 433d
000002a0: e006 0f3b e673 57bd 9882 76bc 4072 fc3a
000002b0: 4c73 13bd f021 0bbd 76c9 2abd 805f 80bb
000002c0: 9cfc 8dbc 84c0 71bd f4ae c8bc 34cc c43c
000002d0: 14ea 02bd 50a0 a4bb f097 083d cce4 8e3c
000002e0: e274 3cbd 181c 223d a66c 32bd 0455 7d3d
000002f0: 70cd 07bc 82d7 623d ead4 4bbd e0b5 5d3d
00000300: 8618 5fbd 04e4 64bd 104b 8d3c a8fd 1f3c
00000310: 7aec 0abd b438 bdbc b0c4 c1bb a407 3abd
00000320: 807d 3abb 2879 c73c 5e43 45bd e048 eebb
00000330: f8f3 a3bc a81c c43c 88ef 58bd b48d a9bc
00000340: a80a 9b3c a09b 8ebb 82f1 3f3d a85b c23c
00000350: 20ab f83b b0a8 99bc a6c0 44bd f4fd 2d3d
00000360: 1ab1 393d 6e80 313d 201b 9f3c 9ae0 4f3d
00000370: b860 283d 7680 3abd 66f9 20bd 003d 193c
00000380: b6ee 0a3d c8b1 efbc 70de c73b e05f 963b
00000390: 048f cf3c 3a51 41bd 403d 03bd 7ef0 7a3d
000003a0: 6453 e33c a014 493c d09f 8f3c def6 683d
000003b0: e4a9 37bd 0c92 66bd 0096 fbba c070 fdbb
000003c0: 6072 a0bb ac0c 97bc ace9 163d 9475 d4bc
000003d0: 3257 293d 5cac 3d3d d064 ddbc 2a14 52bd
000003e0: dae3 1b3d 00e2 2b3a 5839 9bbc 00cd c639
000003f0: 20c5 db3c 3a2a 52bd 7055 e3bc a827 0cbc

network.3.bias f4 [128]
-0.01977741 0.05022999 0.053949922 -0.03884252 0.012276009 0.04944904 0.011711568 0.033441357
0.052906603 -0.016119927 -0.015536241 0.058349274 -0.0094104335 -0.022883594 -0.037341855 0.041835792
0.026601128 -0.05961076 0.06239386 0.040041797 0.026385397 0.007161066 -0.0031962097 -0.015957117
0.06157878 -0.056966037 -0.062178485 0.042720675 -0.033814378 0.009262711 0.04999589 0.028806686
0.013851911 -0.036706135 -0.034315772 -0.044017747 -0.031942934 -0.023485795 0.03135574 0.029421136
0.022958696 -0.0031184927 -0.01369936 -0.020513967 -0.045647807 0.006511599 -0.020830676 -0.055699
-0.002306074 -0.03521388 -0.057532504 0.038760632 0.033850834 0.0010801107 0.014817178 0.013569705
0.01162108 -0.007899806 -0.01630444 -0.010396689 -0.024847776 -0.058408685 0.058822542 -0.012401745
0.0047528446 0.043236032 -0.033957906 -0.019663021 -0.014552653 -0.015713722 0.0354136 -0.036011294
0.033646546 0.03651589 0.031146556 -0.024631858 0.0059625506 0.04985176 0.051396832 0.042912766
0.004497908 0.041780345 -0.05094807 0.044217654 -0.05340673 -0.0019078031 -0.036302738 0.022239901
0.0331126 -0.053146586 -0.02010426 0.05729036 -0.03684909 0.03129722 0.0047703534 -0.0033699647
-0.037379228 -0.046571247 -0.047231853 -0.05313632 0.052665867 0.031184599 -0.034716718 0.03875056
-0.058819897 -0.004238449 -0.00064718723 0.0044364557 0.026514925 -0.031386554 0.022722445 -0.059895203
-0.01472684 -0.0071055517 0.056625403 -0.0453372 -0.016944744 -0.049703404 -0.05849324 0.005084105
-0.030710869 0.015885487 -0.023828454 -0.03099686 -0.046064742 0.029159248 0.03534987 -0.01957842
00000000: 3c04 a2bc f6bd 4d3d 98fa 5c3d 5619 1fbd
00000010: 5021 493c 148b 4a3d e0e1 3f3c cef9 083d
00000020: 98b4 583d f00d 84bc b88b 7ebc a6ff 6e3d
00000030: 382e 1abc 6076 bbbc c6f3 18bd 025c 2b3d
00000040: 9cea d93c 6a2a 74bd b490 7f3d de02 243d
00000050: 3026 d83c 60a7 ea3b 8077 51bb 80b8 82bc
00000060: 083a 7c3d 3855 69bd deae 7ebd e0fb 2e3d
00000070: f280 0abd a0c2 173c 7ec8 4c3d 00fc eb3c
00000080: 20f3 623c 2c59 16bd b28e 0cbd f44b 34bd
00000090: 98d6 02bd 4865 c0bc e06e 003d 9804 f13c
000000a0: e013 bc3c a05f 4cbb 4873 60bc e80c a8bc
000000b0: 32f9 3abd 405f d53b 18a5 aabc a224 64bd
000000c0: 8021 17bb 6e3c 10bd 34a7 6bbd 78c3 1e3d
000000d0: 2ca7 0a3d 8092 8d3a c0c3 723c 7853 5e3c
000000e0: 5866 3e3c 306e 01bc e490 85bc e056 2abc
000000f0: 908d cbbc f23d 6fbd e8ef 703d b030 4bbc
00000100: c0bd 9b3b 4418 313d 7217 0bbd 5814 a1bc
00000110: 406e 6ebc 10ba 80bc da0d 113d 9480 13bd
00000120: f6d0 093d b091 153d 1027 ff3c c0c8 c9bc
00000130: 8061 c33b 5c31 4c3d 7c85 523d 4cc5 2f3d
00000140: 3063 933b de21 2b3d ecae 50bd 921d 353d
00000150: 04c1 5abd 400f faba 2eb2 14bd 7430 b63c
00000160: 14a1 073d 3cb0 59bd b0b1 a4bc 4ca9 6a3d
00000170: 12ef 16bd 8431 003d a050 9c3b a0da 5cbb
00000180: f61a 19bd 7ec1 3ebd 3076 41bd 78a5 59bd
00000190: 2ab8 573d d876 ff3c 1e33 0ebd e8b8 1e3d
000001a0: 22ed 70bd b0e2 8abb 00a8 29ba b05f 913b
000001b0: d435 d93c 308f 00bd 6c24 ba3c ac54 75bd
000001c0: d848 71bc b0d5 e8bb 0af0 673d 80b3 39bd
000001d0: b4cf 8abc cc95 4bbd 9c96 6fbd 9098 a63b
000001e0: 5c95 fbbc 4822 823c e433 c3bc 20ed fdbc
000001f0: 62ae 3cbd 60df ee3c 06cb 103d ec62 a0bc

network.6.weight f4 [64, 128]
-0.004020281 0.014360823 -0.05044239 0.0053826496 -0.08421741 0.045356207 0.07256966 -0.0724619
0.039172925 0.019860663 0.06869968 -0.047826894 0.024594806 0.028174631 0.05935479 -0.013596207
0.08012595 -0.08288 0.042849533 0.013274759 -0.060272742 0.07072278 -0.06734119 0.017844573
0.004314162 -0.082289495 0.03135264 0.08064432 -0.037668165 -0.033932332 0.06363795 -0.054699823
0.05561336 -0.080069296 -0.009622134 -0.049332157 0.04511965 0.08540974 0.046206377 0.002381824
-0.079243354 0.059275113 -0.07162018 0.065648414 0.0518563 -0.060715336 0.054374702 -0.08052492
-0.052151423 0.074965484 0.082057916 -0.07857586 -0.027520776 -0.05599881 -0.0047032014 -0.056362968
0.086119376 0.07927779 -0.05072817 -0.008197561 -0.03960062 -0.07956535 0.012237884 -0.049643096
0.070920475 0.06703562 0.06786931 -0.0069459304 0.013197228 0.07848758 0.068264134 0.017038181
0.07630979 0.042346947 -0.051375847 0.037462763 0.02588743 0.06932516 -0.035868675 0.074589275
0.08179591 -0.004885018 -0.08653985 0.044352524 -0.038903046 0.038987704 0.020213753 -0.05304398
0.06029492 -0.025623247 0.0030322224 -0.04906624 -0.063921206 0.001010038 0.07326875 -0.0804499
0.02560734 -0.04399581 0.035920292 -0.06357087 0.042701416 -0.039750062 0.035678178 0.0052726865
-0.034689963 -0.016934752 -0.040551957 -0.03233978 0.06989769 -0.057190344 -0.039185707 -0.07716956
0.030945666 0.030936226 0.08367608 -0.08327027 0.02609697 -0.025303304 -0.03727229 -0.057475835
-0.04237872 -0.037839092 -0.00054839253 -0.04502322 0.051549755 -0.044978127 0.006044373 -0.020195864
-0.0812149 -0.03363489 0.026581362 0.042539097 -0.045427274 -0.03028958 -0.04665498 -0.032972574
0.05079765 0.052884124 0.06619736 0.07129664 -0.08347864 0.06574472 -0.022381894 0.049794205
0.044625796 -0.016444027 0.051615007 -0.086195186 0.0027582496 -0.021694124 0.036479607 -0.063905746
0.0035569593 -0.0047580004 0.020953536 -0.0005944297 0.049831055 -0.007269077 -0.07820809 -0.026424967
0.053066455 0.0525511 -0.05977246 -0.010700256 0.040457197 0.034705736 -0.079763964 -0.075473264
0.040283225 -0.0658787 -0.03848665 -0.08529269 -0.07914204 -0.057846718 0.07149599 0.031434216
0.049623854 0.048161574 0.07939943 0.0311765 0.011981741 -0.041087497 -0.0309113 -0.03920895
0.044669993 -0.009146921 0.062019296 0.008335032 -0.022431493 -0.07824583 -0.050236937 -0.061861776
0.037937857 -0.053965613 -0.024775162 0.040122397 -0.027218003 0.061321013 0.035664767 0.009375364
0.017671384 0.0071784705 -0.07698999 0.010694459 -0.06709565 0.08084694 0.01666227 -0.01896225
0.014545508 -0.070467666 0.05867549 0.0007061362 -0.013379358 0.005218357 -0.041148577 -0.007160887
-0.05912566 -0.062306907 0.052572362 -0.03944653 -0.019290015 0.025277369 -0.020154752 -0.040842984
0.039223872 0.028736986 -0.043343566 -0.046328627 -0.041463163 -0.024012968 0.056976117 0.07702706
-0.062687606 -0.052656796 -0.07701655 -0.065155916 0.0663188 -0.012039676 -0.034904525 0.05318562
-0.019111648 -0.08737289 -0.025973458 -0.04442889 -0.029760838 -0.06008645 -0.040325947 0.059598975
-0.08591583 -0.07192112 -0.01759316 0.004128821 0.081238456 0.06776958 0.024718896 -0.016758546
00000000: 90bc 83bb a849 6b3c ae9c 4ebd f060 b03b
00000010: 2d7a acbd 6ec7 393d 679f 943d e866 94bd
00000020: ca73 203d d4b2 a23c 6bb2 8c3d 22e6 43bd
00000030: 0c7b c93c 7cce e63c 021e 733d a0c2 5ebc
00000040: 1319 a43d fdbc a9bd fe82 2f3d 607e 593c
00000050: 8de0 76bd 1bd7 903d 2eea 89bd c82e 923c
00000060: d05d 8d3b 6587 a8bd a06b 003d d928 a53d
00000070: ef49 1abd a1fc 0abd 9d54 823d ec0c 60bd
00000080: d6ca 633d 5ffb a3bd 28a6 1dbc 8410 4abd
00000090: 62cf 383d 4deb ae3d e642 3d3d 6018 1c3b
000000a0: 574a a2bd 76ca 723d 9aad 92bd ad72 863d
000000b0: 4667 543d a5b0 78bd 02b8 5e3d 40ea a4bd
000000c0: bb9c 55bd 8187 993d fb0d a83d 61ec a0bd
000000d0: 4073 e1bc 025f 65bd 501d 9abb dbdc 66bd
000000e0: 5b5f b03d 655c a23d 57c8 4fbd 104f 06bc
000000f0: 4234 22bd 29f3 a2bd 6881 483c 8f56 4bbd
00000100: c13e 913d f949 893d 11ff 8a3d b09a e3bb
00000110: 3039 583c 19be a03d 11ce 8b3d a893 8b3c
00000120: 4f48 9c3d fe73 2d3d 7b6f 52bd 8e72 193d
00000130: e011 d43c 59fa 8d3d 08eb 12bd 43c2 983d
00000140: 9d84 a73d 8012 a0bb ce3b b1bd feaa 353d
00000150: cd58 1fbd 92b1 1f3d 5097 a53c a544 59bd
00000160: cef7 763d d8e7 d1bc 40b8 463b aff9 48bd
00000170: 1fe9 82bd 4063 843a ed0d 963d ebc2 a4bd
00000180: 7cc6 d13c f334 34bd 2821 133d 7231 82bd
00000190: aee7 2e3d f6d0 22bd 4823 123d 80c6 ac3b
000001a0: 1017 0ebd c0ba 8abc cf19 26bd b876 04bd
000001b0: 8526 8f3d 6c40 6abd 3181 20bd 130b 9ebd
000001c0: c481 fd3c f86d fd3c 5d5e ab3d 9a89 aabd
000001d0: 50c9 d53c e048 cfbc d4aa 18bd c86b 6bbd
000001e0: 4f95 2dbd 2afd 1abd 00c2 0fba 456a 38bd
000001f0: d625 533d fc3a 38bd e00f c63b cc71 a5bc
00000200: ff53 a6bd bdc4 09bd 28c1 d93c 7a3d 2e3d
00000210: f311 3abd da21 f8bc 4b19 3fbd 400e 07bd
00000220: 3211 503d 069d 583d 7b92 873d f903 923d
00000230: d9f6 aabd 2ba5 863d 3c5a b7bc 02f5 4b3d
00000240: 8ac9 363d a0b5 86bc 426a 533d 1a87 b0bd
00000250: c0c3 343b e0b7 b1bc a46b 153d 04e1 82bd
00000260: e01b 693b 00e9 9bbb c0a6 ab3c 80d3 1bba
00000270: a61b 4c3d 7031 eebb 902b a0bd 2c79 d8bc
00000280: 365c 593d d23f 573d f8d3 74bd 2050 2fbc
00000290: 72b6 253d 9a27 0e3d 4a5b a3bd ba91 9abd
000002a0: 0600 253d 69eb 86bd 2da4 1dbd efad aebd
000002b0: 3915 a2bd aef0 6cbd 7d6c 923d 2ac1 003d
000002c0: 6242 4b3d 1245 453d 2b9c a23d dc65 ff3c
000002d0: 104f 443c 5d4b 28bd b239 fdbc 9099 20bd
000002e0: e2f7 363d f8dc 15bc f207 7e3d a88f 083c
000002f0: 40c2 b7bc 5a3f a0bd 3fc5 4dbd c662 7dbd
00000300: ba64 1b3d 0c0b 5dbd 48f5 cabc 6257 243d
00000310: 4af8 debc be2b 7b3d 3815 123d 209b 193c
00000320: 94c3 903c 6039 eb3b eeac 9dbd d037 2f3c
00000330: 7269 89bd 1593 a53d 507f 883c b856 9bbc
00000340: 4850 6e3c 5a51 90bd b655 703d 001c 393a
00000350: 1835 5bbc c0fe aa3b 698b 28bd e0a5 eabb
00000360: c02d 72bd 8735 7fbd 1e56 573d af92 21bd
00000370: 1806 9ebc 7c12 cf3c 941b a5bc f94a 27bd
00000380: 36a9 203d d469 eb3c 0689 31bd 16c3 3dbd
00000390: 47d5 29bd d8b6 c4bc ca5f 693d 5dc0 9d3d
000003a0: 5c62 80bd a7ae 57bd daba 9dbd 7770 85bd
000003b0: 27d2 873d 1042 45bc 0cf8 0ebd 2ad9 593d
000003c0: 0890 9cbc 8ff0 b2bd 4ac6 d4bc 11fb 35bd
000003d0: 00cd f3bc 361d 76bd d22c 25bd 0e1e 743d
000003e0: a4f4 afbd 614b 93bd 881f 90bc 104b 873b
000003f0: 5960 a63d c7ca 8a3d 487f ca3c 3849 89bc

network.6.bias f4 [64]
0.0037021264 -0.025447592 -0.0865096 -0.037599023 0.050881214 0.01623208 0.070691995 -0.051556762
-0.062869914 0.08173066 0.072099395 0.01970718 -0.08061784 0.037005223 -0.00058496743 0.0059126467
-0.029664006 0.057438336 0.016711436 0.04432518 0.03536518 -0.0077510998 0.0762491 -0.05927382
0.07343043 0.06657543 0.079347305 0.056137823 -0.07645233 -0.006899819 -0.042488944 -0.02657362
0.0050875694 -0.047385037 0.023017734 0.068643786 -0.059162214 0.024210244 -0.07932297 0.034346953
0.070872866 -0.06204939 0.028209187 0.029185921 -0.05735868 -0.031030089 -0.016124807 0.021076873
0.06871783 -0.08369933 0.059480883 -0.04187092 0.07255899 0.04911641 -0.060133036 -0.041404054
-0.05053914 0.06929351 -0.07184543 -0.059793595 -0.0230707 -0.050619807 -0.034819566 -0.031322367
00000000: 609f 723b 7877 d0bc f22b b1bd 6f01 1abd
00000010: d268 503d 24f9 843c f7c6 903d 2f2d 53bd
00000020: f1c1 80bd 6762 a73d d9a8 933d f470 a13c
00000030: f71a a5bd ca92 173d 8058 19ba e0be c13b
00000040: ee01 f3bc 7644 6b3d 6ce6 883c 528e 353d
00000050: 14db 103d f0fc fdbb 7d28 9c3d 1bc9 72bd
00000060: b162 963d b358 883d d780 a23d c6f0 653d
00000070: 0a93 9cbd e017 e2bb e308 2ebd ecb0 d9bc
00000080: a0b5 a63b d016 42bd b08f bc3c 1d95 8c3d
00000090: 1454 72bd 9054 c63c 1574 a2bd 64af 0c3d
000000a0: cb25 913d 8027 7ebd f416 e73c 5017 ef3c
000000b0: eff0 6abd d032 febc 2c18 84bc 68a9 ac3c
000000c0: efbb 8c3d 8e6a abbd 3aa2 733d d880 2bbd
000000d0: cf99 943d 4a2e 493d 0f4e 76bd 4c97 29bd
000000e0: 2102 4fbd c1e9 8d3d b223 93bd 21ea 74bd
000000f0: c4fe bcbc b756 4fbd f69e 0ebd e24b 00bd

network.8.weight f4 [50, 64]
0.0035590231 -0.027237475 0.08336082 0.11368373 0.11739427 -0.015056446 -0.038829267 0.080002874
-0.05492221 -0.06818701 0.11010523 0.09005581 0.022988856 0.05921021 -0.08675633 0.01823011
0.002262041 -0.123201355 -0.03258644 0.08629924 0.08901434 0.02143377 0.1116153 0.0939928
0.11693686 0.016924515 -0.037885725 -0.061611816 0.015365899 -0.123594135 0.046088234 -0.050843656
0.0654857 -0.018822327 -0.048172742 0.053642184 -0.07916477 0.07981798 0.06912394 0.0021498501
-0.062226653 -0.02929698 0.0014535934 0.051589787 -0.07266568 0.121818066 -0.036176056 -0.07521322
-0.11565256 -0.09894991 0.08036348 0.119294524 0.08132024 0.09619686 -0.103881285 -0.085177734
0.041659713 0.08033067 0.022134885 0.089022934 -0.0054924637 -0.09250769 -0.03379509 -0.04057482
0.0025843978 -0.008538619 -0.06229408 -0.0704736 -0.06980537 0.07256915 0.07951839 0.06819318
-0.10159667 0.028536707 -0.078622386 -0.06447053 -0.05839926 -0.0021977276 0.069537506 -0.11340366
0.10078074 0.065658525 -0.08580524 -0.040665492 0.057035953 0.04725419 -0.034762666 0.05205159
-0.0004954785 -0.024352789 -0.10981411 0.06422672 0.0280395 -0.12273976 0.055701405 -0.03777121
-0.056579694 0.015443489 0.11126253 0.07976693 -0.075384006 -0.032698482 -0.07716797 0.012591183
0.068443105 0.037522554 -0.09299597 -0.08807492 -0.034531504 0.10910943 0.084028974 -0.053541645
-0.00254938 0.081934944 0.07056366 0.059772268 -0.105100065 0.08570245 0.043701738 0.06551887
0.10739136 -0.0048219264 0.061277896 0.090724975 0.10671876 0.019157737 -0.034386113 -0.020907983
-0.010583326 -0.10140179 -0.08872254 -0.06214711 0.06954916 -0.010221064 0.0895333 -0.10044263
-0.119056776 0.013474673 -0.010393485 0.04144609 0.12173532 0.069782734 -0.03406535 -0.01638326
0.040472597 -0.01549916 0.10957675 -0.097677544 0.09721488 -0.024808362 0.02063182 0.123220354
0.11593902 -0.074393496 0.053112626 -0.07519412 0.01721391 -0.05461517 0.028663158 -0.098247975
-0.021751866 0.07627335 0.0923246 -0.0712371 0.07326849 -0.07618508 0.08787677 -0.11237331
-0.036465928 -0.11401194 0.102937505 -0.07337612 0.09608027 0.025745153 -0.03771393 -0.08464661
-0.10800196 -0.03369978 -0.09377919 0.11155073 -0.014048934 0.041895032 -0.08739212 -0.060312495
-0.0027363896 0.10120402 0.09093447 0.06368573 -0.031953037 0.09697181 -0.073944524 0.10315931
-0.0040849447 -0.08979516 -0.057587728 -0.026642919 0.012976155 -0.06545073 -0.0991299 -0.084634274
0.032386273 0.06352134 0.077050194 0.05007735 0.076479 -0.10339989 -0.11936574 0.04260145
-0.03453204 0.0069740713 0.060736075 -0.06061414 0.0524673 0.10494903 -0.11366294 -0.075338334
-0.04836075 0.06983502 0.013604045 0.0046750307 -0.082171425 0.06351492 -0.10838318 -0.05279766
0.10419713 -0.108901575 0.019585699 -0.10445933 -0.110673204 0.097962305 0.076929495 0.024865419
-0.1111137 0.041879907 0.06066887 0.002120927 -0.050852224 0.08601767 0.060766324 -0.005341023
0.053978547 -0.012908116 0.014716715 0.0046029836 -0.09458947 -0.09301026 -0.08647585 0.08816245
0.066427395 0.013572156 0.048206568 -0.016691536 0.028959483 -0.11246084 0.047036648 0.018238157
00000000: 803e 693b 2021 dfbc 14b9 aa3d 04d3 e83d
00000010: 686c f03d 50af 76bc 700b 1fbd 8cd8 a33d
00000020: 1cf6 60bd a2a5 8bbd da7e e13d 2e6f b83d
00000030: 2053 bc3c 6886 723d 4ead b1bd 5057 953c
00000040: c03e 143b fe50 fcbd 5c79 05bd a8bd b03d
00000050: 264d b63d e095 af3c 9096 e43d 4c7f c03d
00000060: 987c ef3d 48a5 8a3c 102e 1bbd ac5c 7cbd
00000070: 40c1 7b3c ec1e fdbd 04c7 3c3d 7041 50bd
00000080: 5e1d 863d 4831 9abc c850 45bd e8b7 5b3d
00000090: 2421 a2bd 9c77 a33d da90 8d3d 80e4 0c3b
000000a0: 60e1 7ebd 3800 f0bc 8086 be3a d04f 533d
000000b0: bed1 94bd c07b f93d 582d 14bd 6409 9abd
000000c0: 40db ecbd 40a6 cabd 9c95 a43d b050 f43d
000000d0: 3a8b a63d dc02 c53d b6bf d4bd aa71 aebd
000000e0: 60a3 2a3d 6884 a43d 3854 b53c a851 b63d
000000f0: 20fa b3bb ac74 bdbd b86c 0abd c831 26bd
00000100: 005f 293b 90e5 0bbc 1428 7fbd 7654 90bd
00000110: 1ef6 8ebd 229f 943d 8ada a23d dea8 8b3d
00000120: ea11 d0bd d0c5 e93c c604 a1bd 2009 84bd
00000130: 1034 6fbd c007 10bb ae69 8e3d 2e40 e8bd
00000140: 2266 ce3d fa77 863d a8ba afbd dc90 26bd
00000150: 889e 693d 9c8d 413d 4c63 0ebd 0c34 553d
00000160: 00e3 01ba 807f c7bc 38e6 e0bd 4c89 833d
00000170: 18b3 e53c fc5e fbbd 2827 643d fcb5 1abd
00000180: 1cc0 67bd b006 7d3c 9cdd e33d d85c a33d
00000190: ee62 9abd d8ee 05bd 3e0a 9ebd 404b 4e3c
000001a0: e62b 8c3d 40b1 193d ac74 bebd a060 b4bd
000001b0: e870 0dbd c474 df3d 6217 ac3d 7c4e 5bbd
000001c0: 8013 27bb 82cd a73d ae83 903d c4d3 743d
000001d0: b43e d7bd c484 af3d 9800 333d c22e 863d
000001e0: 00f0 db3d 4001 9ebb 88fe 7a3d 04ce b93d
000001f0: 5e8f da3d b0f0 9c3c 74d8 0cbd 3847 abbc
00000200: b065 2dbc beab cfbd 2ab4 b5bd f88d 7ebd
00000210: ca6f 8e3d 4076 27bc 3c5d b73d deb4 cdbd
00000220: 0ad4 f3bd e0c4 5c3c 7049 2abc 60c3 293d
00000230: 5e50 f93d 40ea 8e3d 1c88 0bbd 3036 86bc
00000240: 98c6 253d 30f0 7dbc c669 e03d 2a0b c8bd
00000250: 9818 c73d e83a cbbc 1004 a93c f45a fc3d
00000260: 7071 ed3d 9e5b 98bd a08c 593d 60ff 99bd
00000270: 3004 8d3c 28b4 5fbd 00cf ea3c 3c36 c9bd
00000280: f830 b2bc 3435 9c3d ae14 bd3d c2e4 91bd
00000290: ca0d 963d ec06 9cbd bcf8 b33d fa23 e6bd
000002a0: 4c5d 15bd 187f e9bd e6d0 d23d 3846 96bd
000002b0: bcc5 c43d 80e7 d23c ec79 1abd 345b adbd
000002c0: 2230 ddbd c808 0abd 4e0f c0bd b674 e43d
000002d0: 802d 66bc 209a 2b3d a4fa b2bd 3c0a 77bd
000002e0: 0055 33bb 0e44 cf3d da3b ba3d aa6d 823d
000002f0: 30e1 02bd 2899 c63d 3a70 97bd 3045 d33d
00000300: 00db 85bb 86e6 b7bd 1ce1 6bbd 4042 dabc
00000310: f099 543c 080b 86bd 9e04 cbbd bc54 adbd
00000320: 78a7 043d 7a17 823d 7ecc 9d3d e81d 4d3d
00000330: 06a1 9c3d 52c3 d3bd 0676 f4bd dc7e 2e3d
00000340: 7871 0dbd c086 e43b 64c6 783d 8846 78bd
00000350: f4e7 563d 84ef d63d 1ec8 e8bd fc4a 9abd
00000360: ec15 46bd aa05 8f3d 80e3 5e3c 0031 993b
00000370: 7e49 a8bd 1c14 823d 00f8 ddbd 5c42 58bd
00000380: 4e65 d53d ca07 dfbd 3072 a03c c6ee d5bd
00000390: a2a8 e2bd 76a0 c83d 368d 9d3d 90b2 cb3c
000003a0: 948f e3bd 448a 2b3d ec7f 783d 40ff 0a3b
000003b0: 6c4a 50bd 082a b03d 1ce6 783d c003 afbb
000003c0: 9c18 5d3d 907c 53bc 601e 713c a0d4 963b
000003d0: 20b8 c1bd 2a7c bebd 401a b1bd 848e b43d
000003e0: 160b 883d c05d 5e3c 4074 453d b0bc 88bc
000003f0: 703c ed3c de51 e6bd 80a9 403d 3068 953c

network.8.bias f4 [50]
0.0052881837 0.073924065 0.048288286 0.107725665 0.01942499 -0.06497614 0.011593312 -0.036527053
0.0892871 0.12301472 0.1028509 -0.10453412 0.08515024 0.08583197 -0.013220891 -0.09191415
0.03898652 -0.09559588 -0.106303155 0.022289395 -0.051908508 0.090661466 -0.02310811 0.064182505
0.017952487 0.108147636 -0.032299653 -0.0764001 0.09251669 0.006954491 -0.028773636 -0.07212676
-0.06635763 0.026548937 -0.023273453 -0.013473541 -0.0070667565 -0.07941876 0.10586502 -0.08759551
0.101912454 0.02729036 0.11312105 0.061701298 0.1084882 -0.0078343 -0.053136423 0.12278809
-0.12273204 -0.0029869974
00000000: 8048 ad3b 8065 973d f0c9 453d 469f dc3d
00000010: 2821 9f3c 3612 85bd e0f1 3d3c 649d 15bd
00000020: 28dc b63d 24ef fb3d 7ea3 d23d fc15 d6bd
00000030: 4063 ae3d acc8 af3d 709c 58bc 7c3d bcbd
00000040: 54b0 1f3d c6c7 c3bd 78b5 d9bd 4098 b63c
00000050: 049e 54bd b8ac b93d 384d bdbc 1e72 833d
00000060: 1811 933c 827c dd3d a44c 04bd a877 9cbd
00000070: 6479 bd3d 80e2 e33b b0b6 ebbc 32b7 93bd
00000080: 82e6 87bd 287d d93c f8a7 bebc 20c0 5cbc
00000090: 4090 e7bb 4ea6 a2bd c2cf d83d 4665 b3bd
000000a0: 7ab7 d03d 0890 df3c 02ac e73d 80ba 7c3d
000000b0: 102f de3d 705b 00bc 94a5 59bd 5278 fb3d
000000c0: f05a fbbd 80c1 43bb

network.0.weight f4 [256, 100]
0.014797196 0.041831724 0.00014594942 0.03356687 -0.05136874 -0.074190855 0.02276995 0.0947798
0.072179385 0.0621591 -0.07944094 0.03872364 -0.037385046 0.09783735 0.03386309 -0.07719292
-0.029273234 0.07948411 -0.052883532 0.08865262 0.055867277 -0.00467477 -0.0036175624 0.06420613
-0.024900056 -0.0017209277 0.09593389 -0.017887272 -0.010856308 -0.042607453 -0.046839703 -0.024829626
-0.049358428 -0.04669887 -0.08182587 -0.034768857 0.040464096 -0.020170175 0.047336586 0.0400315
-0.0042061657 0.009258032 0.03223952 -0.0004917234 0.0067197904 0.07060451 -0.031198047 0.082858555
0.08333296 -0.03639712 -0.087311886 0.03984929 0.09732712 -0.031295992 -0.071289286 -0.08046351
0.033135615 0.031088404 -0.05582899 0.04944501 0.0585173 0.011192381 0.09821267 0.03351613
-0.064674765 0.070341565 0.08898591 0.05027666 -0.094570935 -0.09862792 0.09593662 0.060746975
-0.00811629 -0.016612008 0.07409745 0.0900426 -0.08404261 -0.0050628036 -0.039744902 0.025261514
0.086858355 0.011530563 0.005625643 -0.017492495 0.053038724 0.08803495 0.09232969 -0.09558826
-0.03377913 0.09618109 0.059612192 -0.049252905 -0.04142567 0.027297504 0.035998784 0.08457195
-0.008369826 -0.05375394 0.04958812 -0.02869042 -0.017946884 0.058997817 0.03682024 -0.057085145
-0.039380994 -0.007447757 -0.0002008304 -0.07685916 0.021166757 0.043414064 0.05956415 -0.09417772
0.010194361 -0.031537995 -0.07356546 0.07105041 0.05290375 -0.081436634 -0.08457383 -0.055608284
-0.0115719065 -0.013180658 -0.08793893 0.08723258 0.0806951 -0.057204355 -0.009569325 0.040277623
0.05041582 -0.0018121153 -0.008999623 -0.089405574 -0.029013194 -0.020400658 -0.017412089 0.09677508
-0.07203458 -0.062099185 0.048448585 0.07396174 0.07801253 0.06964374 0.009675421 0.09836554
0.055347912 0.054137655 -0.03167303 -0.09607287 -0.0855334 -0.06015308 0.07814867 0.03275048
-0.095686905 -0.014070794 0.0923102 0.047753118 -0.019698858 -0.026532426 0.089669995 -0.0013369471
-0.087252155 -0.024427637 0.03115236 0.017824635 0.05831433 0.05293735 -0.08408252 -0.019873299
-0.09538724 -0.05857371 0.09852692 0.06055779 -0.065687954 -0.078346565 -0.093428135 -0.05546069
-0.0660484 -0.09519042 0.08913856 -0.08921317 -0.0752518 0.03300152 0.082750626 -0.09785626
0.04331883 0.018482946 -0.041430738 -0.08687979 0.055887304 0.03953842 0.016559064 0.08189427
0.07111461 -0.049598016 0.06613637 -0.08901308 0.09953383 0.012330309 -0.0844092 0.006030537
-0.09003853 -0.032151796 -0.09085261 -0.061757863 0.02550628 0.0038730726 0.093979545 -0.017475508
-0.051193085 0.04078812 0.093849726 -0.066522345 0.041556157 -0.019227967 -0.08986252 0.06428944
0.049655102 -0.013882175 0.070620365 -0.08139924 -0.019715324 -0.018617913 -0.018369593 -0.07085683
0.06308437 -0.054428555 -0.001339756 -0.04050356 0.024472833 -0.0026665777 0.05464036 0.07440678
-0.04255387 0.045939274 0.092138045 0.056951262 -0.049301125 0.0675006 0.041226633 -0.070700824
-0.07575401 -0.06473547 -0.06043147 0.091111444 0.035566606 0.06774259 -0.026258089 0.017076395
0.021286525 0.060626812 0.07631763 0.07368573 0.055373527 -0.017372862 -0.05479604 -0.048338998
00000000: f06f 723c be57 2b3d 000a 1939 6a7d 093d
00000010: 0768 52bd 60f1 97bd 0c88 ba3c e91b c23d
00000020: c9d2 933d 8a9a 7e3d eeb1 a2bd ae9c 1e3d
00000030: 1021 19bd f35e c83d 06b4 0a3d 5217 9ebd
00000040: 6cce efbc 91c8 a23d 679c 58bd 818f b53d
00000050: 16d5 643d d02e 99bb a014 6dbb 817e 833d
00000060: 34fb cbbc c090 e1ba fd78 c43d 5488 92bc
00000070: a8de 31bc 2785 2ebd fdda 3fbd 8067 cbbc
00000080: 102c 4abd 5047 3fbd 5294 a7bd ca69 0ebd
00000090: aebd 253d ec3b a5bc 02e4 413d 12f8 233d
000000a0: e0d3 89bb 00af 173c 960d 043d 00e7 00ba
000000b0: b031 dc3b 1999 903d 0c93 ffbc bfb1 a93d
000000c0: 79aa aa3d 2615 15bd 93d0 b2bd 0239 233d
000000d0: 7153 c73d 3a30 00bd 1e00 92bd 0dca a4bd
000000e0: 36b9 073d 1cad fe3c f0ac 64bd da86 4a3d
000000f0: d6af 6f3d 4060 373c b923 c93d 3648 093d
00000100: 3474 84bd 3d0f 903d 3f3e b63d e6ee 4d3d
00000110: 68ae c1bd 6ffd c9bd 6b7a c43d d2d1 783d
00000120: 30fa 04bc e815 88bc 67c0 973d 4168 b83d
00000130: 881e acbd e0e5 a5bb 8dcb 22bd 3cf1 ce3c
00000140: cbe2 b13d b0ea 3c3c 5057 b83b 6c4c 8fbc
00000150: 223f 593d ab4b b43d 5917 bd3d c7c3 c3bd
00000160: fc5b 0abd 97fa c43d ea2b 743d 6abd 49bd
00000170: f7ad 29bd 049f df3c 7673 133d 0f34 ad3d
00000180: 9821 09bc 172d 5cbd ea1c 4b3d 2c08 ebbc
00000190: 5805 93bc b2a7 713d d2d0 163d 1dd2 69bd
000001a0: f74d 21bd 500c f4bb 0096 52b9 5668 9dbd
000001b0: e865 ad3c f2d2 313d 8af9 733d 40e0 c0bd
000001c0: 4006 273c fc2d 01bd 7da9 96bd e182 913d
000001d0: 9ab1 583d 40c8 a6bd 0b35 adbd 83c5 63bd
000001e0: 1898 3dbc b0f3 57bc 5319 b4bd ffa6 b23d
000001f0: 7943 a53d 1d4f 6abd a8c8 1cbc 26fa 243d
00000200: d280 4e3d 8084 edba 2873 13bc 451a b7bd
00000210: 14ad edbc 481f a7bc cca3 8ebc 0332 c63d
00000220: de86 93bd b75b 7ebd 0672 463d 4179 973d
00000230: 09c5 9f3d 61a1 8e3d a885 1e3c df73 c93d
00000240: 7eb4 623d 72bf 5d3d 94bb 01bd dac1 c4bd
00000250: 232c afbd 1363 76bd 690c a03d 5e25 063d
00000260: 7ff7 c3bd 3089 66bc 210d bd3d c698 433d
00000270: 805f a1bc 885a d9bc e7a4 b73d 803c afba
00000280: 42b1 b2bd 781c c8bc 3c33 ff3c f804 923c
00000290: 02db 6e3d d6d4 583d 7533 acbd 54cd a2bc
000002a0: 635a c3bd fdea 6fbd 7bc8 c93d 720b 783d
000002b0: 6887 86bd 2a74 a0bd 4057 bfbd c02a 63bd
000002c0: 6244 87bd 32f3 c2bd 478e b63d 65b5 b6bd
000002d0: 9e1d 9abd 9a2c 073d 2979 a93d dd68 c8bd
000002e0: 166f 313d 8c69 973c 47b3 29bd 08ee b1bd
000002f0: 16ea 643d 0af3 213d e0a6 873c 2fb8 a73d
00000300: 89a4 913d 4a27 4bbd 8172 873d 7d4c b6bd
00000310: 65d8 cb3d 1005 4a3c bbde acbd d09b c53b
00000320: 1f66 b8bd 9ab1 03bd ef10 babd d0f5 7cbd
00000330: 8cf2 d03c 60d3 7d3b 5978 c03d cc28 8fbc
00000340: d7af 51bd 7211 273d 4934 c03d de3c 88bd
00000350: ca36 2a3d f883 9dbc d709 b8bd 2faa 833d
00000360: 2663 4b3d 1072 63bc 69a1 903d a5b4 a6bd
00000370: 0882 a1bc 9884 98bc d47b 96bc 631d 91bd
00000380: 6132 813d 7af0 5ebd c09a afba 10e7 25bd
00000390: 407b c83c c0c1 2ebb 92ce 5f3d 9562 983d
000003a0: f74c 2ebd d22a 3c3d dfb2 bc3d ba45 693d
000003b0: faef 49bd c13d 8a3d 42dd 283d 98cb 90bd
000003c0: eb24 9bbd 0894 84bd fd86 77bd a398 ba3d
000003d0: 4aae 113d a1bc 8a3d 341b d7bc cce3 8b3c
000003e0: 1461 ae3c d253 783d 6b4c 9c3d 8be8 963d
000003f0: 5acf 623d 8851 8ebc d071 60bd 1dff 45bd
