Deep_Learning/SignalSeekerAI/models/dqn_agent_episode_0.pth (torch, 799611 bytes, 16 tensors)

network.0.weight f4 [256, 200]
0	0x3d2eb532	0.04265327
1	0xbd1514e1	-0.036396865
2	0xbcfe5442	-0.031046037
3	0xbd10fa70	-0.035395086
4	0xbd308a7e	-0.043100826
5	0xbd5de844	-0.054176584
6	0xbbba8c10	-0.0056929663
7	0xbd0dc16e	-0.034608297
8	0x3d1154be	0.035481207
9	0xbd0be46f	-0.034153398
10	0xbd506072	-0.050873227
11	0x3d6edc36	0.05831548
12	0x3d137fc0	0.036010504
13	0x3cbfc854	0.023410954
14	0xbc405b2c	-0.011740487
15	0xbbe58630	-0.007004522
16	0xbbcb53e0	-0.006205067
17	0x3d6225e6	0.055211924
18	0x3b8aba10	0.004233606
19	0xbb7b13e0	-0.0038311407
20	0x3a8e0480	0.0010835081
21	0x3d2dd0ea	0.042435564
22	0x3ce34590	0.02774313
23	0x3d8c984b	0.06864985
24	0xbd6924dd	-0.05691992
25	0xbd0d6caa	-0.03452746
26	0x3d1d937e	0.038470738
27	0x3d5bf566	0.053700827
28	0xbd19354c	-0.037404343
29	0x3d8fa2dd	0.070134856
30	0xbd26b50b	-0.0407
31	0xbd4ba210	-0.0497151
32	0x3b8a0c30	0.0042128786
33	0x3ceb2898	0.02870588
34	0x3d8acb19	0.06777019
35	0x3d7fd53e	0.062459223
36	0x3d84d3d3	0.06485715
37	0xbd2bd266	-0.0419487
38	0x3d63d6be	0.055624716
39	0x3c73d1f8	0.014881603
40	0xbd8bf046	-0.06832938
41	0xbd87dbbc	-0.06633708
42	0xbc0ab2a8	-0.0084654465
43	0x3d519d72	0.051175542
44	0x3b96f9e0	0.004607424
45	0x3b1d3720	0.0023989156
46	0x3d8996ad	0.06718192
47	0x3bcc2090	0.0062294677
48	0xbc2f04e8	-0.010682322
49	0x3d7073a6	0.05870404
50	0xbd4ddafe	-0.050257675
51	0x3c8d3f70	0.017242163
52	0xbd50b43e	-0.050953142
53	0x3cb87134	0.022514917
54	0xbccf3016	-0.025291484
55	0x3d859e33	0.06524315
56	0xbd792ba1	-0.060832623
57	0x3d83a7f3	0.06428518
58	0x3c55c1a8	0.0130466595
59	0xbc2709b8	-0.010195188
60	0xbd2c554a	-0.042073525
61	0x3c7e1aa8	0.015509285
62	0x3d3ed754	0.04659207
63	0xbb9dfa70	-0.0048211142
64	0xbbe95130	-0.007120274
65	0xbd0fe2c4	-0.03512837
66	0x3c347b18	0.011015676
67	0xba218280	-0.00061611086
68	0x3d794b9e	0.06086313
69	0x3cddf358	0.027093574
70	0x3d0098be	0.031395666
71	0x3d866749	0.06562669
72	0x3bb59dd0	0.0055424944
73	0x3d10fdba	0.035398223
74	0xbc3e140c	-0.011601459
75	0x3d3d90a2	0.04628051
76	0xbcddd8fc	-0.027081005
77	0xbc29ba18	-0.01035931
78	0xbb01b640	-0.0019792467
79	0x3cf37fa4	0.02972395
80	0xbcb0a9e2	-0.021565381
81	0xbd570d25	-0.05250277
82	0x3c584798	0.013200663
83	0xbc9c9d38	-0.019117936
84	0x3b7c6f00	0.003851831
85	0x3c8c4bf0	0.017126054
86	0xbc4afe84	-0.012389783
87	0xbbc0b3b0	-0.0058807954
88	0x3c4543b0	0.012040064
89	0xbd3f1010	-0.046646178
90	0x3baf4310	0.0053485706
91	0xbd6bf616	-0.057607733
92	0xbd7f1582	-0.06227637
93	0xbd68a95e	-0.056802146
94	0x3d7d16c6	0.061789297
95	0xbd47ab8a	-0.048747577
96	0xbd5a78f3	-0.053338002
97	0xbc9f6478	-0.019457087
98	0xbd890859	-0.06691045
99	0xbd22910e	-0.039689116
100	0xbd164ba7	-0.03669324
101	0xbc5195d0	-0.012792066
102	0x3d05c574	0.03265901
103	0xbcfc6cf8	-0.03081368
104	0xbd89403d	-0.067017056
105	0x3c142f70	0.009044513
106	0x3c070c00	0.008242607
107	0x3d0fd9f8	0.03511998
108	0x3d7a26aa	0.06107203
109	0xbd0b9a68	-0.0340828
110	0xbc181be8	-0.009283997
111	0xbd61da49	-0.055139814
112	0xbc3eefc0	-0.011653841
113	0xbd82dc2c	-0.06389651
114	0xbcfbc25e	-0.03073233
115	0xbcf214ae	-0.029550876
116	0x3d3acbf8	0.045604676
117	0x3b1c6480	0.0023863614
118	0xbcb4bef8	-0.022063717
119	0xbd8fba8c	-0.07018003
120	0xbd0914f8	-0.033467263
121	0x3d034d10	0.032055914
122	0x3d6b3e9e	0.057432763
123	0xbd78ce90	-0.06074387
124	0x3d459492	0.04823739
125	0xbc967a86	-0.01836897
126	0xbd5c9686	-0.053854488
127	0x3c19dbf0	0.009390816
128	0x3c8f11a0	0.017464459
129	0x3d28d954	0.041222885
130	0xbd8afe95	-0.06786839
131	0xbd628a15	-0.055307467
132	0x3d75bef6	0.059996568
133	0xbcfc0e18	-0.03076844
134	0x3d4fb1fc	0.05070685
135	0x3d8faa7b	0.070149384
136	0x3cfd22f4	0.030900456
137	0xbc9e12ca	-0.019296069
138	0xbbdfde90	-0.0068319514
139	0x3bda5ae0	0.006663665
140	0xbc8641a6	-0.016388725
141	0x3cce5288	0.025185838
142	0xbd0fd2c9	-0.03511313
143	0x3c9e8578	0.019350752
144	0x3d64f04e	0.055893235
145	0xbd2ce10c	-0.04220681
146	0xbc16dc30	-0.00920777
147	0xbd596484	-0.053074375
148	0xbcfdecbc	-0.030996673
149	0x3d76ca02	0.060251243
150	0xbcf2864c	-0.029605053
151	0x3d3384f0	0.04382795
152	0xbd583284	-0.05278255
153	0xbcbc6b6e	-0.023000445
154	0x3ce91914	0.028454341
155	0x3d1798be	0.0370109
156	0x3d83af49	0.06429917
157	0xbd8dc531	-0.06922377
158	0xbd03cdc9	-0.032178674
159	0x3d81d7db	0.06339999
160	0xbd1bd399	-0.038043592
161	0xbd799d69	-0.060941134
162	0xbd801ade	-0.062551245
163	0xbd66d61c	-0.056356534
164	0x3caad9b4	0.020855762
165	0x3cd92120	0.026505053
166	0x3cc44628	0.023959234
167	0x3cc17c7c	0.02361893
168	0xbd412e42	-0.047163256
169	0xbd6d5d76	-0.05795046
170	0x3c4c33f0	0.012463555
171	0x3d0fa446	0.035068773
172	0xbd8562aa	-0.06512959
173	0xbc5d0424	-0.013489757
174	0x3d34a35c	0.044101104
175	0x3cfdc8f0	0.030979604
176	0x3d2378ea	0.039910235
177	0xbd2ae894	-0.04172571
178	0x3b71f740	0.0036921054
179	0x3bc709b0	0.006074153
180	0x3c369d78	0.011145942
181	0xbcb56070	-0.022140712
182	0xbc3ba46c	-0.011452775
183	0xbc242ff4	-0.010021199
184	0xbd61dc26	-0.05514159
185	0xbd8dfa11	-0.06932462
186	0x3c571920	0.013128549
187	0x3b820870	0.003968291
188	0x3b8189a0	0.0039531738
189	0xbd8dd72d	-0.06925807
190	0x3d5c4bc4	0.053783193
191	0xbcf027f8	-0.029315934
192	0x3cee5bbc	0.029096477
193	0x3d43d4da	0.047810413
194	0xbca7226e	-0.02040216
195	0xbd166c62	-0.036724456
196	0x3cc6c87c	0.02426552
197	0xbd85b2b0	-0.065282226
198	0xbbb9c3e0	-0.005669102
199	0xbcb0540e	-0.021524455
200	0x3c83b248	0.016076222
201	0xbd71e1b0	-0.059053123
202	0x3c92495c	0.017857246
203	0x3d5fef2a	0.054671444
204	0xbd80c449	-0.062874384
205	0x3cf9a5bc	0.030474536
206	0xbcc21e08	-0.02369596
207	0xbd8faa8a	-0.070149496
208	0x3cc92348	0.024552956
209	0x3cd8ae20	0.026450217
210	0xbbad81c0	-0.0052950084
211	0xbcb6f044	-0.022331364
212	0xbc941396	-0.018075746
213	0x3c6aaf38	0.014324002
214	0x3ca24ae8	0.019811109
215	0xbd216d76	-0.03941103
216	0xbd659487	-0.05604985
217	0x3d1be1cc	0.038057134
218	0xbc48a378	-0.012246005
219	0x3d60e222	0.054903157
220	0xbd1e24a8	-0.038609177
221	0xbcda62c8	-0.02665843
222	0xbd3e54f2	-0.04646773
223	0xbbb23a40	-0.005439073
224	0xbd785924	-0.060631886
225	0x3cfa12ac	0.030526482
226	0x3caa8860	0.020816982
227	0xbccbcafe	-0.024877068
228	0xbc3a72e0	-0.011379927
229	0xbc372e18	-0.011180423
230	0x3d31fdc4	0.0434549
231	0xbcb639d0	-0.022244364
232	0x3d065128	0.03279224
233	0x3b5f5660	0.0034078583
234	0x3d31e4e0	0.043431163
235	0x3d3d7dce	0.046262555
236	0x3d2996e4	0.041403666
237	0x3d0437ce	0.032279782
238	0x3c012880	0.007883191
239	0x3c912c74	0.017721392
240	0x3d662d2e	0.05619543
241	0x3d66af8a	0.05631975
242	0x3c279b60	0.010229915
243	0x3cc3c710	0.023898631
244	0x3d8e77a5	0.06956414
245	0x3cd6ba8c	0.026212
246	0xbce269be	-0.027638312
247	0x3cc412f4	0.023934819
248	0xbb877cd0	-0.004134752
249	0x3ce0ca58	0.027440235
250	0xbc958910	-0.018253833
251	0x3c957d84	0.018248327
252	0xbd6fc66a	-0.05853883
253	0x3d195ca6	0.037441872
254	0xbd59123c	-0.052995905
255	0xbd734969	-0.05939618

network.0.bias f4 [256]
0	0xbcae30f8	-0.021263584
1	0x3d28ba44	0.04119326
2	0x3d24ca12	0.04023177
3	0x3d86e889	0.06587321
4	0xbd4dab9e	-0.050212495
5	0xbb13ef40	-0.0022573024
6	0x3c81855c	0.015810661
7	0x3d8e47ed	0.069473125
8	0x3c96e46c	0.018419467
9	0xbc8acb18	-0.016942546
10	0xbd0ebc27	-0.034847405
11	0xbcd80d34	-0.026373483
12	0x3d75e436	0.060032092
13	0xbb87df70	-0.004146509
14	0x3d66b4a6	0.056324624
15	0x3c8cd360	0.017190635
16	0x3ce40bec	0.027837716
17	0xbd02023c	-0.031740412
18	0xbcd07e5e	-0.025450882
19	0xbce055c0	-0.027384639
20	0x3d5e8852	0.054329224
21	0xbc6edd38	-0.01457911
22	0x3bf971a0	0.007612422
23	0x3bcdf2f0	0.006285064
24	0xbd8e289b	-0.06941339
25	0x3b66b600	0.0035203695
26	0xbc9ca634	-0.01912222
27	0xbd06fd76	-0.032956563
28	0x3d30a52c	0.04312627
29	0xbd216009	-0.039398227
30	0xbcb4c782	-0.022067789
31	0x3cac9468	0.02106686
32	0xbd1929f0	-0.03739351
33	0x3d197c12	0.03747184
34	0xbd7b0187	-0.061280753
35	0x3d226e5e	0.039656036
36	0xbd305420	-0.043048978
37	0x3c7fb360	0.015606731
38	0xbcded76a	-0.027202327
39	0x3d80bd89	0.06286151
40	0xbd42d7c4	-0.04756905
41	0xbc9ebcf8	-0.019377217
42	0xbd8d7289	-0.069066115
43	0x3d76a796	0.060218416
44	0xbd7e7cc4	-0.062130705
45	0x3c6aff18	0.014343046
46	0xbc0e3a3c	-0.008680876
47	0xbd2dc962	-0.04242838
48	0xbd512e4a	-0.051069535
49	0xbc87a5aa	-0.016558487
50	0x3c592628	0.013253726
51	0xbc95f4d0	-0.018305212
52	0x3c470140	0.012146294
53	0x3d228efc	0.03968714
54	0x3d529672	0.051413007
55	0x3d261fd6	0.040557705
56	0xbb7deb00	-0.0038744807
57	0xbcc7e82a	-0.024402697
58	0x3d16c93c	0.036813006
59	0xbd50f6aa	-0.051016487
60	0x3d42b406	0.047534965
61	0xbd190350	-0.037356675
62	0xbd5c9f8a	-0.053863086
63	0x3cc0767c	0.023493998
64	0x3d3acdf0	0.045606554
65	0xbd632237	-0.05545255
66	0x3d0edd12	0.034878798
67	0x3d675b2a	0.056483425
68	0xbcb15610	-0.021647483
69	0xbd8a824a	-0.06763132
70	0x3d1e6f72	0.0386805
71	0x3d27088e	0.040779643
72	0xbd22af44	-0.039717928
73	0xbb2015e0	-0.00244271
74	0x3cbfb1ac	0.02340015
75	0xbc522578	-0.012826316
76	0x3d07ffe6	0.03320303
77	0xbcf8d8d4	-0.03037683
78	0x3cd8d790	0.026469976
79	0x3d6c9606	0.05776026
80	0xbd0a6c15	-0.03379448
81	0xbd84881f	-0.064712755
82	0xbcbd3a04	-0.023098953
83	0x3d5fb226	0.054613255
84	0xbd595802	-0.053062446
85	0x3d7d4062	0.06182898
86	0xbc7b9cbc	-0.015357193
87	0x3c898a70	0.016789645
88	0x3d55d68e	0.05220657
89	0x3c224cc8	0.009906001
90	0xbba94300	-0.0051654577
91	0x3c8ebc14	0.017423667
92	0xbc16a398	-0.009194277
93	0xbd77581e	-0.06038677
94	0x3d6b76f6	0.057486497
95	0xbd131c5e	-0.035915725
96	0x3d2c0c72	0.042004056
97	0xbd482717	-0.048865404
98	0xbc8e981c	-0.017406516
99	0xbc3011dc	-0.0107464455
100	0x3c4307b0	0.011903688
101	0x3d2bc744	0.04193808
102	0xbd3b201e	-0.045684926
103	0x3ce6d268	0.028176501
104	0xbc253a40	-0.010084689
105	0xbcd97138	-0.026543245
106	0x3d898347	0.06714492
107	0xbd02db48	-0.031947404
108	0xbc671050	-0.01410301
109	0xbb4cf020	-0.0031271055
110	0x3cd46fe0	0.025932252
111	0x3d329dba	0.04360745
112	0x3d83d4d3	0.064370774
113	0xbd2feca4	-0.042950287
114	0x3d844153	0.06457772
115	0x3d3ac25a	0.045595504
116	0x3d27454e	0.04083758
117	0xbcf8745e	-0.030328926
118	0x3aa241c0	0.0012379214
119	0x3d5c2af2	0.053751893
120	0xbd762a25	-0.060098786
121	0xbd6e717e	-0.058213703
122	0xbafb70c0	-0.0019183382
123	0x3cd333fc	0.025781624
124	0x3d33c2e0	0.04388702
125	0xbbf57cf0	-0.0074917004
126	0x3c917cc4	0.017759688
127	0xbd657bb7	-0.056026187
128	0xbb3e2100	-0.0029011369
129	0xbaef2100	-0.0018244088
130	0x3c2e3410	0.01063253
131	0xbd39e1dc	-0.045381412
132	0xbd245fac	-0.040130302
133	0xbd49a932	-0.049233623
134	0xbcc32072	-0.023819182
135	0x3c85f69c	0.016352944
136	0x3d80527f	0.06265735
137	0xb9e3b500	-0.0004343167
138	0xbd34ad60	-0.044110656
139	0x3d8bf001	0.068328865
140	0x3d7dcaa6	0.06196084
141	0x3d67d5ca	0.05660037
142	0xbd4c5351	-0.049884144
143	0x3d4e4d88	0.05036691
144	0xbd8e2bd0	-0.0694195
145	0xbc8ecc5c	-0.01743143
146	0x3c448870	0.01199542
147	0xbd4799a2	-0.0487305
148	0x3d4de646	0.050268434
149	0x3bfcbf70	0.007713251
150	0xbd231fcb	-0.039825242
151	0x3c804a88	0.01566054
152	0x3d8015f7	0.062541895
153	0xbd4d1df4	-0.050077394
154	0xbd0fca10	-0.03510481
155	0xbd796190	-0.06088406
156	0x3c008178	0.007843368
157	0x3d263a5e	0.040583007
158	0xbbc55600	-0.006022215
159	0x3bd809c0	0.006592959
160	0x3d59056a	0.05298368
161	0x3d6be0ea	0.05758754
162	0x3ca790fc	0.020454876
163	0xbd39c488	-0.045353442
164	0xbb3602a0	-0.002777256
165	0xbc9694de	-0.018381532
166	0xbd40f022	-0.04710401
167	0xbd040f87	-0.03224137
168	0xbcf264a2	-0.029589001
169	0x3d45aecc	0.048262402
170	0xbcfd6386	-0.030931246
171	0xba1a4800	-0.00058853626
172	0x3d8b00bb	0.06787249
173	0xbd800573	-0.06251039
174	0xbce060da	-0.027389932
175	0xba530280	-0.0008049384
176	0x3d46b40a	0.048511542
177	0xbd745092	-0.05964715
178	0x3d18e9a8	0.037332207
179	0xbd8ccdfe	-0.068752274
180	0x3d1d9de6	0.03848066
181	0x3d2d6c54	0.042339638
182	0x3d87630f	0.06610691
183	0xbd103222	-0.03520406
184	0xbcfa9eb4	-0.030593254
185	0xbd6a352b	-0.05717961
186	0xbcf3318e	-0.029686715
187	0xbcd7a4ae	-0.026323643
188	0xbd7af2d6	-0.061266743
189	0x3d8c4cc7	0.068505816
190	0x3d04542a	0.032306828
191	0xbb6c9f00	-0.0036105514
192	0x3ad2c700	0.0016081035
193	0x3d1c94b6	0.03822776
194	0xbd48fa10	-0.049066603
195	0x3d623dda	0.055234767
196	0x3cc72634	0.024310209
197	0xbb2cfec0	-0.002639696
198	0xbd6843e6	-0.056705378
199	0x3ceb2afc	0.02870702
200	0xbba75a00	-0.0051071644
201	0xbd1d9fef	-0.038482603
202	0xbc274fdc	-0.010211911
203	0xbcf3adf0	-0.029746026
204	0xbd8a51b8	-0.06753868
205	0x3d063630	0.03276652
206	0xbd7a1c3b	-0.06106208
207	0x3b365100	0.0027819276
208	0x3d304fd2	0.043044873
209	0xbc3fd5e0	-0.011708707
210	0xbc9b7098	-0.018974587
211	0xbd3d3b42	-0.04619909
212	0xbd19e705	-0.037573833
213	0x3d855cfd	0.06511877
214	0xbd76c224	-0.06024374
215	0xbc737a54	-0.014860708
216	0xbd43c536	-0.047795497
217	0xbcb26992	-0.021778855
218	0x3d466e0e	0.0484448
219	0x3c89c630	0.016818136
220	0x3cde50a0	0.027138054
221	0x3ce03870	0.027370661
222	0x3ccde868	0.025135234
223	0x3d6fe702	0.058569916
224	0x3d85ce61	0.06533504
225	0x3d90055d	0.07032273
226	0xbce3ae2e	-0.027793016
227	0xbd243964	-0.040093794
228	0x3d188748	0.03723839
229	0xbd889731	-0.066694625
230	0x3d0d426e	0.03448718
231	0xbd0df2c4	-0.034655347
232	0xbd65aab8	-0.056071013
233	0x3d7cbb36	0.061701976
234	0xbd518e8a	-0.051161326
235	0xbd6d65c3	-0.057958376
236	0x3cf7b35c	0.030236892
237	0x39489c00	0.00019131601
238	0xbc7cd724	-0.015432153
239	0x3d4d853c	0.05017589
240	0x3c634ac8	0.01387281
241	0x3b4b9520	0.0031064227
242	0xbbc26860	-0.0059328526
243	0x3c4c2958	0.012461029
244	0x3d8bdc55	0.068291344
245	0xbd67020e	-0.056398444
246	0xbd6095f8	-0.05483052
247	0xbd8cc2bc	-0.0687308
248	0xbc2c6e7c	-0.010524388
249	0xbc81c0c0	-0.01583898
250	0x3d846a83	0.06465628
251	0xbd8572ea	-0.06516059
252	0xbd8b55a9	-0.06803448
253	0x3d836a17	0.064167194
254	0xbd0ff7d0	-0.03514844
255	0xbd732316	-0.059359632

network.3.weight f4 [128, 256]
0	0x3c5d40e0	0.013504237
1	0xbd5583d0	-0.05212766
2	0xbd09ff50	-0.03369075
3	0x3d604f84	0.054763332
4	0xbb9360d0	-0.004497625
5	0xbb783a00	-0.0037876368
6	0x3d38a41a	0.045078374
7	0xbc2837d8	-0.01026722
8	0x3d1a2714	0.037634924
9	0xbd01ab20	-0.03165734
10	0x3c832ec4	0.01601351
11	0xbae32840	-0.0017330721
12	0x3c0ef890	0.008726254
13	0xbc632d08	-0.013865717
14	0xbc91817c	-0.017761938
15	0x3d4d3756	0.0501016
16	0xbd4b93e4	-0.049701586
17	0xbd2ba06a	-0.04190103
18	0x3d2176ce	0.03941994
19	0xbcbf4208	-0.023346916
20	0xbc949e90	-0.018142015
21	0xbc6eb1a0	-0.014568716
22	0xbd76f57c	-0.060292706
23	0x3c2d2268	0.010567285
24	0x3d56af32	0.052413173
25	0xbd711b4c	-0.058863923
26	0x3c61fb28	0.0137927905
27	0x3bda3950	0.006659664
28	0x3c8f6074	0.017502047
29	0x3d7a26b4	0.061072066
30	0x3d1a65dc	0.037694797
31	0xbcb31cfc	-0.021864407
32	0xbd707752	-0.058707543
33	0xbd6fff64	-0.05859317
34	0xbd3f5b32	-0.04671783
35	0xbcef1550	-0.029184967
36	0x3d688d9e	0.05677568
37	0x3d402330	0.046908557
38	0xbc555f28	-0.013023175
39	0x3d7c8af6	0.06165596
40	0x3a93bac0	0.0011270866
41	0xbbef3f00	-0.0073012114
42	0x3c8c3968	0.017117217
43	0xbd0fd94c	-0.03511934
44	0x3d6f443a	0.058414675
45	0x3d4c2f9c	0.04985009
46	0xbd67a2b4	-0.05655165
47	0x3d13f15c	0.03611885
48	0x3d07c5f4	0.033147767
49	0x3cf85be8	0.030317262
50	0xbbf33160	-0.0074216574
51	0xbd733fa0	-0.05938685
52	0x3d6cc2e8	0.057803065
53	0xb9c29f00	-0.00037121028
54	0xbd53f5ee	-0.05174821
55	0x3cb4b198	0.02205734
56	0xbd4bd312	-0.04976184
57	0x3cdd4484	0.02701021
58	0x3c5e73b8	0.013577394
59	0x3d6b9d34	0.057522967
60	0xbd1a7f48	-0.03771904
61	0xbc420798	-0.011842631
62	0x3d722032	0.059112735
63	0xbc5cbe38	-0.013473086
64	0xbd535fc2	-0.051604994
65	0xbbbf4590	-0.00583715
66	0xbd34df4e	-0.044158272
67	0x3b3a9a60	0.0028473362
68	0x3d4ab4a8	0.049488693
69	0x3ca13bc4	0.019681819
70	0x3d4f0920	0.05054581
71	0xbd24ddfa	-0.040250756
72	0xbc4cf2e8	-0.012509085
73	0xbc317fd8	-0.010833703
74	0xbc6def98	-0.014522456
75	0xbc868a30	-0.016423315
76	0xbd5457a6	-0.0518414
77	0x3d4df8f6	0.050286256
78	0xbcfa7e84	-0.030577905
79	0x3c99d9bc	0.018780582
80	0xbd58498a	-0.052804507
81	0x3b7eb660	0.0038866028
82	0x3cd14e74	0.025550105
83	0x3d0c4ace	0.034251027
84	0xbd1cf9fc	-0.03832434
85	0xbd5b18dc	-0.053490505
86	0x3c50ef88	0.012752421
87	0x3c30a4a0	0.010781437
88	0x3d7c3e2a	0.06158272
89	0xbbfdcbf0	-0.0077452585
90	0x3d2da42e	0.042392902
91	0xba216b00	-0.0006157607
92	0xbd67d3a4	-0.05659832
93	0x3c976da0	0.01848489
94	0xbd3542a0	-0.04425299
95	0xbd19e8cc	-0.037575528
96	0x3c44ed50	0.01201947
97	0x3bcc6270	0.0062373206
98	0x3d0006c0	0.031256437
99	0xbccea40c	-0.025224708
100	0xbc4ded88	-0.012568839
101	0x3cf690a4	0.030098267
102	0xbd5b109c	-0.053482637
103	0xbc8a8908	-0.016911045
104	0xbd63c284	-0.055605426
105	0x3d479c30	0.048732936
106	0x3d10a3e2	0.03531254
107	0x3d7c8e46	0.06165912
108	0x3c036120	0.008018762
109	0x3d37c1ba	0.044862486
110	0xbc131e30	-0.008979365
111	0x3c8da380	0.017289877
112	0x3c6a90b0	0.014316723
113	0xbd720942	-0.05909086
114	0x3ca2f360	0.01989144
115	0x3cc6af24	0.024253435
116	0x3d24655c	0.040135726
117	0x3d39e012	0.045379706
118	0x3d03db5e	0.032191627
119	0x3d774ddc	0.060376987
120	0x3c95904c	0.018257283
121	0x3cf9ce88	0.03049399
122	0xbd6edfda	-0.05831895
123	0xbcc83628	-0.024439886
124	0xbd42b09c	-0.04753171
125	0xbd22f5e8	-0.039785296
126	0xbc8c817c	-0.017151587
127	0xbd5967fc	-0.053077683
128	0xbd0d5baa	-0.034511246
129	0xbce68f04	-0.028144367
130	0x3d1dd6a8	0.03853479
131	0x3c5b9d90	0.013404265
132	0x3c842390	0.016130239
133	0x3cf3ca80	0.029759645
134	0xbd619d94	-0.05508192
135	0x3d1d80a0	0.038452744
136	0xbc9683bc	-0.018373363
137	0x3b9440a0	0.0045243055
138	0x3c6b3758	0.014356457
139	0x3d184da2	0.03718341
140	0xbc6357f0	-0.013875946
141	0x3b440fa0	0.002991654
142	0xbaa42a00	-0.0012524724
143	0x3d70436a	0.05865804
144	0xbd1a0068	-0.037598044
145	0x3cfaabc0	0.030599475
146	0xbd67bb46	-0.056575082
147	0xbd2551a4	-0.04036106
148	0xbd721834	-0.059105113
149	0xbc9c14f8	-0.019052967
150	0x3cc6dcc0	0.024275184
151	0x3d2e0a70	0.042490423
152	0xbc4f75f8	-0.012662403
153	0x3d482eaa	0.048872627
154	0x3ca43484	0.020044573
155	0x3bda7050	0.0066662207
156	0xbcb6dd38	-0.022322282
157	0x3d6583c4	0.056033865
158	0x3d537fea	0.05163566
159	0x3c08fa80	0.008360505
160	0x3d0e5eae	0.034758262
161	0x3d1bc09e	0.03802549
162	0xbcb492dc	-0.022042684
163	0x3cc375a8	0.023859814
164	0x39e0a800	0.0004284978
165	0x3c9a475c	0.018832855
166	0x3d0c2cd2	0.03422243
167	0xbcfc3b78	-0.030790076
168	0x3bbc0c60	0.00573878
169	0x3d5d948c	0.054096743
170	0x3b9e0430	0.0048222765
171	0xbcdeebd0	-0.027212054
172	0x3cf0a490	0.029375345
173	0xbc983088	-0.018577829
174	0x3d6e00b8	0.058106154
175	0x3ccaea98	0.024770066
176	0xbc634a30	-0.013872668
177	0xbd3ca3cc	-0.046054646
178	0x3b8c33f0	0.0042786524
179	0x3aa02ac0	0.0012219772
180	0xbbdd4fa0	-0.006753877
181	0x3cad59ac	0.021160923
182	0xbd3f8a5a	-0.0467628
183	0xbce90f74	-0.028449751
184	0x3d6f21a6	0.0583817
185	0x3d504382	0.05084563
186	0xbd435c96	-0.04769572
187	0xbc6ef0c0	-0.014583766
188	0xbd763d38	-0.060116976
189	0x3bf53660	0.0074832886
190	0xbd7275be	-0.05919432
191	0x3cd68c14	0.026189841
192	0xbd4c1692	-0.049826212
193	0xbcd17110	-0.025566608
194	0xbcdc3fb0	-0.026885837
195	0xbc022e78	-0.007945649
196	0xbc47bf08	-0.0121915415
197	0x3d1bd372	0.038043447
198	0x3d56d4d8	0.052449077
199	0xbbcb91f0	-0.0062124655
200	0xbd09d4f8	-0.03365037
201	0x3bf6ae30	0.007528089
202	0x3d39d9b0	0.04537362
203	0x3c185d08	0.009299524
204	0x3d062d52	0.032758065
205	0xbca0b3f4	-0.019617058
206	0xbcbdc260	-0.023163974
207	0x3d4c769a	0.049917795
208	0xbb0157c0	-0.001973614
209	0xbc268ee0	-0.0101659
210	0x3c4959d8	0.012289487
211	0xbd4604d4	-0.04834445
212	0xbcd89f9c	-0.026443295
213	0x3bdabfe0	0.0066757053
214	0x3d1b7b52	0.037959404
215	0xbd264a70	-0.040598333
216	0x3d317860	0.04332769
217	0xbb9df620	-0.0048206
218	0x3c4595f8	0.012059681
219	0xbd4e5842	-0.050377138
220	0x3d59bf76	0.053161107
221	0xbd73ad54	-0.05949147
222	0x3d6678dc	0.056267604
223	0x3d52fc5a	0.051510192
224	0xbd0a1c78	-0.033718556
225	0x3d32283c	0.0434954
226	0x3ce356dc	0.027751379
227	0xbd3e5d20	-0.04647553
228	0x3caff2c4	0.021478064
229	0x3d2e0ce6	0.04249277
230	0xbc008988	-0.00784529
231	0xbcddde94	-0.027083673
232	0xbd00f54c	-0.031483933
233	0x3cf6d7e4	0.030132242
234	0x3d7e2fe8	0.062057406
235	0x3d7e770a	0.062125243
236	0xbc6e2268	-0.01453457
237	0xbc65eb10	-0.014033094
238	0xbd1c0492	-0.038090296
239	0xbd3b098e	-0.04566341
240	0x3d147f32	0.036254115
241	0xbd25fba4	-0.040523186
242	0xbca15e14	-0.01969818
243	0x3d228914	0.03968151
244	0xbd3bdb8e	-0.04586368
245	0xbd4889d0	-0.048959553
246	0xbd29a0ea	-0.041413225
247	0x3c57cd58	0.013171516
248	0x3c4bc6e8	0.01243756
249	0xbcd67488	-0.026178613
250	0x3d651b64	0.055934325
251	0x3cb4bcc0	0.02206266
252	0xbd37636a	-0.044772543
253	0xbcad9708	-0.021190181
254	0xbc5e0ee0	-0.013553351
255	0x3c8fd580	0.01755786

network.3.bias f4 [128]
0	0x3c73a8a8	0.014871754
1	0xbcec04c4	-0.028810866
2	0x3d14d8c8	0.03633955
3	0xb8fcf400	-0.00012061745
4	0x3c901334	0.017587282
5	0xbd4d50fa	-0.050126053
6	0x3d4a0230	0.049318492
7	0xbb94aa60	-0.004536912
8	0xbd049574	-0.032369092
9	0xbc746a08	-0.014917858
10	0x3bf97790	0.00761313
11	0xbcdbcc84	-0.02683092
12	0xbcd9453c	-0.026522271
13	0x3b66bbc0	0.0035207123
14	0x3d5802f2	0.052737184
15	0xbc96ce64	-0.018408962
16	0xbca3ce24	-0.019995756
17	0x3c4280e8	0.011871554
18	0xba9cc180	-0.0011959523
19	0xbd352126	-0.044221066
20	0x3cfb2b44	0.03066028
21	0xbd48b36a	-0.048999228
22	0xbd3feab2	-0.046854682
23	0xbc54c878	-0.012987249
24	0x3cc51dfc	0.02406215
25	0xbc9b1a48	-0.01893343
26	0xbcc01828	-0.023449019
27	0xbd0c541a	-0.034259893
28	0xbc47fbe0	-0.012206048
29	0xbd4d8f82	-0.050185688
30	0xbd0994e6	-0.033589266
31	0x3c934410	0.01797679
32	0xbd271dc2	-0.040799864
33	0xbcbf4d08	-0.023352161
34	0xbbf5dfe0	-0.0075034946
35	0x3b3cb780	0.0028795898
36	0xbd15dc8a	-0.036587276
37	0x3d121dee	0.035673074
38	0x3bb110e0	0.005403623
39	0xbcabfaf4	-0.020993687
40	0x3b899d80	0.0041996837
41	0xbd10f7c8	-0.035392553
42	0xbc3204e0	-0.01086542
43	0xbd2da592	-0.04239423
44	0x3ca94cf8	0.020666584
45	0xbd518cca	-0.051159658
46	0x3d44c610	0.04804045
47	0x3d7a1960	0.061059356
48	0xba388300	-0.00070385635
49	0xbce683dc	-0.028139047
50	0x3c775100	0.0150949955
51	0xbca36bd4	-0.019948877
52	0xbd334cc0	-0.043774366
53	0x3c62cb78	0.013842456
54	0x3cd31424	0.02576644
55	0x3c53d720	0.012929708
56	0x3cb3589c	0.021892838
57	0x3d1b81e2	0.037965663
58	0xbd50de48	-0.050993234
59	0x3d17f5da	0.037099697
60	0xbcb5df68	-0.022201255
61	0xbd7ff714	-0.06249149
62	0x3cc281d0	0.02374354
63	0xbd37d20c	-0.04487805
64	0xbd4e0b6e	-0.05030387
65	0x3c934b8c	0.01798036
66	0xbcead71c	-0.028667025
67	0x3d2b7afa	0.041865326
68	0xbd15966c	-0.036520407
69	0xbd109708	-0.035300285
70	0xbd115bc6	-0.035487913
71	0xbccc69ac	-0.024952732
72	0xbc6238b0	-0.013807461
73	0x3c9edac0	0.019391418
74	0xbd0f7122	-0.03502
75	0xbd5f6154	-0.05453618
76	0x3b3796a0	0.0028013363
77	0x3d5789d0	0.052621663
78	0x3cdba108	0.026810184
79	0xbbe6c5a0	-0.0070426017
80	0x3d35adbc	0.04435514
81	0xbb6aad80	-0.003580898
82	0x3b9eb760	0.0048436373
83	0x3c5e4288	0.013565667
84	0x3ce3d964	0.02781362
85	0x3d4ef09a	0.050522424
86	0xbc6e76e0	-0.014554709
87	0xbd600c88	-0.05469945
88	0x3bc6d410	0.0060677603
89	0x3d380e98	0.044935793
90	0xbd4320b0	-0.047638595
91	0x3cfcc1b8	0.030854091
92	0xbd27efc4	-0.041000143
93	0xbcaffb40	-0.02148211
94	0xbcbba7d8	-0.022907183
95	0x3ca0fe14	0.019652404
96	0xbcec6918	-0.028858706
97	0x3d2b057e	0.041753285
98	0xbd166ebc	-0.0367267
99	0x3d4542f2	0.048159547
100	0x3cf4999c	0.029858403
101	0x3c4b5b18	0.012411855
102	0xbd72b8a6	-0.059258126
103	0xbcb8c9f0	-0.022557229
104	0xbd2f4898	-0.04279384
105	0xbce766ec	-0.02824732
106	0x3cc55b20	0.024091303
107	0x3ccd377c	0.025050871
108	0x3b6650c0	0.0035143346
109	0xbc25ea38	-0.010126643
110	0x3d1fa794	0.038978174
111	0x3c3678f8	0.01113724
112	0x3d3ac3b4	0.045596793
113	0x3cd0adfc	0.025473587
114	0xbd0497b2	-0.03237123
115	0x3d7730d6	0.060349308
116	0xbccb2c04	-0.024801262
117	0xbd16acfc	-0.036786065
118	0xbce9dd60	-0.028547943
119	0x3d32c0b6	0.043640815
120	0xbd76c1a8	-0.06024328
121	0x3cd2e7e0	0.025745332
122	0x3c67f8a0	0.014158398
123	0x3d11f0be	0.03562998
124	0xbd318974	-0.043343976
125	0xbba28cd0	-0.004960634
126	0x3d470180	0.048585415
127	0x3cf3b514	0.02974943

network.6.weight f4 [64, 128]
0	0x3d2fa996	0.04288634
1	0x3cc768b8	0.024341926
2	0xbc4a6968	-0.012354232
3	0xbd8f9e8e	-0.07012664
4	0x3d2573de	0.040393703
5	0xbd1512f3	-0.036395025
6	0xbd86f0a4	-0.06588867
7	0xbd81ee7c	-0.063443154
8	0x3d62af92	0.05534322
9	0x3d7834da	0.06059728
10	0xbc36a4e8	-0.011147715
11	0x3d763972	0.060113378
12	0x3ba4b8b0	0.0050268993
13	0xbd0e7d40	-0.034787416
14	0x3c131980	0.008978248
15	0xbd10de5c	-0.03536831
16	0xbd2a40d9	-0.04156575
17	0xbce17a96	-0.027524274
18	0x3d10ee36	0.035383426
19	0xbd903f86	-0.07043366
20	0xbb027ca0	-0.0019910708
21	0x3c2374d8	0.009976588
22	0xbd9e5b44	-0.07732251
23	0x3c3e4620	0.011613399
24	0xbda14fee	-0.078765735
25	0x3d3212ba	0.04347489
26	0xbd904d94	-0.07046047
27	0x39d47f00	0.00040530413
28	0xbcee212e	-0.029068556
29	0x3da7a9c9	0.08186681
30	0x3d2f7e4e	0.042845063
31	0xbd65c6b6	-0.05609771
32	0xbc0e9aa8	-0.008703865
33	0xbd91b2a9	-0.07114155
34	0x3d437a22	0.047723897
35	0x3d4106e6	0.04712572
36	0xbd75270a	-0.059851684
37	0xbbf3ddc0	-0.007442206
38	0x3b978400	0.00462389
39	0xbd3b3fe8	-0.045715243
40	0xbd6eb13d	-0.058274496
41	0xbd995552	-0.07486977
42	0xbcf0d6f6	-0.029399376
43	0x3d667802	0.056266792
44	0x3ba7d320	0.0051216036
45	0x3ba98ce0	0.0051742643
46	0x3cbd94a8	0.023142174
47	0xbd96660a	-0.07343681
48	0xbac7ba40	-0.0015238002
49	0xbd2c1178	-0.042008847
50	0x3d4ac536	0.04950448
51	0x3d2535e2	0.04033459
52	0x3d5ab91a	0.053399183
53	0xbd345f1f	-0.044036027
54	0x3a2a4380	0.00064950436
55	0xbd520521	-0.051274423
56	0x3cc7d224	0.024392195
57	0xbcd9bb26	-0.026578497
58	0x3d2a8f6a	0.041640677
59	0xbc5da008	-0.013526924
60	0xbd12a175	-0.03579851
61	0xbd944da4	-0.07241371
62	0xbd98e390	-0.07465279
63	0x3ceed228	0.029152945
64	0xbcdef7b6	-0.027217727
65	0xbc542798	-0.012948893
66	0xbd6337da	-0.055473186
67	0x3c0d69f8	0.008631222
68	0x3d96ba45	0.07359747
69	0xbce1fc7e	-0.027586218
70	0xbcc80a88	-0.024419084
71	0xbd9beab0	-0.076131225
72	0xbd95ea37	-0.073200636
73	0xbce39380	-0.027780294
74	0x3da9efef	0.08297717
75	0xbc942988	-0.01808621
76	0x3d12dbf4	0.035854295
77	0x3d53d896	0.051720224
78	0xbd9ceda8	-0.07662517
79	0x3d68dfb6	0.056853972
80	0xbd30bb7f	-0.04314756
81	0xbd5ac4de	-0.053410403
82	0xbd5b46f1	-0.053534452
83	0xbd43b5dd	-0.04778086
84	0x3c1f5f18	0.009727262
85	0xbb538800	-0.0032277107
86	0xbdae68f0	-0.08516109
87	0xbb6c1f80	-0.0036029518
88	0xbd7499ee	-0.05971711
89	0xbd8905f3	-0.06690588
90	0xbba0eae0	-0.004910812
91	0xbd0a28da	-0.033730365
92	0xbd19c2b0	-0.037539184
93	0x3c99b3d8	0.018762514
94	0x3d74cd4e	0.059766106
95	0xbd1b506a	-0.037918486
96	0x3c9f5c70	0.019453257
97	0x3d6d399e	0.057916276
98	0x3daafee5	0.083493985
99	0xbc66b4d0	-0.014081195
100	0x3d88aa4f	0.06673109
101	0xbd1bfa03	-0.038080227
102	0xbd667ac2	-0.056269415
103	0xbcca68b8	-0.024708137
104	0xbc5e7280	-0.013577104
105	0xbdaa902d	-0.083282806
106	0xbc9fe380	-0.01951766
107	0xbd3dc1a3	-0.046327244
108	0x3d9701e3	0.07373407
109	0x3c1a6de8	0.009425618
110	0x3d3b4a0e	0.04572492
111	0xbdac1bd5	-0.08403746
112	0x3d94f42f	0.07273137
113	0x3b5443a0	0.003238894
114	0xbc09cf78	-0.008411281
115	0x3c5f53c8	0.013630815
116	0xbc143ee8	-0.009048201
117	0xbd8c5840	-0.0685277
118	0xbd6830d8	-0.056687206
119	0x3d3aca96	0.045603357
120	0xbba3b990	-0.004996486
121	0xbdb49d27	-0.08819037
122	0xbdb39670	-0.08768928
123	0xbd5e8dc8	-0.054334432
124	0x3c384be0	0.011248559
125	0xbd9271bf	-0.071506016
126	0x3db32abb	0.087483846
127	0x3a06c180	0.0005140528
128	0x3d434d6a	0.04768125
129	0xbd9dc98a	-0.07704456
130	0x3cc527d8	0.02406685
131	0x3d54049e	0.051762216
132	0x3cc15cc0	0.023603797
133	0x3da1660b	0.07880791
134	0x3bf6e650	0.0075347796
135	0x3d70e88e	0.05881553
136	0x3d857c65	0.06517867
137	0xbd712ee8	-0.058882624
138	0x3d11e70a	0.035620727
139	0xbd0fd4e2	-0.03511513
140	0xbd845545	-0.06461576
141	0x3d1b264e	0.037878327
142	0xbd1af3c9	-0.037830148
143	0xbd5ad2e0	-0.053423762
144	0xbc3efbd8	-0.011656724
145	0xbd457414	-0.048206404
146	0xbd215abc	-0.03939317
147	0x3b2a3aa0	0.0025974885
148	0xbda72339	-0.08161015
149	0xbd57562a	-0.052572407
150	0x3c9cf60c	0.019160293
151	0xbc91c84c	-0.017795704
152	0x3dae11a1	0.08499456
153	0xbb214ce0	-0.0024612471
154	0x3d01a5a0	0.031652093
155	0x3c2af2a8	0.01043383
156	0x3d2e1952	0.042504616
157	0xbd4b9e19	-0.04971132
158	0x3da6b299	0.081395335
159	0x3ce36bc4	0.027761348
160	0x3b111660	0.002213858
161	0x3acda100	0.001568824
162	0x3b782bc0	0.0037867874
163	0xbd7a6f3d	-0.06114124
164	0xbd5a0127	-0.053223755
165	0xbda5fc93	-0.08104815
166	0xbd2c50d3	-0.042069267
167	0x3d0de128	0.034638554
168	0xbd646cf8	-0.055767983
169	0x3ad1c700	0.0016004741
170	0x3d0e440e	0.03473287
171	0xbd58cd7f	-0.05293035
172	0x3d9a2e19	0.07528324
173	0x3da8aca1	0.08236051
174	0xbb20b4c0	-0.0024521798
175	0xbd45ebe7	-0.048320677
176	0xbd5abba4	-0.053401604
177	0x3d25c042	0.040466554
178	0x3cf8eea0	0.030387223
179	0x3d9182af	0.07105004
180	0xbd7b2396	-0.061313234
181	0x3da4a077	0.08038419
182	0x3ca530c8	0.020164862
183	0xbd9f9a34	-0.07793084
184	0xbd90be66	-0.070675656
185	0x3c3d9228	0.011570491
186	0xbcef0538	-0.029177293
187	0x3cb4fba0	0.02209264
188	0xbd8388b0	-0.064225554
189	0x3d231ef2	0.039824434
190	0xbd287f45	-0.041137
191	0x3d7e8b12	0.062144347
192	0xbd022197	-0.031770315
193	0x3d912f97	0.07089155
194	0xbd96e99a	-0.07368775
195	0xbcd15ac8	-0.025555983
196	0x3d712216	0.058870398
197	0xbd0d2f25	-0.03446879
198	0xbd171512	-0.03688533
199	0xba65db80	-0.0008768365
200	0x3d0c90d4	0.034317806
201	0xbc87b6d4	-0.016566671
202	0xbd2b02e7	-0.041750815
203	0xbd942153	-0.072329186
204	0xbd325e8f	-0.04354721
205	0x3d528922	0.05140031
206	0x3d9d33df	0.07675909
207	0x3d859cf5	0.06524078
208	0x3d255cc6	0.04037168
209	0xbdb0e298	-0.08636969
210	0x3c8420b4	0.016128875
211	0xbd10050b	-0.03516106
212	0xbd153aa3	-0.036432873
213	0x3c43e3c8	0.011956163
214	0xbd0cd5a4	-0.03438343
215	0x3b7cc7a0	0.0038571134
216	0x3d12c608	0.03583339
217	0x3d07416a	0.033021368
218	0xbd9401a9	-0.07226879
219	0x3ce3fc0c	0.027830146
220	0xbd0f7731	-0.03502578
221	0xbd2293d7	-0.039691772
222	0x3d384c66	0.044994734
223	0x3d75beb6	0.05999633
224	0xba334e00	-0.0006839931
225	0xbd924d50	-0.071436524
226	0xbd4eb678	-0.050466985
227	0xbd964de8	-0.07339078
228	0x3da9feb1	0.08300532
229	0xbd2d6983	-0.042336952
230	0x3d7598ca	0.059960164
231	0xbd9f2700	-0.077711105
232	0x3cd79c5c	0.026319675
233	0x3bb7eee0	0.005613193
234	0x3dacf7b1	0.08445681
235	0xbc1dbc90	-0.009627476
236	0x3d5c72ba	0.05382035
237	0x3d8003b3	0.062507056
238	0xbd65bc01	-0.056087498
239	0xbd732bbc	-0.05936788
240	0xbc1e6200	-0.00966692
241	0x3c0b4500	0.008500338
242	0x3d8640f3	0.06555357
243	0xbd536b7d	-0.05161618
244	0xbd7d4b40	-0.061839342
245	0x3d7b8c36	0.061413012
246	0xbd4bf98f	-0.049798544
247	0xbd87a02a	-0.06622346
248	0x3d85b635	0.06528894
249	0xbdb163e8	-0.08661634
250	0xbcf5f464	-0.030023761
251	0xbd0b7723	-0.034049165
252	0x3c43f0e0	0.011959285
253	0xbd6f0ada	-0.05835996
254	0x3d9bccf9	0.07607455
255	0xbbea43f0	-0.007149212

network.6.bias f4 [64]
0	0x3c41f220	0.011837512
1	0x3ae26b00	0.001727432
2	0x3d82cb4f	0.06386434
3	0x3ac10d80	0.0014728755
4	0x3cbf521c	0.023354582
5	0xbce35ce0	-0.027754247
6	0x3c18be60	0.009322733
7	0xbc9fce74	-0.019507624
8	0xbd26e47c	-0.040745243
9	0x3d7ca00a	0.061676063
10	0xbdacf45e	-0.08445047
11	0xbc8479f4	-0.016171433
12	0x3c8acce8	0.01694341
13	0x3d85428d	0.06506834
14	0x3c81da88	0.015851274
15	0x3d658542	0.056035288
16	0xbdb0a59b	-0.08625337
17	0xbc7721c8	-0.015083738
18	0xbd10603d	-0.03524803
19	0xbbed3ce0	-0.007239923
20	0xbcbc0f4c	-0.022956513
21	0xbd2392c6	-0.039934896
22	0x3d87ba87	0.06627374
23	0x3d1e9e3e	0.03872513
24	0xbccc0704	-0.024905689
25	0x3d4eb312	0.050463744
26	0xbd61600e	-0.055023246
27	0xbccd56c8	-0.025065795
28	0xbcb45bcc	-0.022016428
29	0x3d48bf8e	0.049010806
30	0x3da9b221	0.082859285
31	0x3cb4ca4c	0.022069119
32	0xbc38d798	-0.01128187
33	0x3d045b02	0.032313354
34	0xbdb1e228	-0.08685714
35	0xbd58233a	-0.05276797
36	0x3db125b3	0.08649769
37	0x3d078064	0.033081427
38	0x3d0f180e	0.03493505
39	0x3cdb509c	0.026771836
40	0xbcf7243e	-0.030168649
41	0xbbcb0280	-0.0061953664
42	0x3d9d9c01	0.07695771
43	0xbd9a8c98	-0.075463474
44	0x3aebc7c0	0.0017988607
45	0xbcaa8b28	-0.020818308
46	0x3d46041a	0.048343755
47	0x3d1fceae	0.039015464
48	0x3d9b1e59	0.07574148
49	0x3d3c5bea	0.045986094
50	0x3d5716e6	0.052512072
51	0x3c8ab100	0.016930103
52	0x3cf41280	0.029793978
53	0xbdb4112d	-0.087923385
54	0x3da1de6f	0.07903754
55	0x3d4c2aa2	0.049845345
56	0xbd44ca9e	-0.048044793
57	0xbcd390b4	-0.025825836
58	0x3cad54b8	0.021158561
59	0x3dadcd59	0.084864326
60	0xbccf9f4c	-0.025344513
61	0xbd4bedd0	-0.049787343
62	0xbcdb0356	-0.02673499
63	0xbd7c22fc	-0.0615568

network.8.weight f4 [100, 64]
0	0x3d89f548	0.06736237
1	0x3d5defdc	0.054183826
2	0xbc72f210	-0.01482822
3	0x3d50e9f4	0.051004365
4	0xbd5fab24	-0.05460657
5	0xbdfd111e	-0.123567805
6	0xbde3a48a	-0.11115368
7	0x3c857fd0	0.016296297
8	0xbcfccbb0	-0.030858845
9	0x3dc3e776	0.09565632
10	0x3de2c354	0.11072412
11	0x3d9c155a	0.0762126
12	0xbd8f158c	-0.069865316
13	0xbcd67dd0	-0.026183039
14	0xbd35cd34	-0.04438515
15	0xbbf7fb80	-0.007567823
16	0xbdfd8f56	-0.12380855
17	0xbc38b900	-0.011274576
18	0xbc174400	-0.009232521
19	0x3dab6f46	0.08370833
20	0xbd993cf8	-0.07482332
21	0xbc383400	-0.0112428665
22	0x39730c00	0.00023178756
23	0x3c673a10	0.014112964
24	0xbdd4091e	-0.103533015
25	0xbdb46a08	-0.08809286
26	0xbde52fe4	-0.11190775
27	0x3d30a328	0.043124348
28	0xbd44f7b4	-0.04808779
29	0xbdf7b2a8	-0.12094623
30	0xbcc4a118	-0.024002597
31	0xbccda928	-0.025105074
32	0xbcb97508	-0.022638813
33	0xbc3a1e10	-0.0113597065
34	0x3cdcf778	0.026973471
35	0xbd81b350	-0.06333029
36	0x3d1582d8	0.036501735
37	0x3d79cf38	0.060988635
38	0xbdda0b72	-0.10646714
39	0xbc82c390	-0.015962392
40	0xbd463b04	-0.048396125
41	0x3dd61630	0.10453451
42	0xbd4b0c58	-0.04957232
43	0x3dc525ea	0.09626372
44	0x3d996ad6	0.074910805
45	0xbceb5728	-0.028728083
46	0xbdd9518a	-0.106112555
47	0x3cae4660	0.021273792
48	0x3df2570a	0.11833008
49	0x3d688b10	0.056773245
50	0xbd4841fc	-0.048891053
51	0x3dd17dc6	0.102290675
52	0x3d094018	0.03350839
53	0xbd8016e6	-0.062543675
54	0x3d9c753c	0.07639548
55	0xbdfece82	-0.12441732
56	0xbdc98472	-0.09839715
57	0x3d129ca0	0.0357939
58	0x3de64e6e	0.11245428
59	0x3d233664	0.039846793
60	0x3df157c4	0.11784318
61	0xbd8e0048	-0.069336474
62	0x3d94fac0	0.07274389
63	0xbdbf0cc0	-0.09328604
64	0xbd7b4234	-0.061342433
65	0x3db2e3d2	0.087348595
66	0xbde99d82	-0.11406995
67	0x3d3a3748	0.045462877
68	0xbc0c9710	-0.008580938
69	0xbd42a79c	-0.047523126
70	0x3d165110	0.0366984
71	0xbd9213ea	-0.071327046
72	0xbd2efa70	-0.042719305
73	0xbd7323f4	-0.05936046
74	0xbd9ab5f2	-0.075542346
75	0x3de9a3fa	0.11408229
76	0xbdfed6b8	-0.12443298
77	0x3d09127c	0.033464894
78	0x3d066040	0.032806635
79	0xbd331550	-0.043721497
80	0x3dff8844	0.124771625
81	0x3d3c1abc	0.045923933
82	0xbdd4e48e	-0.10395156
83	0x3d46db20	0.048548818
84	0x3b2785c0	0.00255619
85	0xbd647728	-0.0557777
86	0x3d6e5b98	0.05819282
87	0x3d63df60	0.05563295
88	0xbd038c58	-0.032116264
89	0xbdbdf3ac	-0.09274992
90	0x3db5b758	0.08872861
91	0xbdd60346	-0.10449843
92	0xbcbd8920	-0.023136675
93	0x3dccbd34	0.09997025
94	0x3d3cc18c	0.04608302
95	0x3bbf2da0	0.0058342963
96	0xbd0607c8	-0.032722265
97	0xbdb21954	-0.08696237
98	0x3db593b6	0.08866064
99	0xbd4e49ac	-0.050363228
100	0xbd36b558	-0.044606537
101	0xbdb5f4f2	-0.0888461
102	0x3dbd2148	0.092348635
103	0xbcf71740	-0.030162454
104	0xbdae642e	-0.085152015
105	0x3d5725e0	0.052526355
106	0xbddf4326	-0.109014794
107	0xbd857906	-0.06517224
108	0xbcced410	-0.025247604
109	0x3dca66f2	0.098829165
110	0xbde270d4	-0.110566765
111	0x3de61ee0	0.11236358
112	0xbdea6e8c	-0.114468664
113	0x3d84aa30	0.06477773
114	0x3de47e1e	0.111568674
115	0x3d7c9474	0.061665013
116	0x3c340f80	0.010990024
117	0x3dbda26e	0.09259497
118	0x3ccbe5b0	0.024889797
119	0xbbc65ea0	-0.0060537606
120	0x3d28aaa0	0.041178346
121	0xbc9a8ae0	-0.018865049
122	0x3de3a0ae	0.111146316
123	0xbd0c99c4	-0.03432633
124	0x3db05608	0.08610159
125	0x3c9cacd0	0.019125372
126	0x3d03c718	0.032172292
127	0x3d1506d4	0.036383465
128	0xbd1c8678	-0.038214177
129	0xbdd804f6	-0.10547821
130	0x3d7bd210	0.061479628
131	0x3dbfa04e	0.093567476
132	0xbd8546f4	-0.06507674
133	0xbd6df37c	-0.058093533
134	0x3cf93470	0.030420512
135	0xbdbbf30e	-0.091772184
136	0xbdc72c96	-0.09725301
137	0x3c5718b0	0.013128445
138	0xbd35a318	-0.04434499
139	0x3dd39c70	0.103325725
140	0xbd224ba0	-0.039622903
141	0x3c086ca0	0.0083266795
142	0x3dd4ec54	0.103966385
143	0xbd1b1b68	-0.037867934
144	0x3d9c430a	0.07629974
145	0xbdf0c434	-0.11756173
146	0xbdd4b276	-0.10385601
147	0x3cf9a538	0.03047429
148	0x3d8fdb40	0.070242405
149	0xbdbce3ba	-0.09223123
150	0x3ca1fb78	0.01977323
151	0x3d875a70	0.066090465
152	0x3da10414	0.07862106
153	0xba07d400	-0.0005181432
154	0xbdcda69e	-0.10041545
155	0xbdff0420	-0.12451959
156	0x3dda8ac2	0.10670997
157	0xbd8c8334	-0.068609625
158	0xbcb2b510	-0.021814853
159	0xbdfdd2e0	-0.12393737
160	0xbd12a474	-0.035801366
161	0x3dee8db8	0.116481245
162	0xbc6b9850	-0.014379576
163	0xbd5fdd2c	-0.054654285
164	0xbdad49c6	-0.08461337
165	0xbda9df8c	-0.08294591
166	0xbd27d434	-0.040973857
167	0x3dfbb9c6	0.12291293
168	0x3cd261b8	0.025681362
169	0xbd7eebe8	-0.062236696
170	0xbd963ed6	-0.07336204
171	0xbd952b1e	-0.072836146
172	0x3deda7dc	0.11604282
173	0xbcbebf98	-0.023284718
174	0x3de577ee	0.112045154
175	0x3d770210	0.0603047
176	0x3de81556	0.113321945
177	0x3c977938	0.018490419
178	0xbd5d1278	-0.05397269
179	0x3dea087a	0.11427398
180	0x3daab174	0.08334628
181	0xbd717364	-0.058947936
182	0x3dabe7b2	0.08393802
183	0xbc26e660	-0.010186762
184	0xbb826d60	-0.0039803237
185	0x3da4ed90	0.08053124
186	0x3db0e1b6	0.08636801
187	0x3d199a5c	0.037500724
188	0x3c51a200	0.0127949715
189	0x3d8ce8a0	0.06880307
190	0x3de482e2	0.111577764
191	0xbd316244	-0.043306604
192	0xbdc31d8c	-0.0952712
193	0x3c82c5f8	0.01596354
194	0x3d99e0f2	0.07513608
195	0x3dcd6b92	0.10030283
196	0x3c27dd70	0.010245666
197	0xbd797ba4	-0.06090893
198	0x3db0e6ec	0.08637795
199	0x3d8a63a2	0.06757285
200	0x3d9e0cf8	0.07717317
201	0xbdec32b8	-0.11533111
202	0xbdbbc73a	-0.09168859
203	0x3d89aa02	0.067218795
204	0xbd9ac9ca	-0.075580195
205	0x3d65eae0	0.056132197
206	0xbd814d52	-0.06313576
207	0x3dc76528	0.09736091
208	0xbd497b64	-0.04918994
209	0x3df01df6	0.117244646
210	0xbd215a34	-0.039392665
211	0xbc2b08a0	-0.010439068
212	0x3db4b8c0	0.08824301
213	0x3d7c62bc	0.061617598
214	0xbdd32afc	-0.10310933
215	0x3df8df46	0.12151961
216	0xbd3bf384	-0.04588653
217	0xbca4e7f0	-0.020130128
218	0xbd9f7736	-0.077864096
219	0xbd9fbfa2	-0.07800223
220	0xbdd3a9d4	-0.103351265
221	0x3cfc9368	0.030832008
222	0xbde4f06e	-0.11178671
223	0xbdc8c320	-0.09802842
224	0xbd56ac68	-0.052410513
225	0x3d05eb08	0.032694846
226	0x3d7d61e4	0.061860934
227	0x3da6e4a2	0.08149077
228	0x3ce6bdf0	0.028166741
229	0xbdf03a6c	-0.11729893
230	0x3ddc25b6	0.1074938
231	0xbdae8622	-0.085216776
232	0xbd704924	-0.058663502
233	0xbd1d9820	-0.038475156
234	0x3db7e322	0.08978869
235	0x3d83ba74	0.064320475
236	0xbc422d10	-0.011851564
237	0x3df84e1c	0.12124273
238	0xbd5f00c0	-0.054444075
239	0xbce6dec0	-0.028182387
240	0x3dc93206	0.09823994
241	0x3d8848b2	0.066544905
242	0x3d4dfed8	0.050291866
243	0x3db05a54	0.08610979
244	0xbdb81fc8	-0.08990437
245	0x3d0e6710	0.034766257
246	0xbde0e07e	-0.109803185
247	0xb91abc00	-0.0001475662
248	0x3df12d2a	0.117761925
249	0xbde78476	-0.11304562
250	0xbc39e1d0	-0.011345342
251	0xbd837aa8	-0.06419879
252	0xbdc2d03e	-0.09512375
253	0x3decba54	0.11558977
254	0xbd3bb46c	-0.04582636
255	0xbd36cf68	-0.04463139

network.8.bias f4 [100]
0	0x3dc4789a	0.095933154
1	0x3df0e852	0.117630616
2	0xbde6ef6a	-0.11276133
3	0x3cda78c8	0.026668921
4	0xbc84ae20	-0.01619631
5	0xbdf50902	-0.11964609
6	0xbd983dae	-0.074336395
7	0x3d2c13c4	0.042011037
8	0xbd323894	-0.04351099
9	0xbcd94e90	-0.02652672
10	0x3d761e08	0.060087234
11	0x3c824c88	0.015905634
12	0x3d9dad0e	0.07699023
13	0x3d2ca52c	0.042149708
14	0x3d03a4d4	0.032139614
15	0xbdb697b0	-0.08915651
16	0xbddb4b1e	-0.10707687
17	0xbb48a880	-0.0030618012
18	0x3d658b9c	0.056041345
19	0xbbe4b680	-0.0069797635
20	0x3dc26efc	0.09493825
21	0x3db7274c	0.08943042
22	0xbd780aa0	-0.060557008
23	0x3de7ac98	0.113122165
24	0xbbeec5e0	-0.007286772
25	0x3db61022	0.08889796
26	0xbd4ea7c0	-0.050452948
27	0x3deb0222	0.11475016
28	0x3d4f8868	0.050667197
29	0x3d37b554	0.044850662
30	0xbdf02d28	-0.11727363
31	0x3d1fc57c	0.039006695
32	0x3d9ae7ac	0.07563719
33	0x3d976066	0.073914334
34	0xbd07ba04	-0.033136383
35	0xbd9ef2a0	-0.07761121
36	0xbdb63120	-0.088960886
37	0x3cc4a6c8	0.024005309
38	0x3d242ecc	0.04008369
39	0xba4bb100	-0.00077702105
40	0x3d456db8	0.04820034
41	0x3d651058	0.05592379
42	0x3d9811ee	0.07425295
43	0xbd9c6004	-0.07635501
44	0x3c7e6960	0.015528053
45	0x3decc5b4	0.115611464
46	0x3d368240	0.04455781
47	0xbdf657e2	-0.12028481
48	0xbd483c34	-0.04888554
49	0xbdb4c71e	-0.08827041
50	0x3dacb602	0.08433153
51	0x3d7d68f8	0.061867684
52	0x3da4d8e6	0.080491826
53	0x3d6bdc8c	0.057583377
54	0x3d476818	0.048683256
55	0x3d4d3b34	0.05010529
56	0x3d6a7aac	0.057245895
57	0x3deab7c0	0.11460829
58	0xbc25b550	-0.010114029
59	0x3da5e27a	0.080998376
60	0xbdec122a	-0.11526902
61	0xbd553ce0	-0.052060008
62	0x3dc3e4f0	0.09565151
63	0x3d20b554	0.039235428
64	0x3da079d2	0.078357354
65	0x3d394b2c	0.045237705
66	0x3d5d8158	0.05407843
67	0x3d96ce8e	0.07363616
68	0x3d312024	0.043243542
69	0xbd973570	-0.07383239
70	0x3cdd0380	0.026979208
71	0xbc9cf798	-0.01916103
72	0xbdd70ad8	-0.10500115
73	0xbd34945c	-0.0440868
74	0xbdf13764	-0.11778143
75	0xbdc18a04	-0.094501525
76	0xbbd73be0	-0.006568417
77	0x3dc5fe6c	0.09667668
78	0x3de72f6c	0.11288342
79	0x3dd90068	0.105957806
80	0x3b4937c0	0.0030703396
81	0x3d878052	0.06616272
82	0xbcb09578	-0.021555647
83	0xbd5b9780	-0.05361128
84	0x3d10cf50	0.03535396
85	0xbdc9b924	-0.09849766
86	0xbcc2a828	-0.023761824
87	0xbd94f9fe	-0.07274245
88	0xbcfde038	-0.030990705
89	0x3ca95dc0	0.020674586
90	0xbd1cf7f8	-0.03832242
91	0xbd5c79a8	-0.053826958
92	0x3de6c59a	0.11268158
93	0x3db11eb8	0.08648437
94	0xbdcc1dd0	-0.09966624
95	0x3d50bb94	0.05096014
96	0x3d5d1cc8	0.053982526
97	0x3db11588	0.08646685
98	0xbd3f2c98	-0.046673387
99	0xbdd2cf3a	-0.102934316

network.0.weight f4 [256, 200]
0	0x3d2eb532	0.04265327
1	0xbd1514e1	-0.036396865
2	0xbcfe5442	-0.031046037
3	0xbd10fa70	-0.035395086
4	0xbd308a7e	-0.043100826
5	0xbd5de844	-0.054176584
6	0xbbba8c10	-0.0056929663
7	0xbd0dc16e	-0.034608297
8	0x3d1154be	0.035481207
9	0xbd0be46f	-0.034153398
10	0xbd506072	-0.050873227
11	0x3d6edc36	0.05831548
12	0x3d137fc0	0.036010504
13	0x3cbfc854	0.023410954
14	0xbc405b2c	-0.011740487
15	0xbbe58630	-0.007004522
16	0xbbcb53e0	-0.006205067
17	0x3d6225e6	0.055211924
18	0x3b8aba10	0.004233606
19	0xbb7b13e0	-0.0038311407
20	0x3a8e0480	0.0010835081
21	0x3d2dd0ea	0.042435564
22	0x3ce34590	0.02774313
23	0x3d8c984b	0.06864985
24	0xbd6924dd	-0.05691992
25	0xbd0d6caa	-0.03452746
26	0x3d1d937e	0.038470738
27	0x3d5bf566	0.053700827
28	0xbd19354c	-0.037404343
29	0x3d8fa2dd	0.070134856
30	0xbd26b50b	-0.0407
31	0xbd4ba210	-0.0497151
32	0x3b8a0c30	0.0042128786
33	0x3ceb2898	0.02870588
34	0x3d8acb19	0.06777019
35	0x3d7fd53e	0.062459223
36	0x3d84d3d3	0.06485715
37	0xbd2bd266	-0.0419487
38	0x3d63d6be	0.055624716
39	0x3c73d1f8	0.014881603
40	0xbd8bf046	-0.06832938
41	0xbd87dbbc	-0.06633708
42	0xbc0ab2a8	-0.0084654465
43	0x3d519d72	0.051175542
44	0x3b96f9e0	0.004607424
45	0x3b1d3720	0.0023989156
46	0x3d8996ad	0.06718192
47	0x3bcc2090	0.0062294677
48	0xbc2f04e8	-0.010682322
49	0x3d7073a6	0.05870404
50	0xbd4ddafe	-0.050257675
51	0x3c8d3f70	0.017242163
52	0xbd50b43e	-0.050953142
53	0x3cb87134	0.022514917
54	0xbccf3016	-0.025291484
55	0x3d859e33	0.06524315
56	0xbd792ba1	-0.060832623
57	0x3d83a7f3	0.06428518
58	0x3c55c1a8	0.0130466595
59	0xbc2709b8	-0.010195188
60	0xbd2c554a	-0.042073525
61	0x3c7e1aa8	0.015509285
62	0x3d3ed754	0.04659207
63	0xbb9dfa70	-0.0048211142
64	0xbbe95130	-0.007120274
65	0xbd0fe2c4	-0.03512837
66	0x3c347b18	0.011015676
67	0xba218280	-0.00061611086
68	0x3d794b9e	0.06086313
69	0x3cddf358	0.027093574
70	0x3d0098be	0.031395666
71	0x3d866749	0.06562669
72	0x3bb59dd0	0.0055424944
73	0x3d10fdba	0.035398223
74	0xbc3e140c	-0.011601459
75	0x3d3d90a2	0.04628051
76	0xbcddd8fc	-0.027081005
77	0xbc29ba18	-0.01035931
78	0xbb01b640	-0.0019792467
79	0x3cf37fa4	0.02972395
80	0xbcb0a9e2	-0.021565381
81	0xbd570d25	-0.05250277
82	0x3c584798	0.013200663
83	0xbc9c9d38	-0.019117936
84	0x3b7c6f00	0.003851831
85	0x3c8c4bf0	0.017126054
86	0xbc4afe84	-0.012389783
87	0xbbc0b3b0	-0.0058807954
88	0x3c4543b0	0.012040064
89	0xbd3f1010	-0.046646178
90	0x3baf4310	0.0053485706
91	0xbd6bf616	-0.057607733
92	0xbd7f1582	-0.06227637
93	0xbd68a95e	-0.056802146
94	0x3d7d16c6	0.061789297
95	0xbd47ab8a	-0.048747577
96	0xbd5a78f3	-0.053338002
97	0xbc9f6478	-0.019457087
98	0xbd890859	-0.06691045
99	0xbd22910e	-0.039689116
100	0xbd164ba7	-0.03669324
101	0xbc5195d0	-0.012792066
102	0x3d05c574	0.03265901
103	0xbcfc6cf8	-0.03081368
104	0xbd89403d	-0.067017056
105	0x3c142f70	0.009044513
106	0x3c070c00	0.008242607
107	0x3d0fd9f8	0.03511998
108	0x3d7a26aa	0.06107203
109	0xbd0b9a68	-0.0340828
110	0xbc181be8	-0.009283997
111	0xbd61da49	-0.055139814
112	0xbc3eefc0	-0.011653841
113	0xbd82dc2c	-0.06389651
114	0xbcfbc25e	-0.03073233
115	0xbcf214ae	-0.029550876
116	0x3d3acbf8	0.045604676
117	0x3b1c6480	0.0023863614
118	0xbcb4bef8	-0.022063717
119	0xbd8fba8c	-0.07018003
120	0xbd0914f8	-0.033467263
121	0x3d034d10	0.032055914
122	0x3d6b3e9e	0.057432763
123	0xbd78ce90	-0.06074387
124	0x3d459492	0.04823739
125	0xbc967a86	-0.01836897
126	0xbd5c9686	-0.053854488
127	0x3c19dbf0	0.009390816
128	0x3c8f11a0	0.017464459
129	0x3d28d954	0.041222885
130	0xbd8afe95	-0.06786839
131	0xbd628a15	-0.055307467
132	0x3d75bef6	0.059996568
133	0xbcfc0e18	-0.03076844
134	0x3d4fb1fc	0.05070685
135	0x3d8faa7b	0.070149384
136	0x3cfd22f4	0.030900456
137	0xbc9e12ca	-0.019296069
138	0xbbdfde90	-0.0068319514
139	0x3bda5ae0	0.006663665
140	0xbc8641a6	-0.016388725
141	0x3cce5288	0.025185838
142	0xbd0fd2c9	-0.03511313
143	0x3c9e8578	0.019350752
144	0x3d64f04e	0.055893235
145	0xbd2ce10c	-0.04220681
146	0xbc16dc30	-0.00920777
147	0xbd596484	-0.053074375
148	0xbcfdecbc	-0.030996673
149	0x3d76ca02	0.060251243
150	0xbcf2864c	-0.029605053
151	0x3d3384f0	0.04382795
152	0xbd583284	-0.05278255
153	0xbcbc6b6e	-0.023000445
154	0x3ce91914	0.028454341
155	0x3d1798be	0.0370109
156	0x3d83af49	0.06429917
157	0xbd8dc531	-0.06922377
158	0xbd03cdc9	-0.032178674
159	0x3d81d7db	0.06339999
160	0xbd1bd399	-0.038043592
161	0xbd799d69	-0.060941134
162	0xbd801ade	-0.062551245
163	0xbd66d61c	-0.056356534
164	0x3caad9b4	0.020855762
165	0x3cd92120	0.026505053
166	0x3cc44628	0.023959234
167	0x3cc17c7c	0.02361893
168	0xbd412e42	-0.047163256
169	0xbd6d5d76	-0.05795046
170	0x3c4c33f0	0.012463555
171	0x3d0fa446	0.035068773
172	0xbd8562aa	-0.06512959
173	0xbc5d0424	-0.013489757
174	0x3d34a35c	0.044101104
175	0x3cfdc8f0	0.030979604
176	0x3d2378ea	0.039910235
177	0xbd2ae894	-0.04172571
178	0x3b71f740	0.0036921054
179	0x3bc709b0	0.006074153
180	0x3c369d78	0.011145942
181	0xbcb56070	-0.022140712
182	0xbc3ba46c	-0.011452775
183	0xbc242ff4	-0.010021199
184	0xbd61dc26	-0.05514159
185	0xbd8dfa11	-0.06932462
186	0x3c571920	0.013128549
187	0x3b820870	0.003968291
188	0x3b8189a0	0.0039531738
189	0xbd8dd72d	-0.06925807
190	0x3d5c4bc4	0.053783193
191	0xbcf027f8	-0.029315934
192	0x3cee5bbc	0.029096477
193	0x3d43d4da	0.047810413
194	0xbca7226e	-0.02040216
195	0xbd166c62	-0.036724456
196	0x3cc6c87c	0.02426552
197	0xbd85b2b0	-0.065282226
198	0xbbb9c3e0	-0.005669102
199	0xbcb0540e	-0.021524455
200	0x3c83b248	0.016076222
201	0xbd71e1b0	-0.059053123
202	0x3c92495c	0.017857246
203	0x3d5fef2a	0.054671444
204	0xbd80c449	-0.062874384
205	0x3cf9a5bc	0.030474536
206	0xbcc21e08	-0.02369596
207	0xbd8faa8a	-0.070149496
208	0x3cc92348	0.024552956
209	0x3cd8ae20	0.026450217
210	0xbbad81c0	-0.0052950084
211	0xbcb6f044	-0.022331364
212	0xbc941396	-0.018075746
213	0x3c6aaf38	0.014324002
214	0x3ca24ae8	0.019811109
215	0xbd216d76	-0.03941103
216	0xbd659487	-0.05604985
217	0x3d1be1cc	0.038057134
218	0xbc48a378	-0.012246005
219	0x3d60e222	0.054903157
220	0xbd1e24a8	-0.038609177
221	0xbcda62c8	-0.02665843
222	0xbd3e54f2	-0.04646773
223	0xbbb23a40	-0.005439073
224	0xbd785924	-0.060631886
225	0x3cfa12ac	0.030526482
226	0x3caa8860	0.020816982
227	0xbccbcafe	-0.024877068
228	0xbc3a72e0	-0.011379927
229	0xbc372e18	-0.011180423
230	0x3d31fdc4	0.0434549
231	0xbcb639d0	-0.022244364
232	0x3d065128	0.03279224
233	0x3b5f5660	0.0034078583
234	0x3d31e4e0	0.043431163
235	0x3d3d7dce	0.046262555
236	0x3d2996e4	0.041403666
237	0x3d0437ce	0.032279782
238	0x3c012880	0.007883191
239	0x3c912c74	0.017721392
240	0x3d662d2e	0.05619543
241	0x3d66af8a	0.05631975
242	0x3c279b60	0.010229915
243	0x3cc3c710	0.023898631
244	0x3d8e77a5	0.06956414
245	0x3cd6ba8c	0.026212
246	0xbce269be	-0.027638312
247	0x3cc412f4	0.023934819
248	0xbb877cd0	-0.004134752
249	0x3ce0ca58	0.027440235
250	0xbc958910	-0.018253833
251	0x3c957d84	0.018248327
252	0xbd6fc66a	-0.05853883
253	0x3d195ca6	0.037441872
254	0xbd59123c	-0.052995905
255	0xbd734969	-0.05939618
